results/simple_nav_v1/6/model.pt (torch, 532352 bytes, 4 tensors)

0.weight f4 [256, 512]
0	0x3d1c1554	0.038106278
1	0xbe02107b	-0.127016
2	0xbd34ff86	-0.044189
3	0x3cf71194	0.03015975
4	0x3cfde10f	0.030991105
5	0xbe3d3d81	-0.18480493
6	0x3dd3a4af	0.10334145
7	0xbd2f5d69	-0.042813692
8	0xbcd7bdea	-0.026335675
9	0x3cb7942b	0.02240952
10	0xbdee60b8	-0.116395414
11	0xbca00b42	-0.019536618
12	0x3cf8bf13	0.030364549
13	0xbe0197b7	-0.12655531
14	0xbd443025	-0.047897477
15	0xbbc33879	-0.00595766
16	0x3cfffcba	0.03124844
17	0xbdd080f4	-0.10180846
18	0xbe3dcbb9	-0.18534745
19	0xbe26bad0	-0.16282201
20	0xbe361b69	-0.17783894
21	0xbe14aaec	-0.14518327
22	0xbdf85a7c	-0.121266335
23	0xbd110a13	-0.03541
24	0xbe2dae81	-0.16961099
25	0xbdf82814	-0.12117019
26	0x3e03e59e	0.12880561
27	0xbda6db34	-0.081472784
28	0xbbe6ad2a	-0.0070396857
29	0xbda98478	-0.082772195
30	0x3d1b3963	0.037896525
31	0x3d81cf69	0.063383885
32	0xbd959beb	-0.073051296
33	0xbdcef4a5	-0.10105256
34	0xbdaa2e86	-0.08309655
35	0xbce3e55f	-0.027819334
36	0xbdcc0af8	-0.099630296
37	0xbd2372e0	-0.039904475
38	0x3d159aa7	0.03652444
39	0xbda0df73	-0.078551196
40	0x3cba6dea	0.02275749
41	0xbd4b6f22	-0.04966653
42	0xbc41e010	-0.011833206
43	0xbdbda6b1	-0.092603095
44	0xbd2661bc	-0.04062055
45	0xbda14e99	-0.078763194
46	0xbe305702	-0.17220691
47	0x3e115415	0.14192231
48	0xbdc24398	-0.09485549
49	0x3c8c4faf	0.01712784
50	0xbd6d961d	-0.058004487
51	0xbdd90c90	-0.10598099
52	0xbe2de9a0	-0.16983652
53	0xbda6658e	-0.08124839
54	0x3bfa117a	0.007631478
55	0xbd4d0a2f	-0.05005854
56	0xbe3200cc	-0.17383116
57	0xbdde64b1	-0.10859049
58	0xbe39c23d	-0.18140502
59	0x3ccab715	0.024745503
60	0xbe06b41d	-0.13154645
61	0xbdf09425	-0.11747006
62	0x3d661b56	0.056178413
63	0x3c68e027	0.014213598
64	0xbe0cec1e	-0.13761947
65	0xbd23f743	-0.04003073
66	0x3a23f8d9	0.0006255038
67	0xbd155578	-0.036458462
68	0x3d3faa89	0.046793494
69	0xbe3aec73	-0.1825426
70	0xbe320ae8	-0.17386973
71	0xbd905107	-0.07046705
72	0xbce6ec68	-0.0281889
73	0xbd642de8	-0.055707842
74	0xbdba73b3	-0.09104099
75	0xbe3523ab	-0.17689388
76	0xbdd138ea	-0.102159336
77	0x3cd6bc38	0.026212797
78	0x3c8a9cc8	0.016920462
79	0xbe2c8581	-0.16847803
80	0xbd050017	-0.03247079
81	0xbd981ab8	-0.07426971
82	0x3cbad67d	0.022807354
83	0xbe121a2f	-0.14267801
84	0xbe1b1a27	-0.15146695
85	0x3d7efd36	0.0622532
86	0x3d37df13	0.044890475
87	0xbd1d8ce4	-0.038464442
88	0xbe369672	-0.17830828
89	0xbcc0624b	-0.02348437
90	0xbdfdf6a9	-0.12400562
91	0x3db6824b	0.0891157
92	0xbe1075da	-0.14107457
93	0xbd12c686	-0.035833858
94	0xbe1b5737	-0.15169989
95	0xbde87649	-0.11350686
96	0x3d1985d4	0.037481144
97	0xbd3c89a7	-0.046029713
98	0xbe157719	-0.14596213
99	0xbd3fd834	-0.046837047
100	0xbe2c181d	-0.16806073
101	0x3c621c12	0.013800638
102	0x3cbcdf61	0.023055734
103	0xbb128b09	-0.0022360703
104	0xb964052f	-0.00021745705
105	0x3d1f888e	0.038948588
106	0xbe19a22b	-0.15003268
107	0x3d092406	0.03348162
108	0xbde3fe9b	-0.111325465
109	0xbc45cc93	-0.0120727
110	0xbc9968b3	-0.018726682
111	0xbe29b247	-0.16571914
112	0xbc9e8f68	-0.01935549
113	0xbdcddbd8	-0.100516975
114	0xbe349e2c	-0.17638463
115	0xbe13a863	-0.14419703
116	0x3d8433cb	0.06455191
117	0xbd55f3f4	-0.052234605
118	0xbe3aa35c	-0.18226379
119	0x3da1b727	0.07896262
120	0xbe13fe0b	-0.14452378
121	0x3d6ac28b	0.057314437
122	0xbdf494e1	-0.11942459
123	0xbbb36c25	-0.0054755383
124	0xbe3407de	-0.17581126
125	0xbdb20cb9	-0.08693833
126	0xbdd2ccf8	-0.10293001
127	0x3d47b3b6	0.04875537
128	0xbe1932da	-0.14960805
129	0x3d298f6e	0.04139655
130	0xbe06234d	-0.13099404
131	0xbde0d774	-0.109785944
132	0x3d7d50d9	0.06184468
133	0x3ceece50	0.029151112
134	0xbe09c921	-0.13455631
135	0xbe08e0de	-0.1336703
136	0xbd6f76f1	-0.05846304
137	0xbe1de263	-0.15418391
138	0xbdc32744	-0.09528974
139	0x3c11b963	0.008894297
140	0xbdc56659	-0.09638662
141	0xbd7d18f5	-0.06179138
142	0xbe2deae4	-0.16984135
143	0xbdfd365c	-0.12363884
144	0xba033416	-0.0005005015
145	0x3df0b5cf	0.11753427
146	0xbc4b6894	-0.01241507
147	0xbdf6f3ba	-0.12058206
148	0xbe008a73	-0.12552814
149	0xbdebfca6	-0.11522798
150	0xba3f3ed6	-0.0007295435
151	0xbced7e41	-0.028990867
152	0xbdf2a8d3	-0.11848607
153	0x3d267453	0.04063828
154	0xbc450b12	-0.012026565
155	0xbe19a7e4	-0.15005451
156	0xbd6ebf8c	-0.058288142
157	0xbe27456a	-0.16335073
158	0x3c1ce518	0.009576105
159	0xbdd0f562	-0.10203053
160	0xbbd71f6c	-0.006565025
161	0xbd0ec66f	-0.03485721
162	0xbb106ae4	-0.0022036368
163	0x3d864030	0.065552115
164	0xbb0b0a0b	-0.0021215703
165	0x3d7c2131	0.06155509
166	0xbd21a3d5	-0.039462883
167	0x3d6567a6	0.05600705
168	0xbe215d2c	-0.15758198
169	0x3d6e371c	0.058158025
170	0xbd6e4723	-0.05817331
171	0xbe03da68	-0.12876284
172	0xbe1e7fe8	-0.1547848
173	0xbc5700bd	-0.013122735
174	0xbcb77a94	-0.022397317
175	0x3d050dde	0.032483928
176	0xbd7cee1b	-0.061750513
177	0xbd8064a0	-0.06269193
178	0xbe1f0a31	-0.15531231
179	0xbdb99209	-0.09061057
180	0xbc2ec869	-0.010667899
181	0x3d2b89de	0.041879527
182	0x3cd9a939	0.02656995
183	0xbd3b1bb3	-0.045680713
184	0xbe2acf00	-0.16680527
185	0x3d933f39	0.07189793
186	0xbde7d11c	-0.11319181
187	0xbd0fbc3d	-0.035091627
188	0xbdfdb143	-0.123873256
189	0xbda639eb	-0.08116516
190	0x3d4da6e3	0.050207984
191	0xbde6a506	-0.112619445
192	0xbde98d94	-0.11403957
193	0xbd1e0f3b	-0.038588744
194	0xbd4faca0	-0.050701737
195	0x3d8c1f07	0.068418555
196	0x3d782262	0.060579665
197	0x3bfa78d6	0.0076437993
198	0x3d28b1bc	0.041185126
199	0x3d57e394	0.05270727
200	0x3d280d4a	0.0410283
201	0x3d25f9a7	0.04052129
202	0xbd3b0da1	-0.045667294
203	0x3bafce12	0.0053651417
204	0xbd900a94	-0.070332676
205	0xbe1a24a7	-0.15053044
206	0xbdd92326	-0.10602407
207	0xbda10220	-0.078617334
208	0x3d511b98	0.051051706
209	0x3c8008fd	0.015629286
210	0xbdc4d047	-0.09610038
211	0x3cbbcd26	0.02292497
212	0xbb49b640	-0.0030778795
213	0xbd5a177a	-0.053245045
214	0xbbe85456	-0.0070901318
215	0xbd5e25d8	-0.05423531
216	0xbd0ac483	-0.033878814
217	0x3d81657f	0.06318187
218	0xbe26db0f	-0.16294502
219	0xbd089dd5	-0.033353645
220	0x3c339ef6	0.010963192
221	0x3c841b41	0.016126277
222	0xbda062a5	-0.07831315
223	0xbe1b8169	-0.15186085
224	0xbe0e6957	-0.13907371
225	0xbcb95847	-0.022625102
226	0x3d6fe8ca	0.058571614
227	0xbdd407b2	-0.1035303
228	0xbd6d47b5	-0.057929713
229	0x3d013016	0.03154
230	0xbdd35643	-0.103191875
231	0xbdb5e735	-0.0888199
232	0xbdca1aea	-0.09868415
233	0xbd6c41bc	-0.057679877
234	0xbdb2f236	-0.08737604
235	0xbdb2549f	-0.087075464
236	0xbdc70850	-0.09718382
237	0xbd122e60	-0.035688758
238	0x3deba24a	0.115055636
239	0xbde62283	-0.11237051
240	0xbcdcbc52	-0.026945267
241	0xbdf45a34	-0.119312674
242	0xbcc30f47	-0.023810996
243	0xbdcfa716	-0.10139291
244	0xbd5f9aeb	-0.0545911
245	0xbcc18363	-0.02362222
246	0x3ce18598	0.027529523
247	0xbdc2de75	-0.095150866
248	0x3cac1210	0.021004707
249	0xbd035748	-0.03206566
250	0xbddcf7cc	-0.10789451
251	0xbe0e3d5f	-0.13890599
252	0xbdee44af	-0.11634194
253	0xbd3fe4e0	-0.04684913
254	0xbe0a1e02	-0.1348801
255	0xbde2e440	-0.110786915

0.bias f4 [256]
0	0xbd511986	-0.05104973
1	0x3d9cf777	0.07664388
2	0xbd493664	-0.049124137
3	0xbd4d05fc	-0.050054535
4	0xbd4d04e5	-0.050053496
5	0x3d90daae	0.0707296
6	0x3e4ed3c7	0.20197974
7	0xbd4cfb91	-0.0500446
8	0x3df3ac52	0.11898102
9	0xbd4cbfca	-0.04998759
10	0xbc02356e	-0.007947309
11	0x3e68841f	0.2270665
12	0xbd4ba1e5	-0.04971494
13	0x3e4085cb	0.18801038
14	0x3e2613b7	0.16218458
15	0x3e12094e	0.14261362
16	0xbd4d05db	-0.050054412
17	0x3d875745	0.06608442
18	0xbd4d05d8	-0.0500544
19	0xbd4f0f47	-0.05055168
20	0x3e0f02bd	0.13965888
21	0x3d4791e6	0.048723124
22	0xbd4d0407	-0.05005267
23	0xbd3bda2c	-0.04586236
24	0x3dbd8326	0.0925353
25	0xbd4d01fe	-0.050050728
26	0xbd8b7411	-0.06809247
27	0xbd4d03c2	-0.05005241
28	0x3e475802	0.19467166
29	0xbd4d0431	-0.050052825
30	0xbd4d053a	-0.050053813
31	0x3def07a3	0.116713785
32	0xbd4b11a5	-0.049577374
33	0x3dbb2cd9	0.091394134
34	0xbd4d0416	-0.050052725
35	0xbd98a352	-0.07453026
36	0xbd4d050a	-0.050053634
37	0xbd4d0489	-0.050053153
38	0xbd4d055a	-0.05005393
39	0xbd4d0522	-0.050053723
40	0xbd4d059f	-0.05005419
41	0x3e2e7ceb	0.1703984
42	0x3dec1030	0.11526525
43	0x3e174537	0.14772497
44	0x3de86c23	0.113487504
45	0x3c882269	0.01661797
46	0x3de9da53	0.11418595
47	0x3c7e12a2	0.015507372
48	0x3dc247f8	0.09486383
49	0x3e2b6b8b	0.16740243
50	0x3e2d650f	0.16933082
51	0x3e5814b5	0.21101649
52	0x3d290737	0.041266646
53	0x3e1df17b	0.15424149
54	0xbd4d0560	-0.050053954
55	0xbd4d0214	-0.05005081
56	0xbd6c902f	-0.05775469
57	0x3db73f0a	0.089475706
58	0xbd4d04bb	-0.05005334
59	0x3e5e8823	0.2173162
60	0x3dd55971	0.1041745
61	0xbd4d0234	-0.05005093
62	0x3d9cee5f	0.07662653
63	0xbd512eb0	-0.051069915
64	0xbd4d0535	-0.050053794
65	0xbb88663b	-0.0041625774
66	0xbd4d035a	-0.050052024
67	0x3e1a1f3a	0.15050974
68	0xbcd25f31	-0.025680156
69	0x3e197d77	0.14989267
70	0xbd4dcac4	-0.0502422
71	0x3e3fef90	0.1874373
72	0xbd4d053b	-0.050053816
73	0xbbc61067	-0.006044436
74	0x3df77395	0.120825924
75	0x3e50a541	0.2037554
76	0xbd4e0d0f	-0.050305422
77	0xbd4d051d	-0.050053705
78	0x3c1445f0	0.0090498775
79	0x3df9a2a3	0.121892236
80	0xbd4c6735	-0.049903113
81	0xbdb283f1	-0.08716572
82	0x3e405bdc	0.18785042
83	0x3e38a5c4	0.18031985
84	0x3df30e1e	0.11867927
85	0xbd4d0583	-0.050054085
86	0x3cdf3e91	0.027251514
87	0x3e03c53d	0.12868209
88	0xbca1e867	-0.019764138
89	0x3db24332	0.08704223
90	0x3dcf309f	0.101166956
91	0x3e1640e6	0.14673194
92	0x3de0ffd8	0.10986298
93	0xbaf25353	-0.0018487967
94	0xbd0f5588	-0.03499368
95	0x3d125884	0.035728946
96	0xbd8bc352	-0.06824364
97	0xbd4d058b	-0.050054114
98	0xbd4afbfa	-0.04955671
99	0xbd4d0549	-0.05005387
100	0xbd4d0426	-0.050052784
101	0xbd4d006f	-0.05004924
102	0x3decbbc3	0.1155925
103	0xbd6064d4	-0.054783657
104	0xbd4cffb2	-0.050048538
105	0x3e32153b	0.17390911
106	0x3e12a598	0.14320982
107	0xbd025df7	-0.031827893
108	0xbd1bd09c	-0.038040742
109	0xbd34710d	-0.044053126
110	0x3d9441a4	0.072390825
111	0xbd32e357	-0.04367384
112	0xbd53f49a	-0.051746942
113	0x3d2e2dff	0.042524334
114	0x3c151c7a	0.009101028
115	0xbd525850	-0.051353753
116	0xbd4cec94	-0.050030306
117	0xbd4cec69	-0.050030146
118	0xbd5d302e	-0.054001026
119	0x3e212e51	0.15740325
120	0xbd4d05d1	-0.050054375
121	0xbd3cfc7a	-0.046139218
122	0xbd4d0549	-0.05005387
123	0xbd4cf6f1	-0.05004019
124	0xbd502260	-0.050814033
125	0xbd4cfd58	-0.050046295
126	0xbc51c80f	-0.012804045
127	0x3cda48c7	0.026646031
128	0xbd4d04d2	-0.050053425
129	0xbd4d05c0	-0.05005431
130	0xbd4e205f	-0.05032384
131	0x3e366515	0.17811997
132	0x3de4eb4a	0.1117769
133	0x3e399a89	0.18125357
134	0x3da2429c	0.07922861
135	0xbd4e9048	-0.050430566
136	0x3d4f13d2	0.05055601
137	0x3e2b1735	0.16708072
138	0xbd45d21d	-0.048296083
139	0x3e0a3107	0.13495265
140	0x3c26fa8a	0.010191569
141	0x3c3afb37	0.011412433
142	0xbcd7ba99	-0.026334094
143	0xbd828bf3	-0.063743494
144	0xbd4f59a9	-0.050622616
145	0x3e43c255	0.191171
146	0x3dfc45f7	0.12318032
147	0xbcbd58c2	-0.023113612
148	0x3db3cff1	0.08779896
149	0xbcf1fac8	-0.029538527
150	0xbd4ffbe4	-0.05077733
151	0xbd537bbf	-0.051631685
152	0xbd2f2215	-0.042757113
153	0x3ddc4600	0.10755539
154	0x3de9b6c4	0.11411813
155	0x3d4679c0	0.048455954
156	0x3dc8a317	0.09796732
157	0x3dc3c55e	0.09559129
158	0xbd8e49e5	-0.06947688
159	0x3d0d2cec	0.03446667
160	0x3d7f7ebe	0.06237673
161	0x3e6a04c9	0.22853388
162	0x3e2c1e80	0.1680851
163	0xbb9a2716	-0.0047043664
164	0xbcc7df8d	-0.02439859
165	0xbd4d0082	-0.050049312
166	0xbd5a33bf	-0.053272005
167	0x3c1f5b41	0.0097263465
168	0xbd4d0536	-0.050053798
169	0xbd4770f2	-0.048691697
170	0x3e241d9d	0.16026922
171	0x3c57cdb5	0.013171603
172	0xbd4d05c0	-0.05005431
173	0xbbd1f564	-0.0064074267
174	0x3db05090	0.08609116
175	0x3e72491e	0.23660704
176	0xbcc3e3f9	-0.023912417
177	0xbd491177	-0.04908892
178	0x3dcc5777	0.0997762
179	0xbd53f6c1	-0.051748995
180	0x3e75bdf2	0.2399824
181	0xbd4d04fa	-0.050053574
182	0x3d404a29	0.046945725
183	0x3d337078	0.04380843
184	0x3cbd1a15	0.023083726
185	0x3d977453	0.07395234
186	0x3e1ae210	0.15125299
187	0x3de3aaef	0.11116587
188	0x3daa0c47	0.08303123
189	0xbd4d0604	-0.050054565
190	0x3e4eb8ea	0.20187727
191	0xbd4d04a8	-0.05005327
192	0x3de68b0e	0.11256991
193	0xbd6a42af	-0.0571925
194	0xbdbf8761	-0.09351993
195	0xbd4cff6b	-0.050048273
196	0x3e58afd0	0.21160817
197	0xbd4d0614	-0.050054625
198	0xbd4cf35a	-0.050036766
199	0xbd4d04a7	-0.050053265
200	0xbc285f93	-0.010276693
201	0xbd4d05e2	-0.05005444
202	0xbd4cfdc3	-0.050046694
203	0xbd4d0381	-0.05005217
204	0xbd4cfc45	-0.05004527
205	0xbd516b1b	-0.051127534
206	0x3a9cb8ea	0.0011956964
207	0xbd4cfa43	-0.050043356
208	0xbd60f072	-0.054916807
209	0xbd4a16f6	-0.049338304
210	0x3e274a8a	0.16337028
211	0xbd4d0531	-0.05005378
212	0x3e1f35f6	0.15547928
213	0xbd4d034d	-0.050051976
214	0xbd4d03e3	-0.050052535
215	0xbd4d3f00	-0.05010891
216	0xbd65867d	-0.05603646
217	0x3dbbc0bc	0.091676205
218	0x3ce47784	0.02788902
219	0xbbb9b37a	-0.005667147
220	0xbd4d0537	-0.0500538
221	0xbd4bd07e	-0.04975938
222	0x3e008ece	0.12554476
223	0xbcef2ea7	-0.02919705
224	0x3d9fa68b	0.077954374
225	0x3d235304	0.03987409
226	0xbd4d0398	-0.050052255
227	0xbd4cffc1	-0.050048593
228	0xbc716cc7	-0.014735407
229	0xbc944d9c	-0.018103413
230	0xbd4d059b	-0.050054174
231	0xbd54f540	-0.0519917
232	0x3d9ed1c7	0.077548556
233	0xbd4d05f3	-0.0500545
234	0xbd16db2f	-0.036830124
235	0xbbfc4ba3	-0.0076994463
236	0xbd4d05e9	-0.050054464
237	0x3dff02c7	0.124517016
238	0xbd4d055d	-0.050053943
239	0xbd4d02ab	-0.050051372
240	0xbd4d0204	-0.05005075
241	0xbd61259c	-0.054967508
242	0xbd4ce3c1	-0.05002189
243	0xbd4d04e5	-0.050053496
244	0x3de5fddb	0.1123006
245	0x3da3a85a	0.07991095
246	0x3e1aeda4	0.15129715
247	0xbd4f4c12	-0.050609656
248	0xbd72ff1b	-0.05932532
249	0x3dc705bd	0.09717891
250	0xbc43acd1	-0.011943058
251	0x3d9fe5a0	0.07807469
252	0xbd127327	-0.03575435
253	0xbd4cea43	-0.050028097
254	0x3dfbcf90	0.12295449
255	0xbd0c84c4	-0.034306303

2.weight f4 [5, 256]
0	0xbce60a3b	-0.02808105
1	0x3e1ffc48	0.15623581
2	0xbde87771	-0.11350907
3	0xbe197b9b	-0.14988558
4	0x3e46a73b	0.19399731
5	0x3dba6d69	0.091028996
6	0xbc864d5b	-0.016394308
7	0xbdd289c0	-0.1028018
8	0x3d0c1c1d	0.0342065
9	0x3e894c33	0.26815948
10	0xbda671de	-0.08127187
11	0xbd1e6be4	-0.03867711
12	0xbcbf42a5	-0.023347208
13	0x3d802a53	0.06258073
14	0xbd8776c7	-0.06614452
15	0x3ddd8674	0.108166605
16	0xbd88d488	-0.06681162
17	0x3d7451a1	0.05964816
18	0xbe082b13	-0.13297682
19	0x3d9618d9	0.07328958
20	0x3e11624e	0.14197657
21	0x3df8b430	0.12143743
22	0xbdfd9cb1	-0.12383402
23	0x3e5a108d	0.21295376
24	0xbe2a9719	-0.16659202
25	0xbddaf235	-0.106907286
26	0xbdc47766	-0.09593086
27	0xbdc225ce	-0.09479867
28	0xbe0dcc6d	-0.13847513
29	0xbce64362	-0.028108303
30	0xbe13ef30	-0.14446712
31	0x3d941706	0.07230954
32	0x3e201bdb	0.15635626
33	0xbcc1c58a	-0.023653764
34	0xbc95e811	-0.018299134
35	0x3e7ed084	0.2488423
36	0xba5d6248	-0.0008445126
37	0x3e118073	0.14209156
38	0xbd0f5164	-0.03498973
39	0x3d6d2d7d	0.05790471
40	0x3cc94c6d	0.024572575
41	0xbdfeb3bb	-0.124366246
42	0x3de6493e	0.112444386
43	0xbd6ec556	-0.058293663
44	0x3dd2a4d3	0.10285344
45	0x3c3d6bce	0.011561347
46	0x3da59be7	0.08086377
47	0x3ce7fa5d	0.028317625
48	0x3b24d980	0.0025154054
49	0x3d088167	0.033326533
50	0xbe0810a6	-0.13287601
51	0xbe160cb2	-0.1465328
52	0x3dcf7138	0.10129017
53	0xbe0e5569	-0.13899769
54	0xbdc8ba15	-0.09801117
55	0xbc9487f4	-0.018131234
56	0x3e659ad9	0.22422351
57	0x3df60037	0.1201176
58	0x3e399454	0.18122989
59	0xbe294928	-0.16531813
60	0xbcb07299	-0.02153902
61	0x3c543220	0.012951404
62	0xbe06baa6	-0.13157138
63	0x3e00407e	0.12524602
64	0xbdf53a90	-0.119740605
65	0x3e39b542	0.1813555
66	0x3d82c50c	0.0638524
67	0x3ce1b1ef	0.027550666
68	0xbd944aab	-0.07240804
69	0xbe266c54	-0.16252261
70	0x3e8b92fe	0.27260584
71	0xbe26de3a	-0.1629571
72	0x3e260eb9	0.16216554
73	0x3dceeaec	0.101034015
74	0x3df9c41a	0.121956065
75	0xbdaa6d62	-0.08321644
76	0x3dd66ae5	0.10469607
77	0x3d8d1e1b	0.06890508
78	0xbd56e7e8	-0.052467257
79	0x3e2c4894	0.16824561
80	0x3c09a8cd	0.008402062
81	0x3e3f5aa4	0.1868692
82	0xbe16e191	-0.14734484
83	0xbe3446cf	-0.17605136
84	0x3df54331	0.11975706
85	0x3d8c7007	0.06857305
86	0x3d821d72	0.063532725
87	0x3e1523dd	0.14564462
88	0x3d0564e8	0.032566935
89	0x3e369c95	0.17833169
90	0xbd05b883	-0.032646667
91	0xbd397fa7	-0.045287754
92	0xbe52bb1f	-0.20579194
93	0x3e0f0b48	0.13969147
94	0x3e331005	0.1748658
95	0x3de13c1a	0.109977916
96	0xbdf5a9bb	-0.11995264
97	0xbbd7b7d1	-0.006583192
98	0x3e6ed38d	0.23322888
99	0x3e4796e9	0.19491161
100	0x3ddd84e1	0.1081636
101	0xbd703c36	-0.05865117
102	0x3dab5071	0.08364952
103	0x3e0ab2dc	0.13544792
104	0xbe1cdf9e	-0.15319678
105	0xbd5d6bb6	-0.0540578
106	0xbdbb52b0	-0.09146631
107	0xb9e9b509	-0.00044576105
108	0x3e2a0e61	0.16607048
109	0xbd20638a	-0.039157428
110	0x3d8adb40	0.067801
111	0x3da1f11d	0.07907317
112	0x3e713465	0.23555143
113	0xbc456eb8	-0.012050323
114	0x3d99cc87	0.075097136
115	0x3e61fbda	0.2206873
116	0xbe1b0de5	-0.15142019
117	0x3d3cdd2c	0.046109363
118	0xbd04455b	-0.032292705
119	0xbe525979	-0.20541944
120	0x3dd1a538	0.10236591
121	0x3d5e390f	0.054253634
122	0xbdb3ccb0	-0.087792754
123	0xbe157e50	-0.14598966
124	0xbbaad032	-0.005212807
125	0xbdd3ac24	-0.103355676
126	0x3dbeaf1f	0.093107454
127	0x3e272f79	0.16326703
128	0x3cdd5658	0.027018711
129	0x3e1ee06d	0.15515299
130	0x3e2cecfa	0.16887274
131	0xbe39d30a	-0.18146911
132	0xbda35fc0	-0.07977247
133	0x3d9ec47b	0.077523194
134	0x3df6240c	0.12018594
135	0xbdf83e87	-0.12121301
136	0x3e108a57	0.14115272
137	0xbe04914b	-0.1294605
138	0x3e000ba5	0.12504442
139	0x3cb4446f	0.022005288
140	0xbdaad1d3	-0.08340802
141	0x3e33a9c5	0.1754523
142	0x3e11783f	0.14206026
143	0x3dcd5c6f	0.10027396
144	0x3e220354	0.15821582
145	0xbe26d90d	-0.16293736
146	0x3dabcd4a	0.08388765
147	0x3dfc7997	0.12327879
148	0x3e205962	0.15659097
149	0x3dd6c1d3	0.10486188
150	0x3dbd31e6	0.09238033
151	0xbcf6c1fe	-0.0301218
152	0x3dbc92a6	0.092076585
153	0x3df618b3	0.1201643
154	0x3e189b84	0.14903075
155	0xbd821d49	-0.06353242
156	0x3dbed70e	0.09318362
157	0x3e2f9f94	0.17150718
158	0x3e2ab408	0.16670239
159	0x3e42a657	0.19008766
160	0x3e09843c	0.1342935
161	0x3b740e16	0.0037239841
162	0x3df320fd	0.118715264
163	0x3e10ed4b	0.1415302
164	0xbc9ae290	-0.018906862
165	0x3dbb6110	0.091493726
166	0xbd336fba	-0.043807723
167	0x3e146679	0.14492215
168	0x3be91e8c	0.007114237
169	0x3e2ce937	0.1688584
170	0xbdf13490	-0.117776036
171	0x3e0b5bfc	0.13609308
172	0xbc2cffcc	-0.010559034
173	0x3d75e8a8	0.06003633
174	0x3ca5a5bf	0.020220635
175	0xbd8166ca	-0.063184336
176	0x3d67693f	0.056496855
177	0x3df32f87	0.118742995
178	0x3e053c62	0.13011315
179	0xbdf7e202	-0.121036544
180	0xbe2e3513	-0.17012434
181	0x3e8c0802	0.2734986
182	0x3e03a279	0.12854947
183	0xbc2099bf	-0.009802281
184	0xbd861799	-0.0654747
185	0x3d81a25c	0.06329796
186	0x3dba1f88	0.09088045
187	0x3d344261	0.044008616
188	0x3d2b35ea	0.041799463
189	0x3d8342ad	0.06409202
190	0xbddf586b	-0.10905536
191	0xbba272fa	-0.004957554
192	0x3d9c4e5e	0.07632135
193	0xbdb0c7ca	-0.08631857
194	0x3e594ef6	0.21221527
195	0x3e590e43	0.21196847
196	0xbe3a9767	-0.18221818
197	0xbe0dc289	-0.1384374
198	0xbddc705b	-0.107636176
199	0xbc8c2c07	-0.017110838
200	0x3ce8c853	0.028415835
201	0xbc0e296a	-0.008676866
202	0x3e213c66	0.15745696
203	0xbdfd6c6a	-0.12374194
204	0xbe172cd0	-0.14763188
205	0xbdd6e947	-0.10493713
206	0x3e353406	0.17695627
207	0x3e2280ba	0.15869418
208	0x3d99d3c4	0.07511094
209	0x3d8eb244	0.06967595
210	0xbe2f8c4b	-0.17143361
211	0xbddde8b6	-0.10835402
212	0xbd768128	-0.060181767
213	0xbd94a305	-0.07257656
214	0xbdef48eb	-0.1168383
215	0xbde3de95	-0.111264385
216	0xbd8b16d9	-0.06791467
217	0xbd0747d8	-0.0330275
218	0x3da85b64	0.082205564
219	0x3e6344da	0.22194234
220	0x3dbdcfcb	0.09268149
221	0x3ae6f32d	0.001762008
222	0xbc4f3f16	-0.012649318
223	0x3e52e6bb	0.20595829
224	0x3e06aeaf	0.13152574
225	0x3e396da4	0.18108231
226	0x3c6ca217	0.014442942
227	0x3d19a86a	0.037514128
228	0x3e19bdad	0.15013762
229	0x3e0aedf4	0.13567334
230	0xbe11e026	-0.14245662
231	0xbdf7f772	-0.12107743
232	0x3e1c9c95	0.15294106
233	0x3e5440e6	0.20727882
234	0xbd6cb6e9	-0.057791624
235	0x3d9be9c0	0.07612944
236	0x3ced5c1e	0.028974589
237	0xbe0ef348	-0.13959992
238	0x3e25f2e0	0.1620593
239	0xbb5d5001	-0.003376961
240	0x3e138434	0.144059
241	0xbde1333e	-0.10996102
242	0xbdd5d2b1	-0.10440577
243	0xbe12dd29	-0.14342178
244	0x3d32e3fe	0.04367446
245	0x3e257910	0.16159463
246	0x3c33a5d6	0.010964831
247	0x3d98f4aa	0.07468541
248	0xbd0d8f19	-0.034560297
249	0x3e0e7bd3	0.13914423
250	0x3d462c7f	0.04838228
251	0x3e06275d	0.13100953
252	0xbd0a7d5b	-0.033810955
253	0x3e2131b4	0.15741616
254	0x3dedd095	0.116120495
255	0xbd611c68	-0.05495873

2.bias f4 [5]
0	0x3c7c6e02	0.015407087
1	0xbd8b9fad	-0.06817565
2	0x3cc2cd0d	0.023779416
3	0xbd9bd649	-0.07609231
4	0x3e3e5630	0.18587565
