results/simple_nav_v1/3/model.pt (torch, 21556 bytes, 6 tensors)

net.0.weight f4 [64, 4]
000000 5e dc 4a 3f 98 a1 07 bf 38 55 0d bf 97 7f 08 3f
       0.79242504 -0.5298095 -0.5520816 0.53319687
000010 fa 8e 76 be 85 ca 3d bd 5c 1c 8e 3e 4a 7c 13 be
       -0.24077979 -0.046335716 0.2775601 -0.14402881
000020 01 1c 03 bd 3c 68 68 3e c8 74 72 3c a1 d0 8c be
       -0.03200913 0.22696012 0.014798351 -0.2750292
000030 26 3e 16 be c7 ef 9c bf 57 3e 2c 3f 91 ef 77 3f
       -0.14672145 -1.2260674 0.67282623 0.96849924
000040 72 ca a0 bf 69 9d 5d be 63 54 8f 3f a1 10 04 3e
       -1.2561781 -0.21642078 1.1197628 0.12896968
000050 6f 7b 90 3e 44 72 58 3e 85 b5 8e be 28 f1 0a be
       0.28219172 0.21137339 -0.27872863 -0.13568556
000060 1f 11 8b be a2 66 45 be a9 55 06 3f f0 31 b2 3e
       -0.271615 -0.19277433 0.5247446 0.34803724
000070 c7 e5 10 bd a2 5f 68 3d b4 18 31 3d ef 39 33 be
       -0.035375383 0.056731828 0.04323645 -0.17502569
000080 4f d0 94 bd 02 aa 70 3d 40 b7 38 3d c8 b8 1a be
       -0.07266294 0.058755882 0.045096636 -0.15109551
000090 ee 6e 79 be b2 42 59 3f 89 9f 1c 3f e9 6b 3e bf
       -0.24358723 0.84867394 0.6118093 -0.7438341
0000a0 7b b8 6a 3d ef 23 45 3e 7f a7 29 bd c1 63 9d be
       0.05730484 0.19251989 -0.041419502 -0.3074017
0000b0 17 86 64 3f 26 a6 96 3e 97 5a 82 bf 27 2e d1 be
       0.89267105 0.29423636 -1.0183896 -0.40855524
0000c0 0f cf aa bc 31 e6 0b 3f 56 3f 59 be 7d 10 0b bf
       -0.020850686 0.5464812 -0.21215567 -0.54322034
0000d0 30 d9 54 bf a8 e7 e3 3e 13 0c 27 3f b0 3f f8 be
       -0.831439 0.44512677 0.652528 -0.4848609
0000e0 bf 61 be be c7 89 4b 3e 79 be 5d bd bf a6 a8 bd
       -0.3718395 0.19876777 -0.054136727 -0.08234929
0000f0 c8 d8 ef bd 39 39 cb bb d2 f2 69 3e 07 62 5e be
       -0.117112696 -0.00620189 0.22846535 -0.21717082
000100 c6 56 d0 be 01 a7 ad be 81 04 17 3f e7 54 14 3f
       -0.40691203 -0.33916476 0.5899125 0.5794205
000110 50 e9 1a bf 9c 8d c2 3e 99 e8 30 3f d4 4b 07 bf
       -0.60512257 0.37998664 0.69104916 -0.5285008
000120 00 cb 36 3f 75 f1 4d 3f 78 3d 7f bf 36 2f 46 bf
       0.71403503 0.8044656 -0.9970317 -0.7741579
000130 18 a5 8f 3d 42 6f 69 3d 65 17 8a bd 96 34 8f be
       0.07013911 0.05699087 -0.067427434 -0.27969807
000140 48 2a f6 3e 5b 3a 0e be 3e 32 cc be c4 52 96 3c
       0.48079133 -0.13889448 -0.39882082 0.018350013
000150 44 85 b8 be 97 fa fb 3d 99 e7 2b 3f 4a 59 a6 be
       -0.36039174 0.123036556 0.67150265 -0.32489997
000160 58 bf 26 3f f8 39 53 bf b2 94 81 bf 19 ee 41 3f
       0.6513572 -0.8251033 -1.0123503 0.75753933
000170 ca 9c 79 3b fc 41 a8 3d 6e 51 e8 3d e0 7e fa bd
       0.0038087838 0.082157105 0.113436565 -0.12231231
000180 ff e3 bc 3d 32 56 16 3f 27 83 11 3f d5 de 93 bf
       0.09223174 0.58725274 0.5684075 -1.1552378
000190 7e 06 d4 bd a6 37 00 3d 7e 9f 65 be 12 9c 15 be
       -0.10352801 0.03130307 -0.22424123 -0.14610317
0001a0 99 5b e6 3d 60 f2 86 bc 85 48 9a bd d8 0c de 3c
       0.112479396 -0.016472995 -0.07533363 0.027105734
0001b0 e5 b8 a6 bf 97 a5 1a 3e d8 e3 68 3f 9f 00 af bd
       -1.3025175 0.1510223 0.9097266 -0.0854504
0001c0 67 0b 78 be 8a 94 60 3e 45 b2 ac 3e 15 2a 1d be
       -0.242231 0.21931663 0.3372976 -0.15348084
0001d0 53 0d 7c bf b6 28 03 3f 1c ed 2c 3f ab 2d 30 bf
       -0.9845783 0.51233995 0.675493 -0.68819684
0001e0 dc d9 36 be 19 54 8f 3d 5a ea ef 3a a4 cf ba bd
       -0.17856544 0.06998462 0.0018304095 -0.091216356
0001f0 47 60 5b 3f 87 f2 1c bf 0b dc 14 bf 82 7d 2e 3f
       0.8569378 -0.6130757 -0.5814826 0.6816026
000200 f7 8f ba bd af 51 2c bc e4 b8 5c be 90 24 ee bd
       -0.0910949 -0.010517522 -0.21554905 -0.116280675
000210 d3 39 89 be 56 dd 41 bd 71 28 08 bb 71 23 d3 be
       -0.2680193 -0.047330223 -0.0020776058 -0.41237977
000220 d6 86 8a bd b1 6b b4 3e 53 cb c0 be 3c a3 06 bf
       -0.06763999 0.35238412 -0.37655124 -0.52592826
000230 48 3e 27 bf cf 86 ca 3f 6f 62 0e 3f d8 37 cc bf
       -0.6532941 1.582239 0.5561895 -1.5954542
000240 b3 59 95 bd 01 89 a4 bf ef ca 12 be 7e c5 a3 3f
       -0.072924994 -1.285431 -0.14335226 1.2794645
000250 eb ed 47 3f 9c e4 b2 bf 19 f6 15 bf be c7 c5 3f
       0.7809741 -1.3976016 -0.5857864 1.5451581
000260 d7 ec 23 3d cf 37 55 bf 7a d2 35 3d 5e 16 74 3f
       0.04002079 -0.8328828 0.04439018 0.9534663
000270 9e 40 81 be 3b 39 1d 3f b2 f7 d8 3d e7 54 00 bf
       -0.25244612 0.6141545 0.10594119 -0.5012955
000280 05 21 dd 3d 9e 2d ee 3d 3b 1f 06 bf be de 3c 3c
       0.107973136 0.116297945 -0.52391404 0.011527715
000290 76 07 9c bb ae 7d 80 3f 74 1d bd 3e 46 c4 50 bf
       -0.0047616316 1.0038354 0.36936533 -0.8154949
0002a0 99 ab dc be a0 be 8f 3f cb d5 81 3e cd b1 9d bf
       -0.4309967 1.1230049 0.25358424 -1.2319885
0002b0 fe 7b 50 3c 4b b4 6c 3e da 57 dc 3b 6d 58 6a be
       0.012724875 0.23115651 0.00672434 -0.22885294
0002c0 7f 2b 16 3e 80 11 1e 3d fe 41 f2 bd 8a 2e 45 3c
       0.1466503 0.038590908 -0.11828993 0.012035022
0002d0 fb e5 bb bb a9 e4 de 3e 10 09 00 be 3f 39 04 bf
       -0.005734203 0.4353383 -0.12503457 -0.5164985
0002e0 7c bf e6 bd dd 07 c9 bc e0 77 1a 3e 07 d0 18 bd
       -0.112669915 -0.024539882 0.15084791 -0.037307765
0002f0 fa 81 4c 3f c7 cc ea bc 45 a5 2e bf 07 f9 15 3d
       0.7988583 -0.028662099 -0.6822093 0.036614444
000300 49 4d a9 bd 53 84 b1 3d 38 00 4f be de 3f 46 be
       -0.08266694 0.08667817 -0.20214927 -0.19360301
000310 cb ac 8d 3f 6f dd 54 3d 41 2c 92 bf ae 82 2a 3d
       1.1068357 0.051968988 -1.1419755 0.041628532
000320 2b 9d fd bd c2 e1 3d 3d fe 5e a9 3d 27 fb 1b bd
       -0.12383493 0.046357878 0.082700714 -0.038081314
000330 94 0d 0a 3d 14 c8 54 bd 85 5c a4 3d e8 65 84 bd
       0.033704355 -0.051948622 0.08025459 -0.064647496
000340 ec 45 d1 bc 33 e6 51 3f cc 7f 02 3f a4 a2 4c bf
       -0.025546037 0.8199188 0.5097625 -0.7993567
000350 f4 57 13 3c 9e 71 21 3f 97 45 61 bb eb e1 0f bf
       0.008993138 0.6306399 -0.0034373754 -0.562041
000360 7c 46 7d 3e ce bc 57 3d e7 1d ae be ec af 5f bd
       0.24733919 0.052670293 -0.3400719 -0.05461113
000370 34 8a 28 3e 42 49 1f be 98 0c b4 be be f3 c9 3d
       0.1645897 -0.1555529 -0.35165858 0.09860943
000380 e2 63 26 3d 8d 93 05 bf 73 54 6a 3d b0 3e 41 3f
       0.0406226 -0.5217827 0.057209443 0.7548628
000390 39 2f 57 be 7d f1 a2 bc 51 73 23 3e 40 77 dc bd
       -0.21014108 -0.019890541 0.15961958 -0.10764933
0003a0 af cd 8b 3d d8 65 81 3e e9 7d ad be ed d2 b7 bc
       0.068263404 0.25273013 -0.33885124 -0.022439444
0003b0 6d 52 5a be a8 81 25 bf cd d4 1b be 13 2e 67 3f
       -0.21320505 -0.64650965 -0.15217896 0.9030468
0003c0 5a f4 e6 bd 64 f0 98 bf 56 52 32 3e 83 51 92 3f
       -0.11277075 -1.1948361 0.17414221 1.1431125
0003d0 10 f2 6d be a3 ec 70 3e a0 2b 3f 3f aa 52 39 be
       -0.23236871 0.2352777 0.7467594 -0.1809794
0003e0 e7 a2 0e 3f 8c 77 0e 3e d2 5b 02 bf df 5a c7 bc
       0.5571732 0.13912791 -0.50921357 -0.024335323
0003f0 89 46 5e bf 0c 3b 37 bc ba e0 90 3f c1 9f 98 bd
       -0.8682638 -0.0111835115 1.1318581 -0.07452346

net.0.bias f4 [64]
000000 7a 40 22 bf 46 5c 45 bf 97 9b ef be b0 37 83 bf
       -0.63379633 -0.77093923 -0.46798393 -1.025137
000010 5c 7b 36 3e 63 e2 29 bf 39 b4 81 bf 21 d8 80 be
       0.17820495 -0.66361064 -1.0133125 -0.25164893
000020 cb 98 91 be d9 4f 7f bf e4 8e 04 bf 36 60 be bd
       -0.28436884 -0.9973121 -0.51780534 -0.092956945
000030 34 8a 7e bf 8e 87 b7 be d8 bd 12 bf df df 09 bf
       -0.9942963 -0.35845608 -0.5732093 -0.53857225
000040 f3 cb bd bf fc 7c 95 bf e7 04 e6 3e 54 8b c6 be
       -1.4827865 -1.1678767 0.44925615 -0.38778174
000050 ed cd 81 bf cf cf 84 bf 8d 42 25 bf 53 39 9e be
       -1.0140969 -1.0375918 -0.64554673 -0.3090311
000060 8d 04 4b bf c8 e1 e2 be dc 2b 8a be cd 2d da be
       -0.7930382 -0.44312882 -0.26986587 -0.42613068
000070 a3 87 8b bf d2 6e 04 bf 00 16 be be 42 f6 67 bf
       -1.0900768 -0.517316 -0.3712616 -0.90610135
000080 8f 33 de be e0 26 30 bf 1e c5 5a bf 47 e9 ca 3c
       -0.4339871 -0.6880932 -0.85457027 0.024769438
000090 2a 25 1d bd 35 32 05 bf b4 fe 65 bf aa 62 00 bf
       -0.03836552 -0.52029735 -0.8984177 -0.5015055
0000a0 d8 8d 22 bf 1c 39 54 be 55 82 20 bf c2 45 cf be
       -0.63497686 -0.2072491 -0.6269887 -0.40482908
0000b0 8d 2d 94 be 8c ef 59 bf a0 b4 83 be b3 e7 34 bf
       -0.28941002 -0.85131145 -0.25723743 -0.70666045
0000c0 28 13 e9 be 08 93 57 bf 3f 58 81 be 4d 1d 88 be
       -0.45522428 -0.84208727 -0.2526264 -0.26584855
0000d0 fd 94 77 bf 07 57 86 bf 6b a1 16 bf ac 91 2d bf
       -0.96711713 -1.0495309 -0.58840054 -0.678004
0000e0 45 ec 81 bf 9b cc e0 be e1 0d 1c bf 50 5c 4b bf
       -1.0150229 -0.43906102 -0.6095868 -0.7943773
0000f0 23 87 97 bf 26 97 79 bf 9a a1 88 bf 7f b8 77 bf
       -1.1838115 -0.9749626 -1.0674317 -0.96765894

net.2.weight f4 [64, 64]
000000 5f 18 a9 be db ec ca be 42 55 f2 bd 2f 64 35 be
       -0.33026406 -0.3963383 -0.11832668 -0.17713998
000010 15 b8 6a c0 54 0f 97 be 75 50 92 be eb 14 08 3d
       -3.6674855 -0.29503882 -0.2857701 0.033223074
000020 8c ec 3b 3d 05 2f 90 3e c8 22 04 be f3 8c 3e 3e
       0.045879886 0.28160873 -0.12903893 0.18608455
000030 6c 74 05 bd 64 5e 8e be 15 d6 a9 3d c4 65 a6 3e
       -0.03258173 -0.2780639 0.08292786 0.32499516
000040 b1 e1 ee bd 38 8c 04 bf 3a d0 0f 3f 11 77 25 bc
       -0.11664141 -0.51776457 0.56177104 -0.010099188
000050 d4 15 c4 be 5c d2 c3 be 33 99 90 bf ae 02 91 be
       -0.38297904 -0.3824643 -1.1296753 -0.28322357
000060 ea 10 9e be 8c 46 ab bc ee 73 0f bd 22 cc d1 bf
       -0.3087228 -0.020907663 -0.03502267 -1.6390421
000070 63 1f 2d bd 5c 9e 31 bf ac 75 97 be 84 4d 11 bf
       -0.04226626 -0.6938226 -0.29581964 -0.56758904
000080 1b cf 98 3c c5 11 da be 3b e0 ce bc 25 b1 c3 bd
       0.018653443 -0.42591682 -0.025253406 -0.09555272
000090 bc 4f 21 bf b7 d1 c0 bf fe 60 1e 3d 57 f0 87 be
       -0.6301229 -1.5064 0.038666718 -0.26550552
0000a0 47 22 8d be bb 64 f6 be 17 1f 20 3e d9 ea 6a 3d
       -0.27565214 -0.48123726 0.1563686 0.057352874
0000b0 8e d0 3e be 25 69 b2 3e d3 d1 6f 3e 65 9a 29 be
       -0.18634245 0.34845844 0.23419885 -0.16562803
0000c0 2c 40 b4 bd ee a5 90 bf 86 d8 d2 3b 1a 36 77 3d
       -0.08801302 -1.1300638 0.006434503 0.06035433
0000d0 cf 58 05 3f 4d 10 19 3f 18 dc 41 bf 6a 60 89 be
       0.52088636 0.597905 -0.7572646 -0.2683137
0000e0 ea 83 8e bd 75 f5 be 3d 17 7a a2 be 9a 0c e9 be
       -0.06958754 0.09324161 -0.31733772 -0.45517427
0000f0 34 e7 cf bd 03 74 32 be 67 7b 9c bf 4c ec 8f be
       -0.1015152 -0.17427067 -1.222516 -0.28109968
000100 21 dd 06 3e 06 5e 40 be 82 af 5c 3e a1 99 9b be
       0.13170291 -0.18785867 0.21551326 -0.30390647
000110 b3 e0 65 be 06 49 93 be 52 80 c5 be 0c 79 b4 bd
       -0.22448997 -0.2876665 -0.38574463 -0.0881215
000120 2f 37 d3 be 4d d4 1d bf 39 d3 2d be 05 c2 5d 3e
       -0.4125304 -0.6165207 -0.16975106 0.21656044
000130 ac bd 0d bf 18 40 30 be 6d 5d 25 be b7 b8 9c be
       -0.5536754 -0.1721195 -0.1614892 -0.30609676
000140 37 bc 72 be 50 1f e3 3d 50 80 9b 3d 6b 90 4f bf
       -0.23704611 0.11089957 0.07592833 -0.8107974
000150 82 90 f3 bd 14 33 3c be 17 43 d9 3d ee cf 5f 3d
       -0.11892797 -0.1837886 0.106084995 0.054641657
000160 17 33 37 bd 82 83 0d bf 75 1a b2 be 1c ed d9 bd
       -0.044726457 -0.5527879 -0.3478581 -0.10640928
000170 28 70 68 be e3 92 93 bd af fc 0a bf 35 af 2d 3e
       -0.22699034 -0.07205751 -0.54291815 0.16961367
000180 8a a2 9e be d2 4d ca be a7 45 9e be 80 13 f1 bc
       -0.30983382 -0.39512497 -0.30912516 -0.029428244
000190 58 ab 54 bf 40 82 ce be d8 ac b8 be 34 ca 7c be
       -0.8307395 -0.40333748 -0.3606937 -0.2468651
0001a0 67 de c5 bd 42 fe 9f bd 48 09 cc be 16 41 63 3e
       -0.096615605 -0.07812168 -0.3985083 0.22192797
0001b0 ed a3 b5 be f7 d0 0d bf 2e e2 34 3d 40 c9 1d be
       -0.35476628 -0.5539698 0.044161014 -0.15408802
0001c0 21 84 da be 84 ae 53 be 97 60 69 be 04 61 dc bd
       -0.4267893 -0.20672041 -0.22790752 -0.10760692
0001d0 3f 08 d7 be 18 2a 99 bd 0b b8 65 be 86 02 45 be
       -0.4199848 -0.07478732 -0.22433488 -0.19239244
0001e0 1e 0a be 3c 32 09 69 be fa 20 3f 3e ea 5e af be
       0.023198184 -0.22757414 0.18664923 -0.342521
0001f0 01 e6 3b 3e 68 e2 37 3c 24 6e f9 3c f2 9c 09 3e
       0.18349458 0.011223413 0.030448027 0.13438776
000200 b5 6a 4c 3e 93 82 99 be ba e0 13 be 1e 05 bc 3f
       0.1996258 -0.29982433 -0.14441195 1.4689062
000210 02 70 ba be 77 d5 89 be 14 79 0e 3f 34 4c 98 be
       -0.3641358 -0.26920673 0.556535 -0.29745638
000220 20 fd 50 be a9 94 34 bd 0e dd de bd b5 d4 ff be
       -0.2040906 -0.044087086 -0.108820066 -0.4996697
000230 3b 1a 3a 3e a2 ff 0a bf 81 8a 90 be e2 3d 70 be
       0.18174069 -0.54296315 -0.2823067 -0.23461106
000240 63 98 c9 3f 8c bc 87 3e 28 fd 85 bf 27 d1 b1 3e
       1.574963 0.26511037 -1.0467882 0.34729883
000250 eb 9f fb bd f2 27 25 be 2c 84 20 be 5b 5d d9 be
       -0.12286361 -0.16128519 -0.1567542 -0.42454037
000260 ab bd ed bc ba 33 92 3e 6e d2 38 3e 42 72 4d be
       -0.029021105 0.2855509 0.18049023 -0.20063117
000270 3c d0 04 bd 37 dc 52 bf a9 51 9f bd 4b 10 51 3f
       -0.03242515 -0.8236727 -0.07779247 0.81665486
000280 25 c2 6e 3e 86 f3 cd 3d 14 76 c7 3c 82 9b 3f bf
       0.23316248 0.10056214 0.024348296 -0.7484666
000290 1d b7 ca 3e 5c 74 75 3d 99 29 94 3f e4 5f 86 bf
       0.3959283 0.059925422 1.1575195 -1.0498013
0002a0 21 8f e2 be 78 1c 08 bf bb a7 d9 be b3 56 65 bd
       -0.44249824 -0.5316844 -0.4251078 -0.055990886
0002b0 22 d8 79 3e 6a ed f6 bc e6 48 d2 3d 9a 06 bd be
       0.24398854 -0.030142505 0.102678105 -0.369191
0002c0 70 ad 34 3d db 8f 93 be fa e0 d7 3d e3 f9 49 3d
       0.044110715 -0.2882069 0.10540958 0.049310576
0002d0 e4 36 63 be 42 1e 95 3c bb 4e b1 bd fe 9b 0b be
       -0.22188908 0.018202905 -0.08657595 -0.13633725
0002e0 a8 1b 2d 3f 86 70 08 be f5 4a c2 3d ce bc 75 3e
       0.67620325 -0.13324174 0.09486953 0.23997805
0002f0 b4 72 13 40 56 f2 9b be e9 b0 d7 3d a1 99 c5 bb
       2.303876 -0.30458325 0.1053179 -0.006030277
000300 2d bf ff be 6e 9c 04 bf 18 26 cd 3d 5c a3 e5 bd
       -0.49950543 -0.5180119 0.100170314 -0.11212799
000310 0c 43 ca bf c8 89 9c 3e 65 51 b7 3c d9 0c 5e be
       -1.5801711 0.3057387 0.02237768 -0.21684588
000320 be bd 82 3d b2 48 57 3c 66 b9 9a 3b 6a 89 02 bf
       0.06383847 0.0131398905 0.0047218082 -0.5099093
000330 a5 b5 c3 3e e8 e9 d7 be 94 9a 7f be 69 98 9c be
       0.3822452 -0.42170644 -0.2496131 -0.3058503
000340 b5 06 9e be 0c 33 10 bf ed 62 b5 be c0 ab ae be
       -0.30864492 -0.5632789 -0.35427037 -0.3411541
000350 1f 45 e1 be 34 ac 43 bf 4f ee 33 bf ac 35 38 3e
       -0.43998048 -0.76434636 -0.70285505 0.17989224
000360 76 5b c8 3e b0 61 b5 bd 55 22 dc bd 01 79 b2 bf
       0.3913228 -0.08856523 -0.10748736 -1.3943177
000370 f9 84 d0 be ba ad 62 3d 5c 5e 0c be 5e d9 02 bf
       -0.4072645 0.05534146 -0.1370787 -0.51112926
000380 89 ce c4 be 69 ac 07 bf d0 82 39 be 04 9f b3 3e
       -0.38438824 -0.5299745 -0.18116307 0.35082257
000390 5b cf 10 bf 6e 4b 3b be 24 f7 85 be 0c 85 43 3e
       -0.565664 -0.18290493 -0.26165116 0.19093722
0003a0 19 f0 a9 3d f4 62 da 3e 29 d7 03 3f 67 95 fa 3d
       0.08297748 0.4265362 0.51500183 0.122355275
0003b0 ab e2 d7 bd 1b 5e 60 3e 77 32 81 be fa 79 35 be
       -0.1054128 0.21910898 -0.25233814 -0.17722312
0003c0 66 49 a3 be b9 6e d9 be e6 31 9f be 5f 5c 08 3e
       -0.31891936 -0.42467287 -0.31092757 0.13316487
0003d0 6b c4 19 3f 48 a7 3b bd aa 4a 0f 3d 54 33 82 be
       0.60065335 -0.04581383 0.034983315 -0.25429785
0003e0 99 ef cf be 44 8f c4 bd 35 5e 53 bd 4f 98 bc 3d
       -0.40612486 -0.09597638 -0.051603515 0.09208738
0003f0 f9 a8 e8 3d 60 f2 a4 be 4e e2 3e bd 46 fc e2 be
       0.11360354 -0.32216167 -0.04660254 -0.44333094

net.2.bias f4 [64]
000000 17 48 43 3e 1d 3f ec be 2b d2 35 bf 96 f5 70 bf
       0.19070469 -0.46141902 -0.71023816 -0.94124734
000010 17 73 c1 bf 44 5c 0d be b7 30 67 be cb 0e ea bd
       -1.5113248 -0.13804728 -0.22577177 -0.11428603
000020 68 b3 50 be a9 2d 06 be 3e bb cb be bc 4a 5e be
       -0.20380938 -0.13103355 -0.39791292 -0.21708196
000030 2a 0f a3 be 47 13 45 be 04 0d 7a bf bd ad aa bf
       -0.31847507 -0.19245635 -0.9767611 -1.3334271
000040 ed 1c a9 bf 85 1c 18 be ad bb 29 be 58 a3 98 be
       -1.3211952 -0.1485463 -0.16575499 -0.2981212
000050 dd 29 b4 bf 7b 10 b7 be d9 c2 52 be 05 bd 75 bf
       -1.4075276 -0.3575476 -0.20582141 -0.95991546
000060 1d 2b 9b bd 56 b8 66 be e9 e5 be be 61 df 82 3e
       -0.075765826 -0.22531256 -0.37284783 0.2556105
000070 48 08 a2 bf dd 06 b9 bd 84 14 c8 be 42 d0 4a bf
       -1.2658777 -0.09034512 -0.39078152 -0.79224026
000080 18 78 3f be da 67 7e 3e 83 b2 86 bf 5e 8d 89 bf
       -0.18698156 0.24844304 -1.0523227 -1.0746267
000090 d5 ad f3 bd 43 8c 51 be 03 2d 93 3e 24 57 43 be
       -0.1189839 -0.20463662 0.2874528 -0.1907621
0000a0 2c 8c f0 bd c7 ab 4e be d4 0a 08 be a9 60 85 be
       -0.11745486 -0.20182715 -0.1328538 -0.26050308
0000b0 9b 7e 6d be 9b ac 97 be 45 17 38 bf 57 f9 b6 be
       -0.23192827 -0.29623875 -0.71910506 -0.35737106
0000c0 44 a1 a8 bf c7 9f 8a bf da 49 ca 3e 70 88 e7 be
       -1.3174214 -1.083001 0.3950947 -0.4522128
0000d0 29 14 c6 bf d9 c0 c9 bd 7a 25 77 bf 3b 34 8f bf
       -1.5474902 -0.09851236 -0.9654156 -1.1187814
0000e0 ac b5 de bd 8b 8d 07 be fc 20 93 be cb 76 ae be
       -0.10874495 -0.13237588 -0.28736103 -0.34075007
0000f0 1c 77 d3 3e 48 03 5c bf 2f e9 c2 bd d4 31 13 be
       0.4130181 -0.85942507 -0.095171325 -0.14374477

net.4.weight f4 [5, 64]
000000 de fe 9a 3e 81 05 a9 bc ee 9c cb be ba 32 c2 be
       0.30272573 -0.020632507 -0.39768165 -0.37929326
000010 0b 62 3a 3e 92 e2 be 3d 7a 2a 8b 3e cb f0 19 3c
       0.18201463 0.093205586 0.27180845 0.009395788
000020 59 08 89 3e 91 db 7d be bb 33 43 be 60 1b 9b 3e
       0.2676418 -0.24790789 -0.19062702 0.30294323
000030 2d 2d 04 3e b6 45 9c be a6 cd d6 be b2 1e 18 bf
       0.12907858 -0.30521935 -0.41953772 -0.5942184
000040 40 de 85 bf b4 33 2f 3e 33 28 91 3e 31 09 c0 be
       -1.045845 0.17109567 0.28350982 -0.37507012
000050 dc b6 0b bd e2 6a a6 be 58 58 33 be b8 58 b7 bf
       -0.034109935 -0.3250342 -0.17514169 -1.432395
000060 55 59 e6 3d 3f 7b 06 bd 97 10 81 3e 1c 6d 15 3f
       0.112475075 -0.03283238 0.2520797 0.5836961
000070 15 94 2d bf 85 d0 85 be a3 06 9c 3e 63 f4 fc be
       -0.6780408 -0.2613565 0.30473813 -0.49405202
000080 17 af 63 bd f8 00 94 3e d4 d3 8e 3e 61 2c c3 3d
       -0.0555869 0.2890699 0.27895987 0.09529949
000090 e0 eb 4f be 57 60 5b be c5 bf bf 3e 95 85 e9 bd
       -0.20304823 -0.2142347 0.37450996 -0.11402432
0000a0 23 42 80 3d 62 ed a0 be cf c2 38 3e 45 e0 06 be
       0.062626146 -0.3143111 0.18043064 -0.1317149
0000b0 3e fc 93 3e 6e 9f 7c 3e 18 13 25 3e a5 2c b4 3e
       0.28903383 0.24670193 0.16120565 0.3519031
0000c0 11 95 90 bd 70 ff c8 bd 90 5d b7 3e 82 e6 38 3f
       -0.07059682 -0.09814346 0.3581357 0.72226727
0000d0 0a 84 d6 3f 2c 74 cd be b3 39 a1 be 2a d5 e2 3c
       1.6759045 -0.40127695 -0.31489334 0.027689535
0000e0 3e 9c 1f 3e e7 af 1f 3e ea 18 f5 3e f9 96 04 3e
       0.15586945 0.15594445 0.4787057 0.12948216
0000f0 a5 89 f7 3e 3f 75 65 bf e9 04 41 3d 89 fa 65 be
       0.48347202 -0.8963203 0.047123823 -0.22458853
000100 05 47 0b c0 91 7f 16 be 6a c4 22 3f 0a 45 c8 3e
       -2.1762097 -0.146971 0.63580954 0.39115173
000110 b0 06 23 bf e6 7b 5a 3e fc 85 8b bd 35 29 d5 3e
       -0.6368208 0.21336326 -0.06812665 0.41633
000120 fc bf 71 bd ed df 28 be 47 8d 57 3e 40 ff 52 be
       -0.05902098 -0.16491671 0.21049987 -0.20605183
000130 5a 01 cc bd dc 96 26 be e9 39 fe 3e fe a0 22 bd
       -0.09961195 -0.16268486 0.49653557 -0.039704315
000140 3f f5 9e 3e 5d 90 c0 be 7b 45 b5 bc 9c 1f 5a be
       0.31046483 -0.3761014 -0.022127857 -0.2130112
000150 97 fa 3d bf d4 ed 0f 3c fc 25 a6 bd 2c e5 aa bd
       -0.74210495 0.00878473 -0.08112714 -0.08344492
000160 03 d1 7f 3e e9 fc 82 bd 17 3b 85 3e 88 48 c6 bf
       0.24982075 -0.06395895 0.26021644 -1.5490885
000170 55 a8 a0 3e 0d e6 b6 be 2b 7b 04 3d 1c 3d d2 3e
       0.31378427 -0.3572239 0.032344025 0.41062248
000180 d5 54 82 3e f1 8c c1 3e 39 2c f7 3e 90 fe 08 3f
       0.25455347 0.37802842 0.48275927 0.5351343
000190 b1 83 ab 3e fb 8b bb 3e 47 ad 61 3f 2c f2 cd 3e
       0.3349891 0.36630234 0.88155025 0.40223825
0001a0 cc f0 2c 3e 5f 16 87 3e 68 87 9e be b6 6f 94 3e
       0.16888732 0.26384255 -0.30962682 0.2899148
0001b0 8b 86 7c bf 96 b5 ba 3d 86 8a 25 be d8 87 d8 be
       -0.98642796 0.09116666 -0.16166124 -0.4229114
0001c0 dc d8 01 3f ab 3a 62 be b5 e1 e8 bf ab d0 59 3f
       0.50721526 -0.22092693 -1.819388 0.8508403
0001d0 8a 20 d2 be 3c 91 98 be dc e3 22 3f 9e 1c e6 3e
       -0.4104045 -0.29798305 0.63628936 0.44943708
0001e0 16 39 66 3d 37 ef 84 be 96 ac 82 3f a9 ab 7a be
       0.056206785 -0.25963756 1.0208919 -0.24479546
0001f0 1e c7 26 3f 54 f4 9e 3d 9e 65 d5 3c 95 b2 c3 be
       0.6514758 0.07761446 0.026049431 -0.38222185
000200 3a 56 d3 3e 85 fd e0 bd ff b1 b2 be 27 a5 02 3f
       0.41276723 -0.10985855 -0.34901425 0.5103325
000210 5f 02 22 3f fc 2c a4 bd ac 1d 74 3e fd da 5b 3e
       0.6328487 -0.080163926 0.23839444 0.21470256
000220 ef d5 9f be 61 46 54 3e c8 a1 a0 3c 60 3f 3c be
       -0.31217906 0.20729972 0.019608393 -0.1838355
000230 96 8b 00 3e 13 15 b5 bc 6d ef a0 be 48 dc b2 be
       0.12553248 -0.022104776 -0.31432667 -0.34933686
000240 c7 6f b8 3e e2 92 75 3a 2e 0d 2d 3e 5f 15 80 3e
       0.3602278 0.00093678955 0.16899559 0.25016305
000250 bd 80 b6 3e 16 6a 42 be 31 c8 40 3e 96 cc a4 bd
       0.35645095 -0.18985781 0.18826367 -0.08046834
000260 86 51 60 be 0c f6 70 3e 6e a5 db bd 76 37 c2 3e
       -0.21906099 0.2353136 -0.107249126 0.37932938
000270 ed 87 98 be 04 a9 85 3e fe 7e 07 3f b9 cc 63 3e
       -0.29791203 0.2610551 0.5292815 0.22246064
000280 08 90 2c 3b 37 a8 3c 3e d6 19 c4 3e b4 70 1e 3f
       0.0026330967 0.18423544 0.3830096 0.6189072
000290 2d f8 7e be 9f 6e 18 3f 62 cc 06 c0 df 97 91 be
       -0.24899359 0.59543794 -2.1062245 -0.2843618
0002a0 59 7e 2c be 27 d4 b5 3e e6 5f 2b 3e 67 87 77 3d
       -0.16845073 0.35513422 0.16735801 0.060431864
0002b0 66 73 3e 3f a5 b1 cb bd 33 29 9a 3d e3 f9 45 be
       0.74394834 -0.099459924 0.075273894 -0.19333605
0002c0 13 4f ea 3e b0 a7 e9 3e 1c eb c0 3f a8 7d 88 bf
       0.45763454 0.45635748 1.507175 -1.0663347
0002d0 da fa 49 be f1 7b f2 3d 34 b4 11 3f 90 52 b8 3f
       -0.19724599 0.11840046 0.56915593 1.4400196
0002e0 69 7d ac be 1b 32 15 3e 64 e9 d5 3d 5f fb a0 bd
       -0.3368943 0.14569895 0.10444906 -0.07860445
0002f0 78 01 62 3e 19 c7 ef 3e 30 97 3e be 86 02 0a bd
       0.22070873 0.46831587 -0.18612361 -0.033693813
000300 11 56 09 3d 94 3d c4 be c4 12 cf 3e f8 be f8 3e
       0.033529345 -0.3832823 0.40444005 0.48583198
000310 20 e7 3d 3f b7 46 95 bc 2b bc d0 3e 28 fd cd bf
       0.74180794 -0.018222196 0.4076856 -1.6092882
000320 38 d6 02 bd 2a 99 9b bd 2a 1c 81 be bc a8 fe 3d
       -0.031942576 -0.07597573 -0.252168 0.12434527
000330 52 de b4 3d 37 21 fe bd c1 ae 1c 3f 67 b3 30 3e
       0.08831467 -0.12408679 0.61204153 0.17255937
000340 63 b6 54 3e 21 6e 18 be 6c c4 70 3e a9 99 6b 3e
       0.207727 -0.14885761 0.23512429 0.23007835
000350 79 60 f4 3e 21 ff b9 bd ea b9 8c bc e2 fc 3a 3f
       0.47729853 -0.09081865 -0.017178494 0.7304212
000360 99 cc b7 bc b3 92 88 3c db b4 b9 3d ae 52 86 bd
       -0.022436427 0.016671514 0.090676986 -0.06558739
000370 7b f4 9e 3e ba 2b 77 bd 9f 5e 46 3e 74 90 e5 3e
       0.310459 -0.060344435 0.19372033 0.4483677
000380 e9 ee 03 3e 72 7f 1a c0 9f 6c 0d c0 38 0f bc be
       0.12884106 -2.4140286 -2.2097547 -0.3673036
000390 2e 14 2f 3f 93 14 26 be 9b a7 a7 3e 41 37 9a 3e
       0.68390167 -0.16218786 0.3274506 0.3012028
0003a0 41 04 b4 3e 97 ff 7a bd 0f 0a b3 3e a3 d7 3a 3e
       0.35159495 -0.061278906 0.34968612 0.18246321
0003b0 52 d5 92 be 87 ca 57 be 0c 0f bf 3e fd 3f 7e 3c
       -0.28678375 -0.21073352 0.37316167 0.015518186
0003c0 91 ba 07 3f 5d ce db 3e 50 e6 0b 3f 09 8d e5 bc
       0.5301905 0.4293088 0.54648304 -0.028021352
0003d0 dc a2 b9 3d c4 cb 17 3e 3a 58 69 bd bf 3e a2 bd
       0.09064266 0.14823824 -0.056968905 -0.07922124
0003e0 d2 25 26 3e 2e 44 9a 3e 1b 15 90 3e 7f 12 b5 3d
       0.16225365 0.30130142 0.28141102 0.088414185
0003f0 a1 6e b2 bf af 87 7e 3e 88 b4 34 3e 4a c7 20 be
       -1.3940011 0.24856447 0.17646992 -0.15701023

net.4.bias f4 [5]
000000 21 8e df 3d b8 db 4e 3e b3 ac 2e 3d a2 91 0a 3f
       0.10915781 0.20201004 0.042645168 0.5412847
000010 85 7d 17 be
       -0.14793976
