results/simple_nav_v1/3/model.pt (torch, 532352 bytes, 4 tensors)

0.weight f4 [256, 512]
000000 6b c8 1d bc 21 03 ff bc 7a 41 95 bd 99 d1 ec bd
       -0.009630303 -0.031129422 -0.07287879 -0.11563415
000010 e3 30 0e be d2 c8 17 be ce 54 ab bd 5e 07 fe bc
       -0.13885836 -0.148227 -0.083657846 -0.031009372
000020 7c 89 d2 bc 1f 55 1a be e9 78 fd 3d 26 4c b0 bc
       -0.025700323 -0.15071534 0.123765774 -0.021520685
000030 a3 a9 86 bd 3d 60 05 bc 92 7e 71 bd 92 b1 aa 3c
       -0.065753244 -0.008140621 -0.058958597 0.020836625
000040 f6 31 29 be 15 f6 90 bd f6 ea 06 bd e5 42 32 bd
       -0.16522965 -0.070781864 -0.03293892 -0.043520827
000050 b6 51 9b bd bb 55 70 3d 9c 39 74 bc 76 55 a7 bb
       -0.075839445 0.05867551 -0.014906313 -0.0051066233
000060 e3 dd a8 3a 30 04 11 be e7 a7 b6 bd 42 90 12 be
       0.001288351 -0.14161754 -0.089187436 -0.14312842
000070 d3 af 4d bd 5a ff 72 bc 6d 15 14 bd e3 9a dd 3d
       -0.050216507 -0.014831388 -0.036153246 0.10820558
000080 0b a9 12 3e f9 4a d2 bd a2 87 6b 3d 4e 9d b2 bd
       0.14322297 -0.10268206 0.057502396 -0.0872141
000090 6c b2 0e 3e 83 a3 d4 bd 8a 18 4e 3d 8e 94 e1 3b
       0.1393525 -0.1038275 0.05031637 0.006884164
0000a0 b3 76 18 bd d7 be 7b bd a6 8f 3d 3d 63 63 2a bd
       -0.037222575 -0.061461296 0.046279572 -0.04159869
0000b0 f8 a4 d2 3c bb f5 85 bd d9 12 1d be 47 80 22 3d
       0.025713429 -0.0654101 -0.15339221 0.039673116
0000c0 77 56 12 3d 3c 5e 30 bc 97 57 d7 bd 7d 35 de bc
       0.03572699 -0.010764655 -0.10514753 -0.027125115
0000d0 6f a8 38 be 04 dc 09 bc f4 40 ee bd 3e 19 90 bd
       -0.18033002 -0.008414272 -0.116334826 -0.070360646
0000e0 fc b9 19 be f6 da 03 3d 63 56 e7 bc aa d2 aa bd
       -0.15012354 0.03219124 -0.028239435 -0.08340962
0000f0 21 19 83 bd c2 fd 0c be af 10 bf bc 81 df 4a bd
       -0.06401277 -0.13768676 -0.023323385 -0.049529556
000100 7e 87 b3 3d ed 02 e2 bd a0 68 2a 3d 7e 03 e0 bd
       0.087660775 -0.11035714 0.041603684 -0.10938166
000110 76 83 73 3d b8 92 da bd 40 37 19 3e df 34 3b be
       0.059451543 -0.10672516 0.14962482 -0.18281887
000120 e4 b3 4e bd e4 cc 9c 3d 97 02 43 bd 1b ec d2 3d
       -0.050464526 0.07656267 -0.04760989 0.1029894
000130 c6 a9 50 bc d3 20 c4 3d 76 5d a7 bd d7 ee 45 3c
       -0.01273579 0.09576573 -0.08172123 0.01208087
000140 bd 61 83 3d 2c a6 31 be 4f 0b d7 3c 54 cf 95 3c
       0.064151265 -0.17348546 0.02625051 0.018287338
000150 91 4e b1 bd 8e 02 24 be 90 9d 57 3d d9 df ec 3d
       -0.086575635 -0.160166 0.052640498 0.11566133
000160 23 da e5 bd da 71 84 bd d4 26 f4 3d 3b 20 26 be
       -0.11223247 -0.06467028 0.119214684 -0.16223232
000170 db e1 0b be fc 20 fe bd 24 42 19 3b 49 66 d4 bc
       -0.13660376 -0.12408635 0.002338537 -0.02592768
000180 40 1f c5 bc 57 7e fb bd ed 31 90 bc 10 c1 a2 bd
       -0.024062753 -0.12279957 -0.017601931 -0.0794698
000190 dd b6 f6 bc fb a2 0d 3d 60 78 a2 bd 35 66 8e bd
       -0.030116493 0.03457926 -0.07933116 -0.06953088
0001a0 7f f6 58 bd 79 84 e0 bd 18 e4 90 bd ed 4c 20 3c
       -0.052969452 -0.10962767 -0.070747554 0.009783966
0001b0 94 ab 85 bd b1 75 15 bc b8 d0 b9 bd 4c b2 13 3d
       -0.065268666 -0.009122298 -0.09073013 0.03605871
0001c0 f4 e6 71 3d a9 34 96 bd 4e 7b 68 3d 9b 8d 7d 3d
       0.059058145 -0.07334263 0.056758218 0.061902624
0001d0 ed 99 0a be a0 09 2c be 32 02 e2 3c f1 fa 89 bc
       -0.1353528 -0.16800547 0.027588937 -0.016843291
0001e0 ad bb 89 3c ae e2 6d bc 8f a3 11 bd f0 c7 31 be
       0.016813124 -0.014519377 -0.035556372 -0.17361426
0001f0 76 84 0e bc b8 93 f0 3c 60 8d ef 3b ed 56 08 3c
       -0.008698573 0.029367313 0.0073105544 0.008321506
000200 0e 8a 11 be ae 6b 5a bd fd 4c 41 3c f5 10 ea bd
       -0.1421282 -0.053325348 0.011798141 -0.114290155
000210 23 c1 ee bd b0 21 7e 3d d3 ab 13 be f0 35 71 bc
       -0.11657932 0.062043846 -0.14421014 -0.014722332
000220 56 25 8a 3c 2f 91 95 bd 12 81 f1 bd bf a0 89 bd
       0.016863506 -0.07303082 -0.11792196 -0.06720113
000230 09 e7 c1 3d 0e 4b 4c bd 4d 8a 2e be 4f 1a ef bc
       0.094678946 -0.049876265 -0.17044945 -0.02918735
000240 55 7e 99 bd 26 6b 5e 3d 64 2b 8b 3d 1a 18 dc 3c
       -0.07494799 0.054301403 0.067953855 0.026866961
000250 ca 6c 86 3d 77 27 97 bd f3 9c 57 3d 90 d1 88 ba
       0.065637186 -0.07380574 0.052639913 -0.0010438431
000260 c4 f2 82 3d b7 3e 6f bb d4 7f d6 bd 0a 62 04 be
       0.0639396 -0.0036505887 -0.104736 -0.12928024
000270 aa cd ae bc 05 30 09 bd 04 10 ca bc 08 eb 66 3d
       -0.021338303 -0.03349306 -0.02466584 0.056376487
000280 c1 ad 63 3c 62 6a 6d bd 65 62 31 be c3 db 99 bd
       0.013896407 -0.057962783 -0.17322691 -0.07512619
000290 4b e3 2f bd d2 22 2a 3e 76 57 1f be a0 73 4b bd
       -0.042941373 0.16614845 -0.15560707 -0.049670815
0002a0 28 83 86 3d 21 82 2f 3d 55 d5 39 bd a7 a7 24 be
       0.06567985 0.04284871 -0.045369465 -0.1607958
0002b0 ef 12 94 3d 7d 9c 7c bd 74 cb f3 bd f0 61 29 be
       0.07230174 -0.061672676 -0.1190404 -0.16541266
0002c0 48 53 7d bd 03 bf fc bc b6 a3 6e 3d b7 d3 a7 bc
       -0.061847 -0.0308528 0.058261596 -0.020486696
0002d0 a3 6f c4 bd 8a 5a 3a be 7d 1b bc 3c 38 73 07 bd
       -0.095916055 -0.181986 0.022962326 -0.033068866
0002e0 dd 97 d8 3d 6b ad b0 bd 1b b6 3c bc 89 e3 46 bd
       0.105758406 -0.08626827 -0.011518027 -0.04855684
0002f0 ee f9 26 be 8a 91 a0 bd 60 cc dd bd a8 55 09 3d
       -0.16306278 -0.078402594 -0.10829997 0.033528954
000300 6c 93 d6 bd 36 63 06 be 00 c9 cd bc bf a4 1e 3d
       -0.10477337 -0.13123783 -0.025120258 0.038731333
000310 1d 34 c7 bd 41 68 3a be d6 73 11 be 05 a6 a1 bc
       -0.09726737 -0.18203832 -0.14204344 -0.019732485
000320 de 9f cd bd 09 e4 dd 3c 97 4b 8b bd 88 f7 a8 bd
       -0.10040258 0.027086275 -0.06801527 -0.08250338
000330 44 fa 57 bd 89 6e 2d be 3d 9e ed bd 4b 79 03 be
       -0.052728906 -0.16936697 -0.11602447 -0.12839238
000340 b9 5a c4 bd 93 66 bf bd 6f 79 90 bd fa 80 0e be
       -0.095876165 -0.09345736 -0.070544116 -0.13916388
000350 ec 0a 2c be 18 bd d7 bc 5a be d4 bc ed 98 06 be
       -0.16801041 -0.026335284 -0.025969673 -0.13144274
000360 6c 79 60 3c 85 6d 03 be 73 58 24 be 10 cc 78 3c
       0.013700824 -0.12834747 -0.16049366 0.015185371
000370 c8 09 a6 bd 6a 99 98 ba bf 0e 41 bc 50 f9 05 be
       -0.081073344 -0.0011642401 -0.011783301 -0.13083386
000380 59 91 cf 3d be 91 a2 3c 29 5e 53 bd ee 34 d2 bd
       0.10135145 0.019844886 -0.05160347 -0.10264002
000390 47 81 d0 3c 25 3e 57 3c a9 a2 d5 bd da 7f a6 bd
       0.02545227 0.013137375 -0.104314156 -0.081298545
0003a0 88 63 18 be 5c ca df bb 0d 3b ce bc 08 e1 06 3e
       -0.14881718 -0.006829543 -0.025174642 0.1317178
0003b0 58 e6 a3 bd fa 2e 36 bc 9e 67 05 be 29 40 c4 bc
       -0.08002919 -0.0111195985 -0.13027808 -0.023956375
0003c0 16 b1 e4 3d 4a a8 8d bd 09 4e 0f be 37 2b 97 bd
       0.11166589 -0.06916864 -0.13994612 -0.073812895
0003d0 11 30 db 3d fc e4 47 bd a7 36 a1 bc 8e 91 a0 bc
       0.10702527 -0.04880236 -0.01967938 -0.019600656
0003e0 53 31 dc bd 63 1d 76 bd b2 30 2e be 62 da fc bc
       -0.10751595 -0.06008662 -0.17010763 -0.030865852
0003f0 05 fa 01 3d 78 ca 54 bd f8 35 18 3d aa 12 2f be
       0.031732578 -0.0519509 0.037160844 -0.17096964

0.bias f4 [256]
000000 fd 01 4d bd c7 bc 0f bd 17 19 31 bd 94 e1 4c bd
       -0.050050724 -0.03509214 -0.04323682 -0.050019816
000010 13 26 4e bd da 8a ef be bc fe 78 bd 83 ae 23 be
       -0.05032928 -0.46785623 -0.06078981 -0.1598454
000020 a3 f9 e5 be 4d e3 2f be a6 03 4d bd f7 f6 4c bd
       -0.4491702 -0.17176552 -0.050052308 -0.05004021
000030 b5 a8 8a 3b de ce 42 bd 5d f9 4c bd 45 e5 26 3f
       0.004231537 -0.047560565 -0.0500425 0.6519359
000040 a7 5d 7d bd 9b 1a 8e bd 71 d0 8e bd 28 d8 cb be
       -0.061856892 -0.06938668 -0.06973351 -0.39813352
000050 85 04 4d bd 4c fa 4c bd 99 ee 54 3f 51 8a ab bc
       -0.05005314 -0.05004339 0.8317657 -0.020939978
000060 15 11 19 bd c4 fb 4c bd 0c 17 02 bd b8 49 01 bd
       -0.037369806 -0.05004479 -0.03176026 -0.031564444
000070 86 75 88 bd 13 29 59 bd 30 8d 03 be ee 02 4d bd
       -0.06663041 -0.053017687 -0.12846828 -0.050051622
000080 da 32 82 bd 1d 37 7c bd 0e f0 82 3e 4e 4c 07 bc
       -0.063573554 -0.061575998 0.25573772 -0.008257939
000090 48 cc af bd 63 a0 d8 bb a4 5c 85 bd e6 80 de be
       -0.085838854 -0.0066109165 -0.065118104 -0.43457717
0000a0 ec 26 8a bd 04 3c f7 be 6c 03 4d bd 6d 11 59 bd
       -0.06745705 -0.48287976 -0.05005209 -0.052995134
0000b0 04 0f 63 bd 25 d0 67 bd 40 5b 0c bd d0 60 83 bd
       -0.055434242 -0.056594986 -0.03426671 -0.0641495
0000c0 67 e4 26 bd af e3 96 bd 5b 5c ac be e1 a3 8f bd
       -0.040745165 -0.07367646 -0.33664212 -0.07013679
0000d0 e3 38 e4 bd 65 c5 d1 be 6b 73 92 bc d7 02 4d bd
       -0.11143663 -0.40970913 -0.017877301 -0.050051536
0000e0 69 b1 38 3f c9 e8 35 bd 13 4d c8 be cd 5c c8 be
       0.72145706 -0.044411454 -0.39121303 -0.391333
0000f0 38 45 77 3e 03 ef 37 bd 74 02 4d bd c4 0e 6b bc
       0.24147499 -0.044905674 -0.050051168 -0.014346782
000100 82 04 4d bd 4a a7 85 bd c7 95 36 bd ac 97 33 bd
       -0.050053127 -0.065260485 -0.044576433 -0.043845817
000110 dd 00 4d bd 77 88 3b bd 43 74 52 bd d0 d5 9f bd
       -0.05004965 -0.04578444 -0.051380407 -0.078044534
000120 24 66 5a 3f e4 fd 31 bd 92 fb 3b be b5 31 5d bd
       0.85312104 -0.04345502 -0.18357685 -0.054002482
000130 1f 00 4d bd 9a db 8c bd 83 51 81 bd 78 89 ea bd
       -0.050048944 -0.06877823 -0.06314375 -0.11452001
000140 70 16 6c bd ab 72 84 bd dc f0 4c bd 51 b2 2e bd
       -0.057638586 -0.06467184 -0.05003439 -0.042650525
000150 21 22 7e bd db 3a ee bd a5 27 4c bd d7 55 05 bd
       -0.062044267 -0.116323195 -0.049842495 -0.032552566
000160 5b 09 22 3f ff ed 58 bd 54 37 66 ba 97 c7 13 bc
       0.63295525 -0.052961346 -0.0008782048 -0.009019754
000170 3e 6b e8 bd f4 ac 72 bd cc 02 4d bd 21 00 96 bd
       -0.1134858 -0.059246972 -0.050051495 -0.07324243
000180 2d 0d 59 bd 29 7b c9 be 38 fd 4c bd 47 6a 98 bd
       -0.05299108 -0.39351776 -0.050046176 -0.07442146
000190 e4 a5 96 bb 37 bc 8d bc 38 1e 8d bc 1e 34 75 3a
       -0.0045974124 -0.017301662 -0.017226323 0.00093537744
0001a0 4a e1 37 bd 8a 8c 73 bd 6c 03 4d bd 01 4e a3 bd
       -0.044892587 -0.0594602 -0.05005209 -0.079738624
0001b0 61 45 df be bd 01 4d bd e4 95 3a bd fe 01 4d bd
       -0.4360762 -0.050050486 -0.045553103 -0.050050728
0001c0 fc 2f 07 bd 1b fa 4c bd da fc 4c bd ff 2e ca bd
       -0.033004746 -0.050043207 -0.050045826 -0.09872245
0001d0 c8 11 31 bd 63 e1 7c bc d3 a3 46 bd 7c 23 82 bd
       -0.04322985 -0.015434596 -0.04849608 -0.06354424
0001e0 b3 45 a2 bb 4e ce 9f be 01 03 4d bd ae 92 47 bc
       -0.0049521565 -0.31212085 -0.050051693 -0.012180967
0001f0 1f 2d 64 be 72 c7 e3 be 3b f6 51 bd 1f 04 4d bd
       -0.22282837 -0.44488102 -0.051260214 -0.05005276
000200 93 73 4a bd 9b d6 51 bd 16 42 45 bd 85 4b 87 bd
       -0.049426626 -0.051230054 -0.048158728 -0.06606201
000210 41 04 4d bd e1 37 e1 be 5f 2c 22 bc 1d 8b 4c bd
       -0.050052885 -0.43987945 -0.009898274 -0.049937356
000220 80 04 4d bd 6f fe 4c bd 1f 15 2e bd 77 cc 49 bd
       -0.05005312 -0.050047334 -0.04250061 -0.04926726
000230 d9 70 d8 bc df dc 78 bc d4 ee 4c bd a0 e5 77 bd
       -0.026420997 -0.0151893785 -0.05003245 -0.06052172
000240 27 dd 7b bd 4e 03 4d bd e1 fe a2 bd 1a c5 75 bd
       -0.061490204 -0.05005198 -0.079587705 -0.060002424
000250 97 04 4d bd e2 63 bf bc 17 a1 7b bd 74 dd 5c bd
       -0.050053205 -0.023363058 -0.061432924 -0.05392213
000260 74 6a 70 bd 14 ff 4c bd b3 a4 f5 bd f9 3c 75 bd
       -0.05869527 -0.05004795 -0.119943045 -0.0598726
000270 dc ac c9 be 69 95 96 bd 72 5f 0b 3e 55 5b 94 bd
       -0.39389694 -0.073527165 0.13610628 -0.07243983
000280 ac 03 4d bd 0b 82 08 bc ab c1 e3 bd e5 ce 2f bd
       -0.05005233 -0.008331786 -0.111209236 -0.04292192
000290 45 2d 73 bd 7f b6 c3 3a d8 72 05 bd ea 54 c2 be
       -0.059369344 0.0014931707 -0.032580227 -0.3795541
0002a0 8d 58 34 3f 49 ee 4c bd dc 68 70 bd f6 30 07 bd
       0.7044762 -0.050031934 -0.05869375 -0.033005677
0002b0 63 5f 6d bd 54 ab 91 bd 51 08 48 bd 3a 4d 8f bd
       -0.057952296 -0.07112756 -0.048836056 -0.06997152
0002c0 5d 6d 4e bd 92 6e 7f bd 90 fa 4c bd 09 9e 8f bd
       -0.050397266 -0.062361307 -0.050043643 -0.07012565
0002d0 76 60 fd bb dc 00 4d bd 9e f0 4b bd 80 12 50 bd
       -0.0077324463 -0.050049648 -0.049790017 -0.050798893
0002e0 8b dd 6b bd d1 7d 59 bd 44 bd 65 bd d7 cf 13 be
       -0.057584327 -0.053098504 -0.0560887 -0.14434753
0002f0 fc 3d 7c bd 23 61 91 bd e8 24 9d bd 1a 03 4d bd
       -0.06158255 -0.070986055 -0.07673055 -0.050051786
000300 bc 94 58 bc 81 a6 e0 be 42 4f 62 bd 1f 02 4d bd
       -0.013219055 -0.43877032 -0.055251367 -0.05005085
000310 b0 8b 50 bd 7f ff 89 bc 9b b2 b4 be 5b 67 d1 bd
       -0.050914466 -0.016845463 -0.35292515 -0.102247916
000320 af 31 64 bd 1a 22 99 bc 9b b7 95 bd b3 77 ff bc
       -0.055711444 -0.018693019 -0.073104106 -0.031185007
000330 7c 37 45 bd 00 42 86 bd 86 67 7a bd 4d ed 93 bd
       -0.048148617 -0.06555557 -0.061133884 -0.07222996
000340 bc 5e 4f bd 51 05 4d bd ba 28 f3 bd fa 1c 87 bd
       -0.050627455 -0.0500539 -0.11873002 -0.06597324
000350 31 42 83 bd d1 38 64 bd ce db 34 be 5a 69 ea bd
       -0.064091094 -0.055718247 -0.17661974 -0.114458755
000360 07 83 d1 bd 13 06 1f bd f4 00 4d bd b6 05 4f bd
       -0.102300696 -0.038824152 -0.050049737 -0.050542556
000370 af bd 12 bd b3 c0 0e bd 40 0a 51 bd 8b f6 23 bd
       -0.035825428 -0.03485174 -0.051035166 -0.040030044
000380 52 02 4d bd f9 00 4d bd c4 85 3c 3e 74 9e 19 be
       -0.05005104 -0.050049756 0.18410403 -0.15001851
000390 f6 1e 7b bd 4f 78 c5 bb 8c 02 4d bd a8 87 3b 3f
       -0.061308824 -0.006026305 -0.050051257 0.7325387
0003a0 65 62 f4 bc f4 28 7d bd 96 fb 4c bd 3c bf e1 bd
       -0.029832074 -0.061806634 -0.05004462 -0.11022803
0003b0 1d 46 7a bd fa fe 4c bd 0f 5c 83 bd 0b ee 46 3e
       -0.06110202 -0.050047852 -0.06414043 0.19426744
0003c0 e7 04 4d bd b0 01 4d bd dd 4e 3c bd 1a e2 03 be
       -0.050053503 -0.050050437 -0.045973647 -0.1287922
0003d0 ea 79 49 bd 31 c0 8d bd 6a 6f ca be eb 04 4d bd
       -0.049188532 -0.06921423 -0.39538127 -0.05005352
0003e0 c7 f5 4c bd 9a 90 4e bd e5 14 d7 39 d4 0a fb bc
       -0.05003908 -0.05043087 0.00041023563 -0.030644812
0003f0 18 ee 35 bd a4 0c 8e bd 89 26 5c bb 9f 03 4d bd
       -0.044416517 -0.06936005 -0.0033592305 -0.05005228

2.weight f4 [5, 256]
000000 d6 f9 1a bd 89 d3 ab 3e b7 e3 5a 3e 56 ae 44 3d
       -0.03783592 0.33559826 0.21375929 0.048017822
000010 26 1e 95 3d 81 d4 5a bc 32 e4 c5 bd 6c 22 85 3e
       0.07281141 -0.013356329 -0.096626654 0.26002824
000020 db 14 65 3c 64 02 a9 3e 54 71 e4 3c df e0 b9 3d
       0.013982023 0.33009636 0.02788607 0.09076094
000030 30 55 83 3e ee 59 0d 3e a1 e0 40 3e de 1c 27 bf
       0.2565093 0.13803837 0.18835689 -0.6527842
000040 d3 02 f7 3e 1b 52 9b 3e 41 50 85 3e 5a f1 c1 3e
       0.48244342 0.3033608 0.2603779 0.3787945
000050 b0 f2 67 bd d0 41 17 bd 5a 64 20 bf 0a 9f bd 3e
       -0.05662793 -0.036927998 -0.62653124 0.370354
000060 c4 ae c6 3e 21 55 38 be 0e 53 97 3c 7e e3 78 be
       0.3880521 -0.18001224 0.01847222 -0.24305531
000070 78 9f 7a 3d 89 65 72 3e 10 0d b1 be cd 9e 11 be
       0.061187238 0.23671545 -0.34580278 -0.14220734
000080 1b e9 25 3c f1 08 87 3e 21 4d 9d be 2e 44 99 3e
       0.010126377 0.2637401 -0.30722907 0.2993483
000090 5c fe 98 3e c1 92 c2 3e d6 9a 9c 3d 73 bb 8a 3e
       0.2988156 0.3800259 0.0764672 0.27096137
0000a0 5d fb 25 3e 74 a7 f8 3d 01 39 04 be bb a8 b3 3e
       0.16209169 0.12141314 -0.1291237 0.3508967
0000b0 64 2d c7 3b c4 c3 2a 3e 17 4d 7e bd ab e2 0b bd
       0.006078409 0.16676241 -0.062085237 -0.034151714
0000c0 b0 e0 be 3d 42 ed 11 3d 88 2f 86 3e 06 19 16 3e
       0.093201995 0.035626657 0.26208138 0.14657983
0000d0 92 76 bf 3e a2 c7 89 bc 42 2c c9 3b d6 52 5d 3d
       0.3739515 -0.016818825 0.006139309 0.054034077
0000e0 41 23 0e bf 13 0d 05 bd 9e 6b 90 3e a8 1a a4 3e
       -0.55522543 -0.03248317 0.28207105 0.32051587
0000f0 02 50 b6 be 56 52 98 bd 5a b2 b0 3d 9e ad 57 bd
       -0.35607916 -0.07437579 0.08627768 -0.05265581
000100 99 82 86 bd 5d b3 b0 bc cc 27 8d bd 53 1b 6f 3e
       -0.06567878 -0.021569902 -0.06892356 0.23350267
000110 a6 d5 10 be 53 08 68 3e 00 9c 77 be 07 ab 49 3e
       -0.14144 0.22659425 -0.24180603 0.19694148
000120 65 7a 3c bf 7b 59 10 bd cf b6 5a 3e c1 1f 80 3e
       -0.7362426 -0.035241585 0.21358798 0.25024226
000130 85 c2 54 be c5 31 78 bd 7d c6 0e 3d ac ee 34 3e
       -0.20777328 -0.06059434 0.034857262 0.17669171
000140 26 9c 81 3d 50 1c 1c bd 54 13 2b 3d a7 7c 60 3c
       0.06328611 -0.03811294 0.04176648 0.013701594
000150 1a e0 31 3e b8 06 35 3e 00 cc 43 3d 06 c9 8a 3e
       0.17370644 0.17678344 0.04780197 0.27106494
000160 ea cc 05 bf 41 61 ea 3d 96 11 bd 3e 17 89 65 3e
       -0.522658 0.11444331 0.3692748 0.22415577
000170 be 5a a0 3e 85 e9 46 3d 36 9a d8 bd 6a c3 08 bd
       0.3131923 0.048562545 -0.105762884 -0.033389486
000180 df 7b 3e 3e 78 75 a2 3e fb a6 8f 3c 04 e4 4e bd
       0.1860194 0.31730247 0.017535677 -0.05051042
000190 53 25 17 3d 47 8b 4f 3a 83 1f e7 3e 2e e5 8c bd
       0.03690083 0.0007917177 0.4514123 -0.0687965
0001a0 3c 29 7a bd 66 98 91 3d 92 a8 e5 bd df 45 8d 3e
       -0.06107448 0.07109146 -0.11213793 0.2759237
0001b0 48 38 3a 3d e9 d6 f3 bd 9d 70 8b 3e 04 e1 cf bd
       0.04546383 -0.11906225 0.27234355 -0.1015034
0001c0 27 dd dc 3e 3a 15 05 3e 94 64 68 be a1 37 83 3d
       0.43137476 0.12996379 -0.22694618 0.06407095
0001d0 0d 0c 88 be 9a cd c1 3e 23 99 4f 3e ae b2 f6 bd
       -0.26571694 0.37852174 0.20273261 -0.12045799
0001e0 82 22 ea 3e 0f c5 6d 3e 43 72 9c 3d 3c ba aa 3e
       0.45729452 0.23219703 0.07638981 0.3334521
0001f0 c5 37 92 3e f7 6e 9d 3e df 27 3d 3e 90 9f 7e be
       0.28558174 0.30748722 0.18472241 -0.24865556
000200 4f 72 44 3e 8e 03 83 3d cd 03 b0 3d a8 fe 4a 3e
       0.1918423 0.063971624 0.08594475 0.19823706
000210 c2 ed 4e 3e 8e 41 27 3c 28 95 fd 3e 1d 2e 42 be
       0.20207885 0.010208501 0.4952786 -0.18962903
000220 33 29 c6 bc aa ec 02 3d 1a 06 53 3c 33 80 59 be
       -0.024189567 0.03196398 0.012879873 -0.2124031
000230 ed e4 d1 3e a0 5f bb 3e 9a 82 ff 3d cd 31 29 3e
       0.4099497 0.36596394 0.12476082 0.16522904
000240 c3 da 33 3e ce fe cb bd bd 57 6e 3e dc bf db 3d
       0.1756392 -0.099607095 0.23275657 0.10729954
000250 aa 1c 18 be b2 a4 b6 3c 37 28 a7 bd f6 93 74 bd
       -0.14854684 0.02229533 -0.08161967 -0.05971142
000260 6c b6 d4 bd 0e 1d 99 bd ae 8d 9e 3e f5 8b 19 3e
       -0.10386357 -0.07476245 0.30967468 0.14994796
000270 35 11 9c 3e e5 26 6b bd 1f 6b 95 be 89 50 a0 3d
       0.30481878 -0.05741014 -0.2918329 0.07827861
000280 75 ce 42 3e 95 7c 8c 3e 62 aa 9b 3e 59 af 43 3e
       0.1902407 0.274388 0.3040343 0.19109859
000290 32 9f 0e 3e d0 76 1c 3e ae ea 0e be 60 06 9a bd
       0.13927916 0.15279698 -0.1395671 -0.07520747
0002a0 4e 88 1f bf 10 59 77 be 17 cd 9b 3d 49 73 04 3e
       -0.6231736 -0.24155068 0.07607477 0.12934603
0002b0 8d be db 3d 85 17 1f 3e df 41 6d be d4 f5 4f 3e
       0.10729704 0.15536316 -0.23169659 0.2030862
0002c0 80 6f e0 3e c6 a2 22 bc e4 0e 31 3d 5c 50 71 bd
       0.43835068 -0.0099265035 0.04322709 -0.058914527
0002d0 43 0f c2 3e ce 6f 91 bd 84 7f a0 3c aa 37 a9 3e
       0.3790227 -0.07101403 0.019592054 0.3305028
0002e0 85 9d e6 bd a5 d7 26 3e 47 ab 77 3e 61 69 64 3e
       -0.11260513 0.162932 0.24186431 0.22305824
0002f0 ec 34 65 3e e4 6b 5d 3e 1f e2 ae 3e c6 2c 3b 3e
       0.2238347 0.21623188 0.34156892 0.18278798
000300 4d a0 c4 3e 49 9f 39 3e ec 52 3c bd e6 63 8f bd
       0.3840355 0.18127169 -0.045977518 -0.07001476
000310 86 2a 93 bc 64 43 dc 3e 65 fc ad 3e 52 bd b6 3e
       -0.017964613 0.43020165 0.33981624 0.35691315
000320 77 23 43 3e 4a 12 95 3e 68 70 0d 3e 7d 95 0b 3e
       0.19056498 0.29115516 0.13812411 0.13631244
000330 f5 9d 4f 3d f7 d5 15 bd 98 9b f6 3b d2 01 5c 3d
       0.05068775 -0.036581006 0.0075258724 0.053712673
000340 37 eb 69 3d b6 74 f5 bd 72 9f 74 3e 0d 53 f2 3d
       0.057109084 -0.119851515 0.23888949 0.11832247
000350 c4 b3 88 3e a8 fb f7 3d e4 e2 42 3e d0 8a a4 3e
       0.2669965 0.121085465 0.19031864 0.32137156
000360 3b 8e 60 3e 3e fc a1 3d 36 d0 fc 3d 14 9f 47 bc
       0.21929257 0.079094395 0.123444006 -0.012183923
000370 a7 59 99 bd 37 7a de bd 3c b9 0b bc bd 32 84 bd
       -0.07487803 -0.108631544 -0.00852805 -0.0645499
000380 1b eb a8 bd cb 2c f5 bd 21 fd d6 be 6d 21 cf 3e
       -0.08247968 -0.11971434 -0.41989997 0.4045519
000390 13 4a 08 3c 8e e8 6a 3e fe 6f 41 3d fd 0f 34 bf
       0.008318442 0.22940275 0.047225945 -0.70336896
0003a0 f2 28 53 3e e3 c1 ce 3d 0c 26 57 3c a5 a9 89 3e
       0.20621088 0.10095575 0.01313163 0.2688724
0003b0 0c 0b 22 bd 3f 56 d6 3d 4d 63 68 3e cc 89 94 be
       -0.039561316 0.10465669 0.2269413 -0.2901138
0003c0 42 34 d6 ba ff d7 4c 3e cc f1 39 be 0a 0e 8f 3e
       -0.0016342478 0.20004271 -0.18158644 0.27940398
0003d0 b4 d3 bd bd 49 ef ed 3c f0 8e 21 be 6b 60 21 3e
       -0.09268895 0.029044764 -0.15777183 0.15759437
0003e0 13 73 19 3e 5e 93 35 3d c9 2f 8e 3e 8f 17 d0 3d
       0.14985304 0.044329993 0.27770832 0.101607434
0003f0 a3 6b dc 3c da eb 40 3d f0 e5 fe bd e6 ea cd 3c
       0.026906794 0.047099926 -0.12446201 0.025136422

2.bias f4 [5]
000000 15 56 f7 be ee a7 51 3f f6 b7 a6 be a4 52 db be
       -0.48307863 0.81896865 -0.32562226 -0.42836487
000010 ce b7 08 bf
       -0.53405464
