results/simple_nav_v1/9/model.pt (torch, 532352 bytes, 4 tensors)

0.weight f4 [256, 512]
0	0x3d8693ad	0.06571136
1	0x3e265633	0.1624382
2	0x3cf9e491	0.030504497
3	0x3e192741	0.1495638
4	0x3da374df	0.07981276
5	0xbac74b65	-0.0015204964
6	0x3d8160e4	0.063173085
7	0x3e034143	0.12817864
8	0x3ddce98c	0.10786733
9	0x3df0f85e	0.11766122
10	0x3dd0e5b7	0.10200065
11	0x3e599195	0.21246941
12	0x3e577ed0	0.21044469
13	0x3e52d4a8	0.20588934
14	0x3d886dbe	0.06661557
15	0x3e285b5f	0.16441105
16	0x3d8c487d	0.068497635
17	0x3e53ae43	0.20671944
18	0x3e80c096	0.2514693
19	0x3e5f9227	0.21833096
20	0x3e2c3a49	0.16819109
21	0x3c8b49f9	0.017003046
22	0xbd153344	-0.036425844
23	0x3e63162a	0.22176424
24	0x3da0a0c2	0.07843162
25	0x3df58dc0	0.11989927
26	0x3e1cc795	0.1531051
27	0x3e12a36c	0.14320153
28	0x3e0250e5	0.12726171
29	0xbd15107d	-0.036392678
30	0x3e365f98	0.17809904
31	0x3d1e4fe3	0.038650405
32	0x3e4a2c1e	0.19743392
33	0x3e65a53c	0.22426313
34	0x3cc17c18	0.023618743
35	0xbd42187a	-0.047386624
36	0x3e5f4998	0.21805418
37	0x3dbde4b8	0.0927214
38	0x3ca1b15b	0.01973789
39	0x3db5b72f	0.0887283
40	0x3d94fbd4	0.07274595
41	0x3e656d50	0.2240498
42	0x3d6b6135	0.05746575
43	0x3e36b402	0.17842105
44	0x3e33e3ca	0.17567363
45	0x3d934f3a	0.07192846
46	0x3e0bc29f	0.13648461
47	0x3dfbcfd2	0.12295498
48	0x3e595660	0.21224356
49	0x3cba2cc5	0.022726426
50	0x3dc3fff4	0.095703036
51	0xbc6db0f1	-0.014507518
52	0x3e5ce086	0.21570024
53	0x3daa740f	0.08322918
54	0x3ce1ed0e	0.027578857
55	0x3df1e37e	0.11810969
56	0x3dad6b8d	0.08467779
57	0xbbaeaf90	-0.0053309873
58	0x3dbb6966	0.091509625
59	0x3e45a4cf	0.1930115
60	0x3d902b1d	0.07039473
61	0x3cbf7fbf	0.023376344
62	0x3e3426e8	0.17592967
63	0x3de3dbc4	0.11125901
64	0x3e39dec3	0.18151383
65	0x3d92ec57	0.071739845
66	0x3e606832	0.21914747
67	0x3dd182a5	0.102299966
68	0x3e1e655d	0.15468355
69	0x3df0a280	0.117497444
70	0x3ccbf9a0	0.024899304
71	0x3e6292e5	0.22126348
72	0x3d2a9a00	0.041650772
73	0x3ccc9a4f	0.024975924
74	0x3b35c63b	0.0027736563
75	0x3e2b66f6	0.16738495
76	0x3cae45fd	0.021273607
77	0x3e6c7698	0.23092115
78	0x3e6e19db	0.2325205
79	0x3e7bc824	0.24588066
80	0x3d0769e8	0.033059984
81	0x3e2be312	0.16785839
82	0x3e4bf334	0.19916993
83	0xbcdcb5fb	-0.026942244
84	0x3d0b85e0	0.03406322
85	0x3db1bedf	0.08678984
86	0x3e31f600	0.17378998
87	0x3c8738e9	0.016506629
88	0x3dbba7c0	0.09162855
89	0x3e22fef8	0.15917575
90	0x3d10bafc	0.035334572
91	0x3e2757c2	0.1634207
92	0x3e783e56	0.2424253
93	0x3e50664c	0.20351523
94	0x3d3d3cdd	0.046200622
95	0x3db7fd96	0.089839146
96	0x3e32ead2	0.1747239
97	0x3e115505	0.14192589
98	0x3dbcb325	0.092138566
99	0x3e0c2bdd	0.13688608
100	0x3e07b155	0.1325124
101	0x3e7a4060	0.2443862
102	0x3e80ce9a	0.25157624
103	0x3d910b80	0.070822716
104	0x3c88d0f2	0.016701195
105	0x3dbe853d	0.09302757
106	0x3d56671f	0.052344438
107	0x3e68078a	0.22659126
108	0x3e5af713	0.21383314
109	0x3d836110	0.064149976
110	0x3d58c830	0.05292529
111	0x3d118249	0.03552464
112	0x3dcc095c	0.09962723
113	0x3d6f51a7	0.05842748
114	0x3e207777	0.15670572
115	0x3c869948	0.016430512
116	0x3e67bea8	0.22631323
117	0x3c3f35dd	0.011670557
118	0x3c5ee35d	0.013604012
119	0x39a5f8df	0.00031656676
120	0x3dd17524	0.10227421
121	0x3e6914db	0.22761862
122	0x3e278443	0.16359048
123	0x3d9a8e0b	0.07546624
124	0x3cf1ab24	0.029500552
125	0x3e74a196	0.23889765
126	0x3e6810be	0.22662637
127	0x3e15dc4d	0.1463482
128	0xbd19fc5c	-0.037594184
129	0x3d7dfeb4	0.062010482
130	0x3d221437	0.03957006
131	0x3e6dfa57	0.23240028
132	0x3e1d1072	0.15338305
133	0x3a93f17d	0.0011287179
134	0x3e0aaf15	0.13543351
135	0x3e35443b	0.17701809
136	0x3d16e3d6	0.036838375
137	0x3e7fc471	0.2497728
138	0x3e701e2e	0.23449013
139	0x3e489336	0.19587407
140	0x3e1952b3	0.14972953
141	0x3e4866d8	0.19570482
142	0x3e292615	0.16518433
143	0x3e337a8d	0.17527218
144	0x3e08a11c	0.13342708
145	0x3e7457b8	0.23861587
146	0x3dbd91c4	0.09256318
147	0x3dfee621	0.12446237
148	0x3e7e77eb	0.24850433
149	0x3de55732	0.11198272
150	0x3d86bbd6	0.065787956
151	0x3daf47ae	0.08558594
152	0x3e454b20	0.19266939
153	0x3c61b5ce	0.013776256
154	0x3e186248	0.14881241
155	0x3deb4e3f	0.11489534
156	0x3d86a01e	0.06573509
157	0x3dbf3be6	0.093375966
158	0x3c5dc3e2	0.013535472
159	0xbd9089e5	-0.07057551
160	0x3e5b2a54	0.21402866
161	0x3e58f08e	0.21185514
162	0xbd2a0353	-0.041507076
163	0x3e797f77	0.2436503
164	0x3e44530e	0.19172308
165	0x3e87c3c8	0.26516557
166	0x3e2e834b	0.17042272
167	0x3e1b0392	0.1513808
168	0x3e282259	0.16419353
169	0x3d68a948	0.056802064
170	0x3da6c0de	0.08142255
171	0x3de4a7a9	0.11164791
172	0x3ca37219	0.019951867
173	0x3d5698d4	0.052391842
174	0x3e15ef8c	0.14642161
175	0x3d8055fa	0.06266399
176	0x3e5faf89	0.21844305
177	0x3e064620	0.13112688
178	0x3dfbb033	0.12289467
179	0xbcc0baba	-0.023526538
180	0x3d980db1	0.074244864
181	0x3e1357f3	0.14389019
182	0x3c6701c4	0.014099542
183	0x3dc096b4	0.09403744
184	0x3d52e9a7	0.05149236
185	0x3e0007ee	0.12503025
186	0x3e808f89	0.2510951
187	0x3cb29dae	0.021803703
188	0x3e4b6aef	0.1986501
189	0x3e143df8	0.14476764
190	0x3cfeeadd	0.03111785
191	0x3e6ce70d	0.23135014
192	0x3e3d1f09	0.1846887
193	0x3e5f6041	0.21814062
194	0x3c871dd7	0.016493721
195	0x3e2b12c2	0.16706374
196	0x3e399b8e	0.18125746
197	0x3d3350c1	0.043778185
198	0x3dab7300	0.08371544
199	0x3cf95195	0.03043441
200	0x3dea5003	0.11441042
201	0x3d52d771	0.051474992
202	0xbda75e89	-0.08172328
203	0x3df88d77	0.12136357
204	0x3dc14ee7	0.094388776
205	0x3e46a4a9	0.1939875
206	0x3e82bef3	0.25536308
207	0x3e20da2b	0.15708224
208	0x3e79b0ba	0.24383822
209	0x3e6d4a6c	0.23172921
210	0x3e6bc0cb	0.23022763
211	0x3e210096	0.1572288
212	0x3d15cdd6	0.036573254
213	0x3df038b9	0.11729569
214	0x3de3ef07	0.11129575
215	0x3bcbdbe1	0.00622128
216	0x3debf261	0.115208395
217	0x3e5b2720	0.21401644
218	0x3e3bfec6	0.18358907
219	0xbd0ac36c	-0.033877775
220	0x3e25e353	0.16199999
221	0x3e7bb2ed	0.24579974
222	0x3e30b8a8	0.17257941
223	0x3db23103	0.087007545
224	0x3de5aeb2	0.11214961
225	0x3cb7b44e	0.022424843
226	0x3d9014c6	0.07035212
227	0xbd2c6656	-0.042089783
228	0xbcf762e7	-0.030198528
229	0x3e3eba21	0.1862569
230	0x3e5cf35f	0.21577214
231	0x3d5e5012	0.05427558
232	0xbe034465	-0.12819059
233	0x3d8ad78a	0.06779392
234	0x3def99bb	0.11699244
235	0x3e73ed94	0.23821098
236	0x3dae1de7	0.08501797
237	0x3e3d5ab3	0.1849163
238	0x3ca17f9f	0.019714175
239	0x3e5b915c	0.21442169
240	0x3dc1a5cf	0.094554536
241	0x3e348b20	0.17631197
242	0x3df1f3a3	0.11814048
243	0x3d060739	0.03272173
244	0x3e8506bd	0.25981703
245	0xbe08aebb	-0.13347904
246	0x3e718000	0.23583984
247	0xbc3e7986	-0.011625653
248	0x3e6dfb48	0.23240387
249	0x3e70ac51	0.23503233
250	0x3e603df7	0.21898638
251	0x3e2bcd7f	0.1677761
252	0x3c562eff	0.013072728
253	0x3d1acd06	0.03779318
254	0x3e0b701a	0.13616982
255	0x3d9cda08	0.07658774

0.bias f4 [256]
0	0x3e0a2b19	0.13493003
1	0x3e0b14ed	0.13582201
2	0x3d9eab95	0.077475704
3	0xbd3f1492	-0.046650477
4	0xbd49c3c6	-0.04925897
5	0xbd94c2c5	-0.07263712
6	0xbd5aba74	-0.05340047
7	0x3da93b78	0.08263296
8	0xbd13f79a	-0.036124803
9	0xbd5bd04d	-0.053665448
10	0x3e0fac17	0.14030491
11	0xbd4d053b	-0.050053816
12	0xbd4d043d	-0.05005287
13	0xbd4d0361	-0.05005205
14	0x3defd618	0.11710757
15	0xbd4f262f	-0.050573524
16	0xbd4cf642	-0.050039537
17	0x3e12d179	0.1433772
18	0x3e176840	0.14785862
19	0xbd4d052c	-0.05005376
20	0xbd4d053e	-0.050053827
21	0x3e063b1b	0.13108484
22	0x3e0e44a8	0.13893378
23	0x3c50e7a5	0.012750541
24	0x3df379ea	0.11888488
25	0x3dfd2311	0.12360204
26	0x3e114616	0.14186892
27	0xbd4b2892	-0.049599238
28	0xbbb2dea8	-0.0054586716
29	0x3dff401c	0.124634
30	0x3e060023	0.1308599
31	0xbd4d0345	-0.050051946
32	0xbcd5d7bc	-0.026103847
33	0xbd1e1109	-0.038590465
34	0xbd40ee2a	-0.04710213
35	0x3e1b1e5e	0.15148303
36	0xbd4d0495	-0.050053198
37	0xbd0f0d25	-0.034924645
38	0xbd4cc8c3	-0.04999615
39	0xbd4d0341	-0.05005193
40	0x3dfbda3a	0.12297483
41	0x3dfa075d	0.12208436
42	0x3dd35522	0.10318972
43	0x3c1c7fd8	0.009551965
44	0x3df97be4	0.121818334
45	0xbda0c3d3	-0.078498505
46	0x3e0e51a4	0.13898331
47	0xbd4d02eb	-0.05005161
48	0x3dfe7a0f	0.124256246
49	0xbd70c105	-0.058777828
50	0xbd69c163	-0.057069194
51	0xbd573e42	-0.052549608
52	0x3dc4806d	0.09594808
53	0x3e003e54	0.12523776
54	0x3e1ef77a	0.15524092
55	0x3d7e810e	0.062134795
56	0xbd081a01	-0.033227924
57	0x3e242d43	0.16032891
58	0xbd0d9e65	-0.034574885
59	0x3e0ba2f8	0.13636386
60	0x3e0cdd03	0.13756184
61	0x3da0a768	0.0784443
62	0x3e21d7ac	0.15804929
63	0x3dfd53dd	0.12369511
64	0xbd5bbd73	-0.05364747
65	0xbd4d058f	-0.05005413
66	0x3d96bca6	0.073602006
67	0x3e137c17	0.14402805
68	0x3e0c043c	0.1367349
69	0x3dcd810b	0.100343786
70	0xbd4d0469	-0.050053034
71	0x3e12b0e1	0.14325286
72	0xbd4d03dc	-0.05005251
73	0xbd6a9968	-0.057275206
74	0xbd0e5ecc	-0.034758374
75	0xbd59d2c6	-0.053179525
76	0xbd4d02e0	-0.05005157
77	0xbd4d027d	-0.0500512
78	0x3e0547e6	0.13015708
79	0x3e07ddfe	0.13268277
80	0x3dfdc988	0.12391955
81	0xbd24cb39	-0.04023287
82	0xbd4d0472	-0.050053068
83	0xbd4d04d7	-0.050053444
84	0xbd4d00f7	-0.05004975
85	0xbcb283ba	-0.021791328
86	0xbd4cfe4c	-0.050047204
87	0xbd21ff24	-0.03954996
88	0xbd4d04cc	-0.050053403
89	0xbd4cfcc8	-0.05004576
90	0x3e13e446	0.14442548
91	0xbd4fd18e	-0.050736956
92	0x3d0bd180	0.03413534
93	0x3e15954c	0.14607733
94	0x3df9155b	0.12162276
95	0xbd4d0386	-0.05005219
96	0xbd4cff10	-0.050047934
97	0x3e021877	0.12704645
98	0xbd4d0170	-0.0500502
99	0xbd3dd1e1	-0.046342734
100	0x3e174d30	0.14775538
101	0x3e09fe4d	0.13475914
102	0x3e09bc76	0.13450798
103	0xbd4d04e2	-0.050053485
104	0xbd5f20d7	-0.054474678
105	0xbd01d2a4	-0.031695023
106	0xbd65a447	-0.05606487
107	0xbd4d04b1	-0.050053302
108	0xbd59aac1	-0.05314136
109	0x3ddb0dcb	0.1069599
110	0x3e08195f	0.13290928
111	0xbd696651	-0.056982342
112	0x3e034446	0.12819013
113	0xbd909a44	-0.07060674
114	0xbdcc4c73	-0.09975519
115	0x3e04b1c9	0.12958445
116	0x3dc63c60	0.09679484
117	0x3dce7945	0.10081724
118	0x3dfa2dfd	0.12215803
119	0xbd992a43	-0.07478764
120	0xbd4d0500	-0.050053596
121	0xbd4d04af	-0.050053295
122	0x3e087599	0.1332611
123	0xbb70c3ea	-0.0036737868
124	0xbcca476f	-0.024692265
125	0xbd229aca	-0.0396984
126	0x3d9f0ded	0.07766328
127	0x3e01c1fc	0.12671655
128	0xbd0e2bec	-0.034709856
129	0xbd4cfead	-0.050047565
130	0x3e0f2ec7	0.13982688
131	0x3e05992d	0.13046713
132	0x3d78fa3d	0.06078552
133	0x3e00d137	0.12579809
134	0xbd717a92	-0.058954783
135	0x3e1103a5	0.14161547
136	0xbd894c1e	-0.06703971
137	0x3e09a5fc	0.13442224
138	0xbd4d037f	-0.050052162
139	0x3debb0c1	0.115083225
140	0x3dc81ac7	0.097707324
141	0x3df5fbcd	0.12010918
142	0x3e0166b8	0.1263684
143	0xbd9038b8	-0.07042068
144	0x3e2f2d31	0.17107083
145	0xbd4d0208	-0.050050765
146	0xbd489ed0	-0.04897958
147	0x3e09850c	0.1342966
148	0xbd4d017b	-0.05005024
149	0xbd47a2f0	-0.048739374
150	0x3e1340b4	0.14380151
151	0xbd75c852	-0.060005493
152	0x3de17923	0.11009433
153	0x3dbfe588	0.093699515
154	0xbd82507e	-0.06363009
155	0xbd741029	-0.059585724
156	0x3e03342d	0.12812872
157	0x3df598b1	0.11992014
158	0x3dedd235	0.116123594
159	0xbd4d0417	-0.05005273
160	0x3ded2e11	0.11581052
161	0xbd20f34e	-0.039294533
162	0xbd94c4e3	-0.07264116
163	0x3dda0861	0.106461294
164	0xbd4d0328	-0.05005184
165	0xbd03f137	-0.032212462
166	0xbd4d04d9	-0.05005345
167	0x3ddd856a	0.10816462
168	0x3dee7f3d	0.116453625
169	0xbd4d0505	-0.050053615
170	0xbd4d0502	-0.050053604
171	0xbd333c12	-0.04375846
172	0xbd1d9ba3	-0.038478505
173	0xbd4d0466	-0.050053023
174	0xbd4d0545	-0.050053854
175	0xbd46b98e	-0.048516802
176	0x3e112673	0.14174823
177	0xbd4d031f	-0.050051805
178	0xbcc7a4d7	-0.024370594
179	0x3e010617	0.1259998
180	0x3deb2f7c	0.11483666
181	0xbc4ca120	-0.012489587
182	0x3e0eb7b5	0.13937266
183	0xbd5451b0	-0.051835716
184	0x3df95c50	0.1217581
185	0x3e064b91	0.13114764
186	0x3ddd02bf	0.107915394
187	0xbd711791	-0.058860365
188	0x3df5c220	0.11999917
189	0xbd4d002d	-0.050048996
190	0xbd4d0534	-0.05005379
191	0x3e0fb01d	0.14032026
192	0x3e09948d	0.13435574
193	0xbd4cfbc1	-0.05004478
194	0xbd78be07	-0.0607281
195	0xbd520990	-0.05127865
196	0xbd95b987	-0.07310777
197	0xbd3a6a69	-0.045511637
198	0xbd4cfe52	-0.050047226
199	0x3dc602d5	0.09668509
200	0x3e03ee87	0.1288396
201	0xbd4d032e	-0.05005186
202	0xbd4d02fe	-0.05005168
203	0xbd4d0510	-0.050053656
204	0x3e050364	0.12989575
205	0x3df33a9c	0.11876413
206	0x3ddc2a40	0.10750246
207	0x3e22ff25	0.15917642
208	0xbd390b6b	-0.045176905
209	0xbd4d03a3	-0.050052296
210	0x3dc992d9	0.09842462
211	0xbd7917b4	-0.06081362
212	0x3dfc8835	0.12330667
213	0x3d0141a4	0.03155674
214	0xbd4cf997	-0.050042715
215	0xbd983b1b	-0.074331485
216	0x3e01edb2	0.1268833
217	0xbd4d03ee	-0.050052576
218	0xbd94c88c	-0.07264814
219	0xbd4a94b3	-0.049458217
220	0x3e0d80f3	0.13818721
221	0xbd4cc88b	-0.04999594
222	0xbc494026	-0.012283361
223	0x3d528d33	0.05140419
224	0x3e0a13bb	0.13484089
225	0xbd4d8c2b	-0.050182503
226	0xbd529a17	-0.051416483
227	0xbd4d02f4	-0.050051644
228	0xbd4cc7dc	-0.04999529
229	0xbd73b34c	-0.059497163
230	0xbd4d04e3	-0.05005349
231	0xbd4d04ff	-0.050053593
232	0xbd2d5e23	-0.042326104
233	0x3e035e00	0.12828827
234	0xbd2fd5e1	-0.04292858
235	0xbd6b0499	-0.05737743
236	0x3d6b2f9a	0.057418443
237	0xbd4d03e5	-0.050052542
238	0xbd5634f6	-0.0522966
239	0x3e1143c2	0.14186004
240	0x3e0ab21f	0.1354451
241	0xbd43ec65	-0.047832865
242	0xbd29eb56	-0.0414842
243	0x3df61424	0.1201556
244	0x3dfe1358	0.12406033
245	0xbd4d0227	-0.05005088
246	0xbd4d030c	-0.050051734
247	0xbd4d018b	-0.0500503
248	0x3dbc14fe	0.091836914
249	0x3e0233fa	0.1271514
250	0x3de046b1	0.10950983
251	0x3de9ac87	0.1140986
252	0xbd1f160a	-0.038839377
253	0xbd4d0278	-0.050051183
254	0x3db763e2	0.08954598
255	0xbcca864f	-0.024722246

2.weight f4 [5, 256]
0	0xbe08d73a	-0.13363352
1	0xbe5d0c91	-0.21586825
2	0xbcd48322	-0.025941435
3	0x3e000199	0.1250061
4	0xbe5aa043	-0.21350197
5	0xbe51f4e1	-0.2050357
6	0x3d4abe72	0.04949803
7	0xbdad0928	-0.08449012
8	0x3cb4eaba	0.022084583
9	0xbdaf70f3	-0.08566465
10	0xbe2779d9	-0.16355075
11	0xbd1fb4bb	-0.038990717
12	0xbd9bdae1	-0.07610107
13	0xbe773d0b	-0.2414438
14	0xbe802782	-0.25030142
15	0xbd20c8c4	-0.039253965
16	0x3dd22d0d	0.10262499
17	0xbd3cf201	-0.04612923
18	0xbdbe9fe7	-0.09307843
19	0x3c1148cf	0.008867457
20	0xbc399f6c	-0.011329513
21	0xbda3ca14	-0.07997528
22	0xbd46b355	-0.048510868
23	0xbe0649b7	-0.13114057
24	0xbdb35e53	-0.08758225
25	0xbca2eb4d	-0.01988759
26	0xbe32c63a	-0.1745843
27	0x3e0d11bd	0.13776298
28	0x3dcc3151	0.09970344
29	0xbe0d7ffa	-0.1381835
30	0xbe543717	-0.2072414
31	0xbdfb780b	-0.12278756
32	0x3de3c9dc	0.11122486
33	0x3e17e51b	0.1483349
34	0xbd3c880e	-0.04602819
35	0xbe93992d	-0.288278
36	0xbc7e6fd7	-0.015529594
37	0xbe1a0aad	-0.15043135
38	0x3cf85e8c	0.030318521
39	0x3cf68037	0.030090434
40	0xbe1c2a01	-0.15250398
41	0xbdc83ac3	-0.09776833
42	0xbe04469d	-0.12917562
43	0xbd9c68d9	-0.076371856
44	0xbeaf0ae6	-0.34188002
45	0xbe568b11	-0.20951487
46	0xbe698d15	-0.22807725
47	0x3d1fbc1b	0.03899775
48	0xbe70c9e3	-0.23514514
49	0x3e0d91db	0.1382517
50	0x3dea1b42	0.1143098
51	0x3c9841be	0.018586036
52	0xbe0c4811	-0.13699366
53	0xbe7795c0	-0.24178219
54	0xbeb5487e	-0.3540687
55	0xbe400b94	-0.18754417
56	0xbe4ec537	-0.20192419
57	0xbe9568ba	-0.29181463
58	0x3df1d154	0.11807504
59	0x3d103998	0.035211176
60	0xbe6f2efd	-0.23357768
61	0x3ce75e7c	0.028243296
62	0xbe5c42fa	-0.21509925
63	0xbd7c97c0	-0.061668158
64	0x3e1ad59c	0.15120548
65	0x3d99affe	0.07504271
66	0xbe7d4077	-0.24731623
67	0xbe80c126	-0.2514736
68	0x3dc9d0e8	0.09854299
69	0xbd39b6f6	-0.0453405
70	0xbe0bf8c1	-0.13669111
71	0xbea58136	-0.32325143
72	0x3d5c2992	0.053750582
73	0x3dda4d87	0.106593184
74	0x3d3d5d66	0.04623165
75	0xbe7f4a22	-0.24930623
76	0x3d571bdc	0.052516803
77	0x3df192e4	0.11795595
78	0xbeb5fbda	-0.3554371
79	0xbe449229	-0.1919638
80	0xbe82300d	-0.25427285
81	0xbe811321	-0.25209907
82	0x3de10954	0.10988107
83	0xbe1239b6	-0.14279827
84	0xbe02b12b	-0.12762897
85	0x3ddc684b	0.1076208
86	0xbcadc23a	-0.021210779
87	0x3dca110c	0.09866533
88	0x3d4167a8	0.047217995
89	0xbd649678	-0.05580756
90	0xbe5d5028	-0.21612608
91	0xbdd93044	-0.10604909
92	0x3d5e9054	0.05433686
93	0xbc6c0f6e	-0.014407976
94	0xbda9851c	-0.08277342
95	0xbdf4b086	-0.11947732
96	0xbdb8a63d	-0.090160824
97	0xbe29d80c	-0.16586322
98	0x3e0241b7	0.1272038
99	0xbe0cff0b	-0.13769166
100	0xbe96b234	-0.29432833
101	0xbd7532d9	-0.059862945
102	0x3c53597a	0.012899751
103	0xbe401392	-0.18757465
104	0x3dbbcc6b	0.09169849
105	0xbb8cca69	-0.00429659
106	0x3e0396d4	0.12850505
107	0xbe3ba30e	-0.18323919
108	0xbe7234a3	-0.23652892
109	0xbdc782cb	-0.09741744
110	0xbe220a35	-0.15824206
111	0x3d85f6e6	0.06541233
112	0x3b1843cd	0.0023233772
113	0x3e178889	0.14798178
114	0xbe2e1b04	-0.17002493
115	0xbd8702da	-0.06592341
116	0xbe81966b	-0.25310072
117	0xbe529bd0	-0.2056725
118	0xbe99c029	-0.3002942
119	0xbe6261b1	-0.22107579
120	0xbe3cf993	-0.1845458
121	0xbdfe99c0	-0.12431669
122	0x3d8b5c69	0.06804735
123	0xbe86f76e	-0.2636065
124	0x3c036f15	0.0080220895
125	0x3bb75d9e	0.005595877
126	0xbe874e66	-0.26427
127	0xbe926585	-0.28593078
128	0xbe4d5a9c	-0.20054096
129	0xbcdce7da	-0.026966024
130	0xbeb3a36d	-0.3508562
131	0xbea85191	-0.3287473
132	0xbdc7ebbe	-0.09761761
133	0x3d02a2d3	0.031893563
134	0x3e653461	0.22383262
135	0xbe7e9573	-0.24861698
136	0xbdaecb22	-0.08534838
137	0xbeb7e9e0	-0.3592062
138	0xbd616ab9	-0.05503342
139	0x3d29be49	0.041441236
140	0x3da1f153	0.07907357
141	0xbe816715	-0.25273958
142	0xbe57e384	-0.21082884
143	0xbe3cf1dd	-0.18451639
144	0xbe613be9	-0.2199551
145	0x3e243bcc	0.16038436
146	0x3e6ad533	0.22932892
147	0xbda30d52	-0.07961525
148	0x3dd4005b	0.1035163
149	0xbd4aeebb	-0.049544077
150	0xbe4cc268	-0.19996035
151	0x3e403e5a	0.18773785
152	0x3c62d883	0.013845566
153	0xbdd266a9	-0.10273487
154	0xbcd6ed05	-0.026236067
155	0xbda5e496	-0.0810024
156	0xbd9c72d9	-0.07639093
157	0xbe0103fd	-0.12599178
158	0x3d8af740	0.067854404
159	0x3db5d30a	0.08878143
160	0xbe9856ac	-0.29753625
161	0x3b0c8989	0.0021444282
162	0x3e066781	0.13125421
163	0xbea1dc49	-0.31613377
164	0x3dac41b2	0.08410968
165	0xbd5620f5	-0.052277524
166	0xbde7aaf3	-0.11311903
167	0xbeaf115b	-0.3419293
168	0x3cc9ac88	0.024618402
169	0x3d421e21	0.047392014
170	0x3e4cb1d6	0.19989714
171	0xbd82d023	-0.06387355
172	0x3c5b7bb2	0.0133961905
173	0x3c0d258a	0.008614907
174	0xbc92ffe3	-0.017944282
175	0xbe8a3077	-0.269901
176	0xbe1da273	-0.15394
177	0x3d06517f	0.032792564
178	0xbe2ecc13	-0.17070036
179	0x3d324fc8	0.043533117
180	0x3d3025e7	0.043004896
181	0xbe333752	-0.17501572
182	0xbd8b0fe0	-0.06790137
183	0xbde19100	-0.11013985
184	0xbd8593f3	-0.0652236
185	0xbdc6836b	-0.09693035
186	0x3cf73479	0.030176388
187	0x3bcfe1cb	0.0063440553
188	0x3cc0f784	0.023555525
189	0xbbc3a02b	-0.0059700212
190	0x3d501800	0.05080414
191	0xbe419e62	-0.18908074
192	0x3cd44994	0.025913991
193	0xbe867a1d	-0.2626504
194	0xbe7dfefe	-0.24804303
195	0x3dc5cb49	0.09657914
196	0x3bb345b8	0.0054709576
197	0x3e1b2218	0.15149724
198	0x3d6e093d	0.05811428
199	0x3cd2fd52	0.025755558
200	0xbe21001c	-0.15722698
201	0x3e2d0067	0.16894685
202	0x3e37084d	0.1787426
203	0x3d260055	0.04052766
204	0xbbdc2ee4	-0.006719457
205	0xbd4dfea3	-0.05029167
206	0xbd94dfcc	-0.07269248
207	0xbda2fba6	-0.079581544
208	0x3df3c760	0.11903262
209	0xbd8a3839	-0.06749005
210	0xbd3fa9e9	-0.0467929
211	0x3dccb776	0.0999593
212	0x3d7681d8	0.060182422
213	0xbe375714	-0.17904311
214	0xbc35f081	-0.011104704
215	0xbd9aec03	-0.07564547
216	0xbe8c7ece	-0.27440494
217	0xbd2dd762	-0.042441733
218	0x3da60dd6	0.08108108
219	0x3dc3182a	0.09526093
220	0xbe9ad4f3	-0.30240592
221	0xbdc4de67	-0.096127324
222	0xbdbc1dc0	-0.09185362
223	0xbe6b801a	-0.22998086
224	0xbe9407af	-0.28912112
225	0xbdee11c4	-0.11624482
226	0xbe0d9785	-0.13827331
227	0xbe12bd8e	-0.14330122
228	0x3da0992e	0.07841717
229	0xbe23beeb	-0.15990798
230	0x3dd38c26	0.103294656
231	0xbe4d4413	-0.200455
232	0x3cd1f37c	0.025628798
233	0xbe9181f7	-0.28419468
234	0x3e899b9b	0.2687653
235	0xbe83d02d	-0.25744763
236	0xbd7ab9aa	-0.06121222
237	0x3df227af	0.11823975
238	0x3c91d935	0.017803768
239	0xbe8f5766	-0.27996367
240	0xbe20fb70	-0.15720916
241	0xbd939f3e	-0.072081074
242	0xbe8df3fc	-0.27725208
243	0xbe96009f	-0.2929735
244	0x3d210270	0.039308965
245	0xbe57f57b	-0.21089737
246	0xbc47b586	-0.012189275
247	0xbe7bb328	-0.24580061
248	0xbe5d7022	-0.21624807
249	0x3d0d436c	0.034488127
250	0xbdff2876	-0.12458889
251	0x3d79f853	0.061027836
252	0xbd6c556c	-0.057698652
253	0x3daf9450	0.0857321
254	0xbe95e653	-0.29277286
255	0xbdd21924	-0.102587014

2.bias f4 [5]
0	0xbde1ecaf	-0.11031472
1	0x3e03a7e7	0.12857018
2	0xbd66150b	-0.056172412
3	0xbdb37b36	-0.08763735
4	0xbcdbf913	-0.026852166
