results/simple_nav_v1/8/model.pt (torch, 532352 bytes, 4 tensors)

0.weight f4 [256, 512]
000000 4c ab 89 3d c6 16 9c bc 42 90 e1 bc 4d ce 9e bc
       0.067221254 -0.019053828 -0.027534608 -0.019385481
000010 2f 0f 0d 3d cb e7 7b bc 80 0b 2a 3e e7 0a 4d 3b
       0.03443831 -0.015375088 0.1660595 0.0031287016
000020 6a 85 64 3d b2 2f bf 3d 7d de f4 bd 66 64 cd 3d
       0.055791296 0.09335269 -0.11956499 0.10028915
000030 e8 6d c4 3a 20 05 67 3d 62 f4 fd 3c 5a 1f ac bd
       0.0014986368 0.056401372 0.03100032 -0.08404417
000040 1c 22 88 3d 9f a6 15 3e 04 a9 8f 3a c8 d2 0b bd
       0.06647131 0.14614342 0.0010960405 -0.034136564
000050 8a 60 5d 3d 9f 59 cc bc a3 6e c0 3c f0 5d c3 bc
       0.054047145 -0.024945078 0.023490256 -0.023848504
000060 6d ae fd bc 40 23 21 3e 51 1d 0d 3d 4e e3 b0 3d
       -0.030966962 0.15736103 0.034451786 0.08637105
000070 f3 19 7b 3d 8f 10 41 3d 65 52 a3 bd f9 90 c7 3d
       0.061304044 0.047134932 -0.079747 0.09744448
000080 72 8b 52 3d 63 ba 4a 3d a9 24 95 bd ec 5b c3 bc
       0.051402517 0.04949416 -0.07282383 -0.023847543
000090 e2 82 70 3c d3 6a 3e 3e a7 48 70 3d 47 df 29 bd
       0.014679642 0.18595438 0.058663037 -0.0414727
0000a0 32 48 5b bc 6c b4 51 3c c5 aa 4d bd e6 73 16 3e
       -0.013383912 0.012799364 -0.050211687 0.14692649
0000b0 a7 cf 6f bd 20 a1 d5 3d 88 2b 00 3d da b6 7f 3d
       -0.058547642 0.10431123 0.031291515 0.06243024
0000c0 2c 06 eb 3c 3e dc c1 3d 48 97 2b 3d 45 e1 cf 3d
       0.028689466 0.09465836 0.04189232 0.10150389
0000d0 65 cd ca 3d 7a 21 d3 3c 74 13 58 3d 44 ed 76 3d
       0.09902457 0.025772799 0.052752927 0.060284868
0000e0 14 68 12 bd 73 19 1b 3e ed ae 56 bd 40 e6 7f 3d
       -0.035743788 0.15146427 -0.052412916 0.062475443
0000f0 b7 ce 0c 3e 6a 74 5c 3e 93 e9 2b 3d e3 f8 a1 bb
       0.1375073 0.21528783 0.0419708 -0.0049429997
000100 88 c0 42 bd d8 87 99 bd df 2c 3c 3d 93 2f 25 bd
       -0.047546893 -0.07496613 0.04594123 -0.040328573
000110 b9 92 07 3e 74 3c 16 3e d6 8d e1 3d a1 65 02 bd
       0.13239564 0.14671499 0.11013381 -0.031835202
000120 ce 1f 27 3e d8 30 b4 3d e9 c2 c4 3b a2 52 f9 ba
       0.16320726 0.08798379 0.0060046804 -0.0019021819
000130 c9 45 24 bc 62 e2 d9 3d c9 a4 cc 3d cb e9 22 3e
       -0.010026404 0.10638882 0.09992368 0.15909497
000140 19 2b 9d 3c 9b 61 b3 3d 1a 93 70 3c 32 ad 45 3d
       0.01918559 0.08758851 0.014683509 0.048260875
000150 a6 13 3b 3e c3 7c 3b 3d 58 22 47 be 7e d9 78 3d
       0.18269214 0.04577328 -0.19446695 0.06075429
000160 1a d1 fe 3d 44 a5 2c 3e 98 e5 da 3d da b8 0f 3e
       0.12442227 0.16859919 0.10688323 0.14035359
000170 4f f6 f5 bc da 2f 03 3e 02 76 12 bd a9 85 31 bd
       -0.030024676 0.12811223 -0.035757072 -0.04334036
000180 d7 8d 98 3d 8c 25 08 3e d0 b2 c4 3c a1 28 37 bc
       0.07448929 0.13295573 0.024011046 -0.01117912
000190 fa 91 bf bd f5 1e 17 3e 5a 2b 0d 3d 74 81 f2 3c
       -0.09354015 0.14757903 0.03446517 0.029602744
0001a0 b2 6b 83 bd d7 42 33 bd f9 d0 9c 3d 24 21 3d 3e
       -0.064170256 -0.043764915 0.07657046 0.18469673
0001b0 13 ea a5 bd 68 f7 23 3c 85 e4 a4 bd 34 dc e1 3d
       -0.08101287 0.010007717 -0.08051399 0.110283285
0001c0 85 80 0a bb 2b ea 03 3e 12 f8 fe 3d 16 70 21 3d
       -0.0021133733 0.12882297 0.124496594 0.039413534
0001d0 72 0b 0c 3e c1 b1 85 bd f6 7e 13 3d d3 08 3d 3e
       0.13676241 -0.065280445 0.03600975 0.18460397
0001e0 ee 06 e2 3d 00 e6 30 3d 85 bf fa 3c b2 f0 e0 3d
       0.11036478 0.043188095 0.030608902 0.10983409
0001f0 c6 00 81 bc 59 e7 c2 3d 93 1e fb 3d ad b6 f0 bc
       -0.01574744 0.09516782 0.12261691 -0.029383982
000200 35 8e e4 3d db a5 3b 3e f9 34 e4 3d d0 a5 15 3e
       0.11159936 0.18324988 0.11142916 0.14614034
000210 ec 5a 39 3e 16 35 72 bd d1 5a 77 3d 10 9f a3 bc
       0.1810109 -0.059132658 0.060389344 -0.019973308
000220 0a 5d bf 3c c4 e5 bc 3d f9 ea bd 3d 9e 8c 96 bc
       0.023359794 0.09223512 0.09273333 -0.018377598
000230 80 66 6d bb 65 cf 2d 3e 79 b1 15 bd ea 8b 04 3e
       -0.0036224425 0.16973646 -0.036546204 0.12943998
000240 52 78 97 3d cc 83 eb 3d 8e d1 50 3c 3c c4 d7 3d
       0.07395996 0.11499748 0.012745274 0.105354756
000250 79 15 48 3e 22 4c 12 3e bf 1c 15 bd 40 60 c1 bc
       0.19539441 0.14286855 -0.036404368 -0.023605466
000260 38 73 09 3e 6d 79 5e 3d 08 6e 89 3d a8 52 21 bd
       0.13422859 0.05431502 0.0671044 -0.039385468
000270 ce 7f 57 bb d8 6c b0 3d 07 c4 66 bd 0a f5 1d 3c
       -0.0032882574 0.0861451 -0.05633929 0.009640941
000280 34 fc 95 bc 7f d7 ce bc 25 a9 5c bc 5a 2d 40 bd
       -0.018308736 -0.02524924 -0.013468062 -0.04691825
000290 73 fe 33 3e c3 fc dc bc ed 96 f0 3d 75 41 32 3d
       0.17577533 -0.026975995 0.11747537 0.043519456
0002a0 92 76 97 3c ee 9d ce 3d 50 c8 3d 3d ad 5d b8 3d
       0.018489156 0.100887164 0.04633361 0.09002242
0002b0 bd 60 5c 3d 54 9d 19 bc ea a2 21 3e 76 e2 0b 3e
       0.053803194 -0.009375889 0.15784803 0.13660607
0002c0 1a 80 76 3d a2 c1 1d 3d 97 6c 38 3e 5f 17 5c bd
       0.06018076 0.03851474 0.18010174 -0.053733226
0002d0 4d 9e 94 3d 40 23 3b 38 94 f3 2b 3e dd cf 2b 3e
       0.07256756 4.4617103e-05 0.16792136 0.16778512
0002e0 95 de c0 3d 4b d1 0e be c7 18 ce bc a5 0b 12 3e
       0.09417454 -0.13947026 -0.0251583 0.14262255
0002f0 1a f5 16 bb 43 68 11 3e 64 5f de 3d 8f e5 21 3e
       -0.0023034276 0.14199929 0.10858038 0.15810226
000300 ee 54 db 3d 06 5c a5 3d 1e 2a 80 3c a6 67 7a bd
       0.107095584 0.08074193 0.015645083 -0.061134003
000310 c6 78 49 3e 96 d8 1c 3e 89 ac 94 3d 1d 63 4e 3d
       0.19674978 0.15316996 0.07259471 0.05038749
000320 d2 7c 52 bd 4e 2d 0a 3e 90 94 45 bc 87 1d 40 3e
       -0.05138857 0.13493845 -0.012059346 0.18761264
000330 2c 49 2f 3d 27 75 a8 bc e9 09 8d bd 97 d0 9e bc
       0.04279439 -0.020563675 -0.06886656 -0.019386573
000340 4d 56 86 bc 43 ac 57 3d 25 f3 1a 3e 9f 69 9e ba
       -0.016398573 0.052654516 0.15131815 -0.0012085921
000350 f4 92 33 3e 00 4d aa 3d 74 41 12 bc 85 ef 5c 3d
       0.17536527 0.08315468 -0.008926738 0.05393936
000360 93 5a dd 3d 0f 59 cb 3d 65 f0 56 bc 9c 89 55 bd
       0.10808291 0.09929096 -0.013118838 -0.052133188
000370 68 2f bf bc 39 16 3b 3e b3 41 3c 3e 64 db 8d 3a
       -0.023338035 0.18270196 0.18384437 0.001082283
000380 70 0a d3 3d a5 e8 d5 3d 38 3c 81 3b ec 68 12 3d
       0.10304725 0.10444764 0.003943946 0.035744593
000390 0a 07 5f 3c 12 8f b7 3d 4b de 47 3e 92 ac 18 bd
       0.013612518 0.08962835 0.19518392 -0.03727395
0003a0 51 46 c4 3d 49 e3 55 bc 44 d3 47 3d 02 ce 23 3e
       0.09583724 -0.013054677 0.048785463 0.15996554
0003b0 c2 48 78 3d 2b ed 09 3e 90 a7 ae 3d 98 67 ec 3d
       0.060616262 0.13469379 0.08528054 0.115431964
0003c0 52 33 3c 3e 66 30 61 bd 57 45 8e bd fc 82 ae 3c
       0.18378952 -0.054977797 -0.06946819 0.021302693
0003d0 21 63 2b 3e 65 c3 e3 3c de 97 95 bb f4 38 d2 3d
       0.16737033 0.027803132 -0.004565223 0.10264769
0003e0 eb 9b eb 3d a2 29 1e be 15 61 c2 3b 90 61 12 3d
       0.11504348 -0.15445569 0.0059319832 0.035737574
0003f0 34 dd 3a ba cd 07 ac 3d 24 66 cf 3d f4 4b 15 3e
       -0.0007128299 0.083999254 0.10126904 0.14579755

0.bias f4 [256]
000000 8f ef 61 3d bd 38 5a 3d 72 2f 67 3c 71 a3 3c bd
       0.0551601 0.053276766 0.014110433 -0.046054307
000010 27 02 1c 3d bb fb 09 3e 02 3c 19 3d 12 f7 f9 3d
       0.03808799 0.13474934 0.037410744 0.12205328
000020 04 9f 3c bd b3 e8 0c 3d aa 7e aa bc 49 63 c3 3d
       -0.046050087 0.034401607 -0.020812351 0.095404215
000030 07 11 56 3d 0c c7 95 3d 49 3d 48 3e 44 f7 a6 3d
       0.052262332 0.07313356 0.19554628 0.08152631
000040 0f 74 3d 3d 87 73 2d bd 03 6a 57 bd 12 2d c1 3d
       0.04625326 -0.042346504 -0.052591335 0.094324246
000050 90 d4 27 bd 70 42 47 bd 74 7c 3f bd 1c 92 a1 3d
       -0.0409742 -0.048647344 -0.046749547 0.07889196
000060 56 68 9a bb 29 65 3c bd 40 a2 3c bd 22 96 3c bd
       -0.004712145 -0.04599491 -0.04605317 -0.046041615
000070 14 f2 82 3d 31 a1 3c bd f5 a8 3e bd ef a2 3c bd
       0.06393829 -0.04605216 -0.04654785 -0.046053823
000080 b1 a3 3c bd 66 04 1c 3d a0 58 b4 bc 06 a1 3c bd
       -0.046054546 0.038090132 -0.022014916 -0.046052
000090 55 d6 68 3d 96 1e a9 3d cf d9 ac 3d 8d e3 94 3d
       0.056845028 0.08257787 0.08439981 0.07269964
0000a0 6f ab d7 3d 0c d3 98 3d 23 70 3a 3d 5c a4 3c bd
       0.10530745 0.07462129 0.0455171 -0.046055183
0000b0 41 fd 87 bd 88 85 47 bd 6f 47 3c bd aa 03 91 3d
       -0.06640101 -0.04871133 -0.045966562 0.07080777
0000c0 0b 7d 37 3d 09 b3 58 3d 04 67 38 bd 2d ee 04 3d
       0.044796985 0.052905116 -0.04502012 0.032453705
0000d0 bf 9f 3c bd bd 3e 3d bd ad 44 3d 3d 60 a3 3c bd
       -0.046050783 -0.04620241 0.046208072 -0.046054244
0000e0 fe ce 40 bd 23 7e 6d 3d 13 9f 3c bd 88 da e4 3d
       -0.047072403 0.05798162 -0.046050142 0.11174494
0000f0 54 a2 3c bd b9 9b 3c bd 58 9b 3c bd ac 86 90 3d
       -0.046053246 -0.046046946 -0.046046585 0.070569366
000100 67 a3 3c bd b9 76 0d bc fd e1 c6 3d 96 ee 8e 3d
       -0.04605427 -0.008634263 0.097110726 0.069791004
000110 b3 7c 61 3d a5 a2 3c bd 9a b0 4f 3d bc e0 c5 bc
       0.055050563 -0.046053547 0.05070553 -0.024155013
000120 ad 2e 55 3d 34 f6 0a 3d a2 98 83 bd 1d 1f 08 3e
       0.052046467 0.033926204 -0.06425597 0.13293119
000130 18 cd 33 bd 3c 87 e1 bc c0 e4 b8 3d 84 a3 3c bd
       -0.043896765 -0.027530305 0.090280056 -0.04605438
000140 46 78 24 bd 41 2c 81 bd 9b a3 3c bd 51 d8 99 3d
       -0.040153764 -0.06307269 -0.046054464 0.07511962
000150 09 49 31 3d b2 9c 3c bd ac 9d 3c bd d4 a0 3c bd
       0.043282542 -0.046047874 -0.046048805 -0.046051815
000160 e8 03 2c 3d 92 b4 0d 3d 9d 6d b3 3d 31 0b 7f 3d
       0.041995913 0.034596033 0.087611414 0.062266532
000170 15 ac 8d 3d 6b 9b 3c bd 2e ec 41 bd fb 14 d5 3d
       0.06917588 -0.046046656 -0.04734438 0.10404392
000180 34 ee 1b bd bb dd 84 3d 70 9c b7 3d b9 1f 01 3e
       -0.038068965 0.06487604 0.08965385 0.12609757
000190 91 a1 3c bd 08 6e 4d 3c 8a 27 50 bd b5 cf 76 3d
       -0.04605252 0.0125384405 -0.050818957 0.06025668
0001a0 13 7d 8a 3d 67 4a bc 3d 70 5e 54 bd 5e a4 3c bd
       0.06762137 0.091938786 -0.051847875 -0.04605519
0001b0 86 33 82 3d 39 d7 86 3c ce 90 89 3d f5 bf 31 3d
       0.063574836 0.016460048 0.067170724 0.043395955
0001c0 49 a0 46 bd 52 c1 89 bd 23 d6 72 3d d9 e8 45 bd
       -0.048492704 -0.06726326 0.059286248 -0.048317764
0001d0 6b a4 3c bd 02 a3 3c bd 81 a1 3c bd 80 a3 3c bd
       -0.04605524 -0.046053894 -0.04605246 -0.046054363
0001e0 c0 27 43 bd 78 09 ee bb b5 3f c5 3d 9f 4d 10 3e
       -0.04764533 -0.0072643124 0.09631292 0.1409211
0001f0 97 98 51 3d af a4 3b bd 4b a4 3c bd 07 3b 9f 3d
       0.05117091 -0.04581135 -0.04605512 0.077749304
000200 15 9f 3c bd 00 81 6e 3d 3e 93 ac bc 8c fe 3b bd
       -0.04605015 0.058228493 -0.021066304 -0.04589705
000210 d6 a3 3c bd d6 a3 3c bd ad 9e 3c bd 6e be 3d 3d
       -0.046054684 -0.046054684 -0.046049763 0.046324186
000220 0d 2a e6 3d a4 f3 57 bd 4a 70 81 bd 2e a4 3c bd
       0.11238489 -0.05272259 -0.063202456 -0.04605501
000230 a9 2b 41 bd d0 3d 3d bd 3b 18 60 bd 60 a4 3c bd
       -0.04716078 -0.046201527 -0.054710608 -0.046055198
000240 1a 15 34 bd d7 d5 59 bd 50 0e fa ba bb 9e 3c bd
       -0.043965437 -0.05318245 -0.0019077752 -0.046049815
000250 8e a4 3c bd 1f da 8b bd 25 8d bc 3d 5f cd 8a bd
       -0.04605537 -0.06828713 0.09206609 -0.06777453
000260 b5 af b5 3d 57 a4 3c bd cf 60 bc 3d b1 a4 3c bd
       0.08871404 -0.046055164 0.09198152 -0.0460555
000270 86 5b 1f 3d bb a7 50 3d 01 67 17 bc b9 a9 46 bd
       0.038905643 0.05094121 -0.009240867 -0.048501704
000280 38 f5 f4 3c cf 2e 3e bd 50 47 8c bd 6c 48 78 3d
       0.029902086 -0.04643136 -0.06849539 0.060615942
000290 7e b5 4f bd 67 74 8a bd df 69 64 3d e9 e7 37 3d
       -0.050710194 -0.06760483 0.05576503 0.0448989
0002a0 64 de 50 3d 8d 5a bf 3d 83 ba 5a bd a9 db ae 3d
       0.05099334 0.09343443 -0.053400528 0.085379906
0002b0 22 1c 38 bd dd 3b 85 3d 0f b0 64 bd 28 07 63 bc
       -0.044948705 0.06505559 -0.055831965 -0.013856687
0002c0 83 bc 03 3e 72 9d 3c bd f8 e0 80 bc 70 f2 a5 3d
       0.1286488 -0.04604859 -0.015732273 0.08102882
0002d0 28 a3 3c bd 73 a4 3c bd 49 35 9d 3d dc 59 3e bd
       -0.046054035 -0.04605527 0.07676179 -0.046472415
0002e0 81 b1 19 bd 21 96 8e 3d 27 fd 85 3d d2 9a 3c bd
       -0.037522797 0.069622286 0.065424256 -0.046046086
0002f0 27 d9 c3 bc 20 9a a5 bc 1d 8a 34 bd 05 8e 3c bd
       -0.023907257 -0.020215094 -0.044077028 -0.046033878
000300 b5 3b 47 bd 1f 2f bf 3d 83 a4 3c bd 4f 74 b2 3d
       -0.048640925 0.093351595 -0.046055328 0.0871359
000310 e3 3b 3b bd 2c fb 76 3d 70 5a 49 3d 0a 5e 06 bc
       -0.04571141 0.06029813 0.049158514 -0.008201132
000320 68 48 88 bc a4 72 b6 3d 78 c0 20 3a 88 fa 5e bd
       -0.016636088 0.08908585 0.00061321957 -0.054438144
000330 d0 00 84 3d be a3 3c bd ee 56 b7 3d 35 bd 60 3d
       0.064454675 -0.046054594 0.089521274 0.054867942
000340 f9 4c 88 3d 54 6c 53 bb 37 8c 27 bd 3a 59 39 bd
       0.06655306 -0.0032260614 -0.040905204 -0.04525111
000350 78 a3 3e bd 1c 76 b2 3d f4 99 51 3d e2 fb be 3d
       -0.046542615 0.08713934 0.05117221 0.093253866
000360 d9 08 39 3d 0a a9 40 bd 98 a0 3c bd e8 52 c7 39
       0.045174453 -0.04703621 -0.04605159 0.00038018008
000370 ae a1 3c bd da 43 4a 3d ff a3 3c bd a9 03 11 3d
       -0.046052627 0.049381115 -0.046054836 0.03540388
000380 6d 11 be bb 85 e9 54 3d d7 df 08 3e ef 43 28 bd
       -0.005800417 0.051980514 0.13366638 -0.04108041
000390 cd 86 80 3d 17 a0 3c bd 2d 64 3f bd eb c6 9b 3d
       0.06275711 -0.04605111 -0.046726394 0.076063
0003a0 e7 b8 ed 3d d1 44 5f 3c 29 8d 8c bd f4 37 03 3e
       0.11607533 0.013627247 -0.06862862 0.12814313
0003b0 76 c0 b4 3d 41 88 66 3d 50 9e 41 bd c3 14 84 3d
       0.088257715 0.056282286 -0.04727012 0.064492725
0003c0 3d 86 46 bd f2 0d 35 3d c6 a3 3c bd 48 25 b0 3d
       -0.048467863 0.044202752 -0.046054624 0.08600861
0003d0 42 7e 40 bd b8 74 de 3c 5e 20 3a bd 57 a4 3c bd
       -0.04699541 0.027155265 -0.045441024 -0.046055164
0003e0 d4 a3 3c bd f2 8e 3c bd c7 bc 88 3d 1f 02 ed bc
       -0.046054676 -0.04603476 0.066766314 -0.028931675
0003f0 56 a4 3c bd 7e e1 3e bd 3e 7a 58 3d 2b 51 1b 3d
       -0.04605516 -0.046601765 0.052850954 0.037919205

2.weight f4 [5, 256]
000000 bc 3b 79 3d 72 09 96 bd 17 09 43 be 3d 99 3b be
       0.060847983 -0.0732602 -0.19046436 -0.18320175
000010 6a 3c 93 be 03 8a 5e be 4e 56 96 be fd fe 82 be
       -0.2875703 -0.21732335 -0.2936272 -0.25585166
000020 fe 33 fd bd 8c 1a 78 be 32 4a 76 be f5 94 8e be
       -0.12363432 -0.24228877 -0.24051741 -0.2784802
000030 dd 75 de bd 6d a6 bc bd 6e 42 23 3e b6 3f 0e be
       -0.108623244 -0.09211431 0.1594331 -0.13891491
000040 34 b5 84 be 53 0f 54 3d 8f 8e 0b be 9a e8 49 be
       -0.25919497 0.051772427 -0.136286 -0.19717637
000050 5b 01 54 be c8 ef 4b bd 70 68 52 3c 0b cc 68 be
       -0.20703642 -0.04978922 0.012842283 -0.22734086
000060 87 cc ee 3d e1 62 ae bc 44 80 93 bd 40 f4 3e 3d
       0.11660104 -0.021287384 -0.07202199 0.046619654
000070 0d 62 83 be aa 4d 3b 3e 20 5e c7 3c 73 f5 53 3e
       -0.25660744 0.18291345 0.024336874 0.206991
000080 3b 4b 3f bc 44 15 4b bb ce 07 87 3c 0a b2 13 bd
       -0.011675651 -0.0030988017 0.016483214 -0.036058463
000090 69 52 88 bd 36 7e 9d 3d c1 9f a6 be 74 d3 2f be
       -0.066563435 0.076900885 -0.32543758 -0.17170507
0000a0 da 4c d0 bd 84 e2 57 bd b3 ce 02 bd 1b 8d 09 3d
       -0.10170908 -0.052706257 -0.031935405 0.033581834
0000b0 98 46 d2 bd 59 f5 9a 3d 58 98 10 be c7 7e af bc
       -0.10267371 0.075663276 -0.14120615 -0.021422757
0000c0 81 ae b9 bd e7 c1 ae bd 74 78 25 bd 99 b4 9a bd
       -0.09066487 -0.08533078 -0.040398076 -0.075539775
0000d0 f6 d9 86 3e ef 03 b1 3d d1 a1 45 be 20 89 0b 3e
       0.26338166 0.086433284 -0.1930001 0.13626528
0000e0 2c da 0e be d0 64 79 b8 f9 db b3 3d b7 c3 42 be
       -0.13950413 -5.9460115e-05 0.08782191 -0.19019972
0000f0 30 82 21 3d 96 49 80 bd 93 7b 81 3d 6b 46 42 be
       0.039430797 -0.062640354 0.06322398 -0.18972175
000100 7b ed 80 3e 33 1e 94 3d 6f ac f6 bd 08 d1 83 bd
       0.25181183 0.072323225 -0.12044608 -0.06436354
000110 37 7b 2b bd 1b 97 3d bd 4b 0e 8b be 6e d9 82 3d
       -0.041865554 -0.046286684 -0.27159342 0.06389128
000120 e6 74 20 be 59 0d 18 be 7a cc 02 3e 74 c9 60 be
       -0.15669593 -0.14848842 0.12773314 -0.21951848
000130 c0 48 25 be d6 7d cd bc 16 58 65 be 7e e4 67 3d
       -0.16141033 -0.025084417 -0.22396883 0.05661439
000140 11 f4 11 be 6e 8a a3 3d 4f be 91 bc fa 66 ad 3d
       -0.1425326 0.07985388 -0.017790942 0.08466907
000150 ad ee 23 bd 74 0b 05 3e 6f e7 c5 3d e6 f1 f7 3d
       -0.04002254 0.1299265 0.09663283 0.12106685
000160 73 83 2a be ac 4a 8e be 9f bb 43 bc a3 18 7d be
       -0.16651706 -0.27791345 -0.011946588 -0.2471643
000170 71 da cc 3d c0 d9 13 be 7d 19 45 bc 5d d6 34 bd
       0.10002602 -0.14438534 -0.012030003 -0.044149745
000180 b2 5c 00 3d 6f ea 1e be fb 7d 9d 3d 0e d0 85 be
       0.0313384 -0.15519117 0.076900445 -0.26135296
000190 bb 55 04 bc d5 fe 8c be ea b9 76 3d 9e aa 82 be
       -0.00807708 -0.2753817 0.060235895 -0.25520796
0001a0 4a 27 7d 3d 6e ea 80 be d3 bd 01 bd a4 1f f4 3d
       0.061805047 -0.25178856 -0.03167517 0.119200975
0001b0 3d af 50 bd 29 42 c0 3d 70 f2 9e 3d f2 94 f8 bd
       -0.05094837 0.09387619 0.07761085 -0.12137784
0001c0 28 c7 2b bd 98 0c b9 3b 96 6b 66 be 07 90 f9 3d
       -0.041937977 0.0056472532 -0.22501978 0.12185674
0001d0 05 e4 32 be 05 b9 85 3d c6 aa 0f 3d b0 54 c0 bb
       -0.17469795 0.0652943 0.03507497 -0.0058694705
0001e0 a5 72 2f 3d 50 48 78 bd d5 40 10 3e 1b d2 28 be
       0.042833943 -0.060615838 0.14087231 -0.16486399
0001f0 3e c5 a0 bc a2 e1 12 3e 8b 46 e0 3d 10 38 10 3d
       -0.019625302 0.14343885 0.10950955 0.035209715
000200 a9 59 95 3d 51 30 07 bd 74 d4 54 bc 53 26 e9 bc
       0.07292492 -0.033005062 -0.012990106 -0.028460657
000210 bb 8c 9c 3d 61 4f 11 be 5a e6 7a 3c 4a b9 35 bd
       0.0764403 -0.14190437 0.015313709 -0.04436616
000220 86 a7 f7 bd c8 0b 56 be f9 c3 1e 3e 60 e7 c3 bd
       -0.120924994 -0.20902932 0.15504445 -0.09565616
000230 56 26 96 3d a5 f9 74 bd b5 f0 4f 3e b9 9e 8a 3b
       0.07331531 -0.059808392 0.20306666 0.004230347
000240 8e fe 5a be 74 11 17 3e 1a 39 55 be 92 b8 e4 3d
       -0.21386167 0.14752752 -0.20822564 0.111680165
000250 f2 0d 13 3d 75 7e 7e be 05 62 37 be 10 24 39 bd
       0.03590197 -0.24852927 -0.17908485 -0.045200408
000260 16 f5 10 be fc 98 7f be 16 3e 1c be ee b5 43 bd
       -0.14155993 -0.24960703 -0.15258059 -0.047780924
000270 d8 01 a1 bd 1f 50 10 3d c2 c5 31 be e8 c0 4e be
       -0.0786168 0.03523266 -0.17360595 -0.20190775
000280 36 cc 84 3d 2c 72 30 3d 5e 19 df 3d 64 d7 87 be
       0.06484263 0.043077633 0.1089351 -0.26531518
000290 fa 16 35 be 44 a0 01 3e 7a ce d0 bd 77 6b 4b 3d
       -0.17684546 0.12658793 -0.10195632 0.049663033
0002a0 60 b4 99 3d 43 c5 8d bd 22 7b f0 3d e6 de a6 be
       0.07505107 -0.0692239 0.11742236 -0.32591933
0002b0 47 96 7a be b4 74 06 bd 5d 97 69 3d c4 59 f2 3c
       -0.24471389 -0.03282614 0.057029117 0.02958382
0002c0 04 93 c3 3c 16 f7 8f bd 70 0c 87 3d 98 36 f8 3d
       0.023873813 -0.0702955 0.06594169 0.12119788
0002d0 eb 80 90 bd 2f 63 f3 bd 95 5a 9b bd d8 92 12 be
       -0.07055839 -0.11884152 -0.075856365 -0.14313829
0002e0 73 45 2c be 72 54 30 be db b2 04 3d b8 ff 58 3e
       -0.16823368 -0.17219713 0.032397132 0.21191299
0002f0 54 00 6b 3e 91 af 15 bd 1b d6 70 3d 98 62 32 bb
       0.22949344 -0.036544386 0.058797937 -0.002721941
000300 8f b7 24 bc 42 71 8f be c1 8a bf 3d 66 ca f7 bd
       -0.010053529 -0.28016096 0.09352637 -0.12099151
000310 78 19 bf bc 04 0e 89 3d 69 f5 93 be e0 b4 e9 bc
       -0.023327574 0.066921264 -0.2889817 -0.02852863
000320 f2 91 85 bd 76 05 6d be c4 c0 16 bc 6b 20 66 bb
       -0.065219775 -0.23146614 -0.009201232 -0.0035114537
000330 c0 b0 12 be c0 ae 61 3d 4f 73 f5 bd 68 a1 2a 3c
       -0.14325237 0.055098295 -0.11984884 0.010414459
000340 1a 20 e5 bd 30 ca 07 3e ef cd d6 bd 1d 74 74 bc
       -0.111877635 0.13260722 -0.104884975 -0.014920262
000350 52 3a 88 3c 5c 0d 30 be 75 4a 45 be bf 10 b7 3d
       0.016629372 -0.17192596 -0.19266684 0.08938741
000360 13 31 e0 bc cc c2 04 3d 3c df 80 3e fc 10 b6 bd
       -0.02736715 0.032412335 0.25170314 -0.08889958
000370 37 04 04 bd f5 2c 2d be e9 86 c9 bc 05 d9 7e be
       -0.032230582 -0.16911681 -0.024600463 -0.24887474
000380 b3 35 c0 3d 25 ed be bd 43 cc 56 be 86 6b d3 bc
       0.09385242 -0.093225755 -0.20976357 -0.025808107
000390 50 4d d4 3c 9b 61 bd 3d d4 59 43 bd 70 07 61 bd
       0.025915772 0.092471324 -0.04769309 -0.054938734
0003a0 53 b3 92 be cb 9a 80 bd 09 c0 5b 3d 45 a0 64 be
       -0.2865244 -0.062795244 0.053649936 -0.22326763
0003b0 c0 d0 cc 3d 4c ae 87 be 45 eb e1 3b f1 89 49 3d
       0.100007534 -0.26500165 0.0068945014 0.049203817
0003c0 df d4 7c be 11 38 61 bd 12 9d 83 3e 6f f3 69 be
       -0.24690579 -0.05498511 0.25705773 -0.22846769
0003d0 87 1d 7e be d9 c4 01 3e f3 fb ff 3d 11 4a c4 bd
       -0.24815951 0.12672748 0.124992274 -0.095844395
0003e0 26 0d dd bd 82 76 dc 3d 10 c2 7b be 38 3b a8 bd
       -0.107935235 0.10764791 -0.24585748 -0.0821442
0003f0 19 e6 7a 3c 47 fa 77 be 09 65 f8 3d 1e bb d2 3d
       0.015313649 -0.24216567 0.12128646 0.10289596

2.bias f4 [5]
000000 25 f0 cf bd 41 c9 1a 3b c1 44 b9 3d df 41 8c 3d
       -0.10153226 0.0023618492 0.09046317 0.068485014
000010 36 85 6d bd
       -0.057988368
