results/simple_nav_v1/4/model.pt (torch, 21556 bytes, 6 tensors)

net.0.weight f4 [64, 4]
0	0x3e76c1fd	0.24097438
1	0xbe078ca8	-0.1323725
2	0xbef58d56	-0.47959393
3	0x3ce934e0	0.028467596
4	0xbd1dadf4	-0.038495973
5	0xbb4ed82e	-0.0031561959
6	0x3ecd4e81	0.40098956
7	0x3e94cf79	0.2906454
8	0xbf95d8bd	-1.1706768
9	0x3e67f00b	0.22650163
10	0x3faade68	1.3349123
11	0xbf379281	-0.7170792
12	0x3d6cd354	0.057818726
13	0xbde925c0	-0.11384153
14	0xbdace76c	-0.08442578
15	0x3cc97108	0.02459003
16	0x3e970740	0.2949772
17	0x3dc59a0f	0.09648525
18	0xbe14636d	-0.14491053
19	0xbe94eeab	-0.2908834
20	0xbd0e04d4	-0.034672573
21	0xbe5558df	-0.20834683
22	0xbcfa759a	-0.030573655
23	0x3e9c6386	0.3054468
24	0xbd83fb99	-0.06444473
25	0x3ccd9b78	0.025098547
26	0x3f0122ca	0.5044371
27	0x3d08ca04	0.033395782
28	0x3edcc50d	0.43119088
29	0x3e9110af	0.2833304
30	0xbf23e6b0	-0.64023876
31	0xbe5647c5	-0.20925815
32	0x3ecaca70	0.39607573
33	0xbfa0d0b3	-1.256369
34	0xbf776a04	-0.9664614
35	0x3f805cc5	1.0028311
36	0x3ea06cab	0.31332907
37	0x3df11d60	0.11773181
38	0xbea576b9	-0.3231714
39	0x3c9b2acf	0.018941311
40	0xbe032043	-0.12805276
41	0xbd83618f	-0.06415092
42	0xbd405037	-0.0469515
43	0x3d3938ca	0.045220174
44	0x3db2a8c5	0.087235965
45	0xbc615715	-0.013753672
46	0x3d384ec6	0.044997
47	0x3ed210b5	0.4102837
48	0x3da9f693	0.082989834
49	0xbee377e9	-0.44427422
50	0xbed5561b	-0.41667256
51	0x3ec0914b	0.3761085
52	0x3d922078	0.07135099
53	0xbec5ed3d	-0.3865756
54	0xbd6d2720	-0.05789864
55	0xbc1d8695	-0.009614606
56	0xbf24e018	-0.6440444
57	0xbdd87ee6	-0.10571079
58	0x3f22e2bc	0.6362722
59	0xbf39ee52	-0.7262927
60	0xbf0825c6	-0.5318264
61	0xbd900b69	-0.07033426
62	0x3f346fcd	0.70483094
63	0xbda2e4f7	-0.07953828
64	0x3e08d749	0.13363375
65	0xbfe4d528	-1.787755
66	0xbe736c49	-0.23771776
67	0x3fe32c19	1.7747833
68	0xbf52b910	-0.8231363
69	0xbecadf31	-0.39623407
70	0x3f8361a4	1.0264173
71	0x3ec503e0	0.3847952
72	0xbd96970a	-0.07353027
73	0xbc57f684	-0.0131813325
74	0x3c38a3d8	0.011269532
75	0x3da1ff0a	0.07909973
76	0x3e9d4829	0.30719116
77	0xbd7f362f	-0.062307533
78	0x3d2282ad	0.039675403
79	0x3e2c9521	0.16853763
80	0xbd550856	-0.052009903
81	0x3d78cc0f	0.06074148
82	0xbe47f08c	-0.19525355
83	0xbedf5eb9	-0.43626955
84	0xbd932932	-0.07185592
85	0xbe7df7d9	-0.24801578
86	0xbd886bb4	-0.06661168
87	0x3e06bb57	0.13157402
88	0x3fddbb49	1.732278
89	0xbed8ac01	-0.4231873
90	0xbfe50746	-1.7892845
91	0x3ecc9ea8	0.39964795
92	0xbcd710c9	-0.026253121
93	0xbd4f04d0	-0.0505417
94	0x3e727285	0.23676498
95	0xbe3d5194	-0.18488151
96	0x3c05f4bb	0.008176024
97	0xbe2156cd	-0.15755768
98	0xbc692b35	-0.014231493
99	0x3e55af41	0.20867635
100	0x3dd135ed	0.10215364
101	0xbe862240	-0.26198006
102	0xbe87afb7	-0.26501247
103	0x3d894637	0.067028455
104	0xbfae293d	-1.3606335
105	0x3f61e123	0.88234156
106	0x3f90e9f1	1.1321393
107	0xbf819e44	-1.0126424
108	0x3f49fe55	0.78903705
109	0x3f968aff	1.1761168
110	0xbf7d919d	-0.99050313
111	0xbf96e27d	-1.1787869
112	0x3d9a51c0	0.07535124
113	0x3da559dc	0.0807378
114	0x3eddd388	0.43325448
115	0xbe701c12	-0.23448208
116	0xbfd5c96e	-1.6702096
117	0x3e8a863a	0.27055532
118	0x3f86a37e	1.0518644
119	0xbeb28ec6	-0.34874552
120	0x3a070164	0.00051500485
121	0xbe268ad2	-0.16263893
122	0xbe5e050c	-0.21681613
123	0xbdbbd6c9	-0.091718264
124	0x3e34d670	0.17659926
125	0xbcfd83db	-0.030946663
126	0xbed0a1d7	-0.40748474
127	0x3e4350ee	0.19073841
128	0x3ecbb757	0.39788315
129	0x3e4e26b0	0.20131946
130	0xbf08d6c5	-0.5345271
131	0x3ed49283	0.4151803
132	0xbe4fafd1	-0.20281912
133	0xbf16d08a	-0.58911955
134	0x3dbc8468	0.09204942
135	0x3f1c7806	0.6112064
136	0x3e265834	0.16244584
137	0xbd55b054	-0.052170113
138	0xbeda634e	-0.42653888
139	0x3dcb9918	0.0994131
140	0x3dca6edb	0.09884425
141	0x3ae1ae4c	0.0017218082
142	0xbef294d5	-0.47379175
143	0xbafe4024	-0.0019397778
144	0x3ce04a1f	0.027379094
145	0x3e9043c0	0.2817669
146	0x3c65648e	0.014001025
147	0xbc76e22e	-0.015068574
148	0xbfc9ecde	-1.5775411
149	0x3e21da6c	0.15805978
150	0x3ff19d9d	1.8876225
151	0xbe9a1566	-0.3009445
152	0xbf4223db	-0.7583596
153	0xbeda4d5b	-0.42637143
154	0x3fa577a3	1.2927135
155	0x3eba2cff	0.36362454
156	0x3fddb5f4	1.7321153
157	0xbf857fa6	-1.042958
158	0xbfd9fb61	-1.702984
159	0x3f6612eb	0.89872617
160	0x3fda674b	1.7062773
161	0xbefeb57b	-0.49747834
162	0xbfd717c8	-1.6804132
163	0x3ed1087a	0.4082678
164	0x3c035d5f	0.008017867
165	0x3efce831	0.49395898
166	0xbdf03272	-0.11728372
167	0xbf276b3a	-0.6539799
168	0xbe8a4885	-0.27008453
169	0x3fc9de76	1.5771015
170	0x3ed9b8c1	0.4252377
171	0xbfd7a1a5	-1.6846205
172	0xbcc9e9e0	-0.024647653
173	0xbe3098ff	-0.17245863
174	0xbe5e7f98	-0.2172836
175	0xbbc5d329	-0.006037135
176	0xbfaf87d7	-1.371333
177	0xbf9e682c	-1.2375541
178	0x3fab10b7	1.3364476
179	0x3fb49a8c	1.4109664
180	0x3edb50d3	0.428351
181	0xbf710740	-0.9415169
182	0xbec742f0	-0.38918257
183	0x3f89947a	1.0748436
184	0xbf6aea4d	-0.91763765
185	0xbafbbece	-0.0019206645
186	0x3f7f1b87	0.9965138
187	0xbd8fd2d5	-0.07022635
188	0x3d3169a1	0.043313626
189	0x3df973eb	0.12180313
190	0x3e63e575	0.222555
191	0xbd1f0400	-0.038822174
192	0xbddbca0b	-0.10731896
193	0xbf869dbc	-1.0516887
194	0xbc4ba2f0	-0.012428984
195	0x3f9de21f	1.2334632
196	0xbed08446	-0.40725917
197	0x3e1606a9	0.14650978
198	0x3e2751ea	0.16339841
199	0xbeb17d64	-0.34665978
200	0x3e27fde0	0.1640544
201	0xbf1ac306	-0.6045383
202	0xbe49a5c8	-0.19692147
203	0x3f108ddf	0.5646648
204	0x3ccaf86e	0.024776664
205	0x3f31ce23	0.69455165
206	0xbef72dcd	-0.4827713
207	0xbedc12f0	-0.42983198
208	0x3fdb1b6f	1.7117747
209	0xbec8d283	-0.39223108
210	0xc00177ec	-2.0229445
211	0x3ef84982	0.48493582
212	0x3e62774a	0.22115818
213	0xbe22fe9e	-0.15917441
214	0xbd31ed29	-0.043439064
215	0xbe35b15d	-0.1774344
216	0x3fc978fa	1.5740044
217	0x3fb0a1a2	1.3799326
218	0xbfc668ec	-1.550077
219	0xbf892c2b	-1.0716604
220	0x3d1a9053	0.037735295
221	0xbe5e2223	-0.2169271
222	0xbe86c652	-0.2632318
223	0x3d0188e9	0.03162471
224	0x3dbc5467	0.09195786
225	0x3ecb5742	0.3971501
226	0xbe5c939a	-0.2154068
227	0xbf0202b1	-0.50785357
228	0x3e8f6681	0.28007892
229	0x3c54ab9e	0.01298037
230	0xbdebf843	-0.115219615
231	0xbd0ce14f	-0.03439456
232	0xbdce94dd	-0.10086987
233	0x3dfe3554	0.12412515
234	0x3ea52ea1	0.32262138
235	0xbd77a250	-0.060457528
236	0xbe904ae9	-0.28182152
237	0xbd9d875c	-0.076918334
238	0x3ecaf35d	0.39638796
239	0x3dc20af8	0.094747484
240	0x3e6ad5f1	0.22933175
241	0x3e654f31	0.2239349
242	0xbf10928d	-0.5647362
243	0xbf126a56	-0.57193506
244	0xbdbb5e5b	-0.09148856
245	0xbf281e87	-0.6567158
246	0x3e074d94	0.13213187
247	0x3f41f332	0.7576171
248	0x3c5b5dc8	0.013389058
249	0xbd587c1e	-0.052852742
250	0xbe354c49	-0.17704882
251	0x3bf07b98	0.0073389523
252	0x3b163764	0.00229212
253	0x3dc8aa5d	0.09798119
254	0x3dd6c68e	0.1048709
255	0xbdb01062	-0.08596875

net.0.bias f4 [64]
0	0xbf736d5d	-0.9508875
1	0xbf48b888	-0.7840657
2	0xbfeea0b8	-1.8642797
3	0xbe7baeb4	-0.24578363
4	0xbf2a5ef1	-0.6655112
5	0xbef9679c	-0.4871186
6	0xbf11af39	-0.56907994
7	0xbfa7fdd5	-1.3124338
8	0xbfcfdac8	-1.6238642
9	0xbf33f539	-0.70296055
10	0xbec40859	-0.3828762
11	0xbf11078d	-0.56652147
12	0xbf8df8d9	-1.1091567
13	0xbeee7d3c	-0.4657992
14	0xbfc4305b	-1.5327257
15	0xbf9d87be	-1.230705
16	0xbe9a80a1	-0.3017626
17	0xbfd4c2b7	-1.6621922
18	0xbe6e7e9e	-0.23290488
19	0xbf03671a	-0.51329195
20	0xbf2daedf	-0.6784496
21	0xbf03885c	-0.5137994
22	0x3e68b490	0.22725129
23	0xbee53ccd	-0.4477295
24	0xbf0b041f	-0.54303163
25	0xbf20879f	-0.6270694
26	0xbf91345c	-1.1344104
27	0xbf073f8b	-0.52831334
28	0xbf30f014	-0.6911633
29	0xbf090ac5	-0.5353206
30	0xbef61eaa	-0.4807027
31	0xbf78fdea	-0.9726244
32	0xbf998b33	-1.1995605
33	0x3f71d453	0.94464606
34	0xbf41820d	-0.75589067
35	0xbf25c7f5	-0.64758235
36	0xbe9f5ecb	-0.3112701
37	0xbfc46174	-1.534224
38	0xbfd66fc4	-1.6752858
39	0xbf857952	-1.0427649
40	0xbddfc889	-0.10926921
41	0xbfa16167	-1.260785
42	0x3ee4195c	0.44550598
43	0xbeee9157	-0.4659526
44	0xbf71494c	-0.9425247
45	0xbfec4140	-1.8457413
46	0xbfd9df6c	-1.7021308
47	0xbf17e39e	-0.5933169
48	0xbfcf3057	-1.6186627
49	0xbf5ee741	-0.87071615
50	0xbf9cf945	-1.2263571
51	0xbf5a12ba	-0.85184824
52	0xbf5470f6	-0.82984865
53	0xbf039653	-0.5140125
54	0x3f3a1dba	0.7270161
55	0xbef2ad65	-0.47397915
56	0xbf813822	-1.0095255
57	0xbfabe785	-1.3430029
58	0xbf0d4d72	-0.551963
59	0xbf3ae4e9	-0.7300554
60	0x3eb3a066	0.35083312
61	0xbfa5981c	-1.2937045
62	0xbe64151b	-0.22273676
63	0xbea98e2c	-0.3311628

net.2.weight f4 [64, 64]
0	0xbe93296d	-0.28742543
1	0xbd31cd75	-0.04340883
2	0x3d8cbf63	0.068724416
3	0x3d83c4de	0.06434034
4	0xbe3b4768	-0.18288958
5	0x3d04e814	0.03244789
6	0xbe75d006	-0.24005136
7	0xbe8bdc8c	-0.273167
8	0xbd4e74a3	-0.050404202
9	0x3e44d89d	0.19223256
10	0xbe1d3729	-0.15353073
11	0xbeb7cc23	-0.3589793
12	0xbe6ce3a4	-0.23133713
13	0xbe9e3c27	-0.30905268
14	0xbc799adc	-0.015234675
15	0xbe003e1d	-0.12523694
16	0xbe480462	-0.19532922
17	0xbc55f85f	-0.013059705
18	0xbd8999ef	-0.06718814
19	0x3cc5bf55	0.024139086
20	0xbe3a801d	-0.18212934
21	0xbe567f4f	-0.20947002
22	0xbf015041	-0.5051308
23	0x3d7b690b	0.061379474
24	0xbdfd85ab	-0.12379011
25	0xbeb04082	-0.34424216
26	0xbe2e732c	-0.17036122
27	0xbdf1c90e	-0.11805926
28	0xbe2eb18a	-0.17059913
29	0xbea63154	-0.3245951
30	0xbccbe3f4	-0.02488897
31	0x3bf758e4	0.0075484384
32	0xbe3aec65	-0.1825424
33	0xbda586c1	-0.08082343
34	0xbe972c7b	-0.29526123
35	0x3cbbdae5	0.022931525
36	0x3e4fbd51	0.20287062
37	0xbd8e8005	-0.069580115
38	0x3d8cb6db	0.068708144
39	0xbe8f0c8f	-0.2793927
40	0xbe99b2ac	-0.30019128
41	0x3c87e806	0.01659013
42	0xbe8f3100	-0.27967072
43	0x3e432026	0.19055232
44	0xbec03265	-0.37538448
45	0xbec6a667	-0.3879883
46	0x3e6af917	0.22946583
47	0xbe4597c7	-0.1929618
48	0xbe331238	-0.17487419
49	0xbc512dd0	-0.01276727
50	0x3dfcae15	0.12337891
51	0xbcf8a8bb	-0.030353894
52	0xbd8dbb9c	-0.06920549
53	0xbecc5d47	-0.39914915
54	0xbdda0f88	-0.106474936
55	0xbe91dc49	-0.28488377
56	0x3d733236	0.059374057
57	0xbe9436b4	-0.28947985
58	0x3cc33ca6	0.02383263
59	0xbd0a1718	-0.03371343
60	0xbec4841f	-0.3838205
61	0xbe7a0140	-0.2441454
62	0xbddbbeda	-0.107297614
63	0xbe542c89	-0.20720114
64	0x3df3d762	0.119063154
65	0xbf0e8f0b	-0.55687016
66	0x3dcba392	0.09943308
67	0x3e4293e6	0.19001731
68	0x3ccea1dc	0.025223665
69	0xbe964a22	-0.29353434
70	0xbebb6a21	-0.36604407
71	0x3f2cd72c	0.67515826
72	0xbe9cfd81	-0.30662158
73	0x3c8bf1d0	0.017083079
74	0xbe17e588	-0.14833653
75	0xbee266d6	-0.44219083
76	0x3e4b117e	0.19830891
77	0x3e03c663	0.12868647
78	0xbe86d28a	-0.26332504
79	0x3c8a1221	0.016854348
80	0x3d805213	0.062656544
81	0xbf2e53fa	-0.6809689
82	0x3d2cf1f4	0.042222932
83	0xbe99f80c	-0.30072057
84	0x3c7aefa7	0.015315927
85	0x3e95d284	0.29262173
86	0xb9ed7e9d	-0.00045298497
87	0xbf30b060	-0.69019127
88	0x3e167891	0.1469443
89	0x3ec9d8eb	0.39423308
90	0xbe071df9	-0.13195027
91	0xbe1ae2f8	-0.15125644
92	0xbeee43c6	-0.46536082
93	0xbfc6fec1	-1.5546495
94	0x3a8406e5	0.0010072856
95	0x3cd159a7	0.025555445
96	0xbec20f59	-0.37902334
97	0xbf9830a5	-1.1889845
98	0xbe1e09cf	-0.15433429
99	0xbeabb2fb	-0.3353499
100	0x3e76da7b	0.24106781
101	0x3d931127	0.07181006
102	0xbec4e73f	-0.38457677
103	0x3d101688	0.035177737
104	0xbd16b520	-0.036793828
105	0xbe1effbe	-0.15527245
106	0xbeb0f65b	-0.34562954
107	0x3db8a6b6	0.090161726
108	0xbf81eccb	-1.0150388
109	0xbe914f31	-0.2838073
110	0xbe2730bd	-0.16327186
111	0xbdd4a893	-0.103837155
112	0xbe35df04	-0.17760855
113	0xbedd0d41	-0.43174174
114	0x3ea294da	0.3175419
115	0x3e14ec23	0.14543204
116	0x3e8331eb	0.25624022
117	0xbf0ed49f	-0.55793184
118	0xbec0c0f5	-0.37647215
119	0xbe5ea71a	-0.21743432
120	0xbd7823c9	-0.060581002
121	0xbee40e7f	-0.4454231
122	0x3d3b752d	0.045766044
123	0xbe449b84	-0.1919995
124	0xbe164c4f	-0.14677547
125	0xbf7c4b48	-0.9855237
126	0x3e9d5203	0.30726632
127	0xbdd5b278	-0.10434431
128	0xbe85fe65	-0.2617065
129	0xbf5eb4da	-0.8699471
130	0xbe96ce16	-0.29454106
131	0x3ece6ff2	0.40319782
132	0xbcb369f0	-0.0219011
133	0xbe32a482	-0.17445567
134	0xbea62d4c	-0.32456434
135	0x3ecc0d45	0.39853874
136	0xbe5950e0	-0.21222258
137	0xbe784d26	-0.2424818
138	0x3e952db2	0.29136425
139	0xbf2044fa	-0.6260525
140	0x3dfe90c8	0.124299586
141	0xbe9c9d21	-0.3058863
142	0xbea21b37	-0.31661388
143	0xbdd5bb65	-0.10436133
144	0xbed93a95	-0.42427507
145	0xbe2aefc5	-0.16693027
146	0x3d3984dd	0.045292724
147	0xbe8bc1c7	-0.27296278
148	0xbe8e2c3f	-0.27768132
149	0x3deafde4	0.11474207
150	0xbe417b7f	-0.18894766
151	0xbf2050cf	-0.62623304
152	0x3d6d3a15	0.05791672
153	0x3e6e231b	0.23255579
154	0x3e2b7b63	0.16746287
155	0xbe35724d	-0.17719384
156	0xbc6c4a48	-0.014422007
157	0xbfafef96	-1.3744991
158	0xbe669354	-0.22517139
159	0x3d4f448c	0.05060248
160	0xbcdae448	-0.026720181
161	0xbf82ac9b	-1.0208925
162	0x3dcf5fcc	0.10125694
163	0xbe6e1a77	-0.23252283
164	0x3e3c0cd2	0.18364266
165	0xbdeb13b8	-0.114783704
166	0xbe05507a	-0.1301898
167	0xbeaec3d0	-0.34133768
168	0x3e7a2483	0.2442799
169	0x3e22010c	0.15820712
170	0xbe874cd5	-0.26425806
171	0xbd6efccf	-0.058346566
172	0xbf0fc605	-0.5616153
173	0xbe244fda	-0.16046086
174	0xbe751b78	-0.2393626
175	0xbef53d9f	-0.47898576
176	0x3cf78a89	0.030217426
177	0xbd3be7fb	-0.04587553
178	0x3ec02374	0.3752705
179	0x3e389590	0.18025804
180	0x3ea49348	0.32143617
181	0xbeacd673	-0.33757362
182	0xbe65802b	-0.22412173
183	0xbef83c0c	-0.48483312
184	0x3f014b7a	0.50505793
185	0x3d9b8e08	0.0759545
186	0xbe32fc35	-0.17479022
187	0xbee33356	-0.44375104
188	0xbe50af2a	-0.2037932
189	0xbf892705	-1.0715033
190	0x3d166ab6	0.03672286
191	0xbec5eb16	-0.3865592
192	0xbe4a8e20	-0.19780779
193	0xbed9548f	-0.42447326
194	0xbeb75ac0	-0.35811424
195	0x3e55abeb	0.20866363
196	0xbf252c9c	-0.64521194
197	0x3e8a0979	0.26960352
198	0xbf1bf54f	-0.60921186
199	0x3e110cf4	0.14165097
200	0x3dd18482	0.10230352
201	0xbec6024d	-0.3867363
202	0x3e299ca5	0.16563661
203	0xbd45f307	-0.048327472
204	0x3e178137	0.14795385
205	0xbe654006	-0.22387704
206	0x3f0271be	0.50954807
207	0x3e510f64	0.20416027
208	0xbdd94d90	-0.10610497
209	0xbe90130a	-0.28139526
210	0xbe2d862d	-0.16945715
211	0xbe03f191	-0.12885119
212	0xbf2dded5	-0.6791814
213	0xbcecab59	-0.028890299
214	0xbe9d38f7	-0.30707523
215	0xbf927069	-1.1440555
216	0x3e3165a7	0.17323934
217	0xbe3efa5d	-0.18650194
218	0xbda15e83	-0.07879355
219	0xbf52ec05	-0.8239139
220	0xbefee235	-0.49781957
221	0xbe865063	-0.26233205
222	0xbf474098	-0.7783294
223	0xbf163d43	-0.5868723
224	0xbe9bd21d	-0.3043374
225	0xbf0433da	-0.5164162
226	0xbf0c9408	-0.5491338
227	0xbe35c002	-0.17749026
228	0xbe77e8a0	-0.24209833
229	0xbd9803f6	-0.074226305
230	0xbdf36ffc	-0.11886594
231	0xbe87ee88	-0.26549172
232	0x3cf54073	0.029937958
233	0xbe35069c	-0.17678303
234	0xbf8360ce	-1.0263917
235	0xbcb2fd8a	-0.021849412
236	0xbbbc021b	-0.0057375557
237	0x3f2e2a31	0.6803313
238	0x3e22bfd0	0.15893483
239	0xbe181460	-0.14851522
240	0xbe56d805	-0.20980842
241	0xbf5ca941	-0.8619576
242	0x3e8cb373	0.2748066
243	0xbf14965b	-0.58041924
244	0xbeb111dd	-0.3458394
245	0xbee34734	-0.4439026
246	0xbf06e94a	-0.5269972
247	0xbf1802cf	-0.59379286
248	0xbebfe6f7	-0.374809
249	0xbe5933b7	-0.21211134
250	0xbd9bc68c	-0.07606229
251	0xbddc3095	-0.10751454
252	0xbfaaa1d8	-1.3330641
253	0x3eeb029b	0.45900425
254	0xbe46beee	-0.19408771
255	0x3b6b60ab	0.0035915773

net.2.bias f4 [64]
0	0xbe573953	-0.21017961
1	0xbf0d767d	-0.55258924
2	0xbeaf3a3a	-0.3422411
3	0xbf3344ea	-0.7002703
4	0xbfea82f1	-1.832121
5	0xbfa16e4f	-1.2611789
6	0xbfe76dcb	-1.8080381
7	0xbfe0f0d0	-1.757349
8	0xbec28752	-0.37993866
9	0xbecd8ffb	-0.4014891
10	0xbed9b749	-0.42522648
11	0xbf49e50f	-0.7886514
12	0xbf3d644c	-0.73981166
13	0xbe8ee78d	-0.27911034
14	0xbeef7efa	-0.46776563
15	0xbecdd0c0	-0.40198326
16	0xbff6f658	-1.9293928
17	0xbeeed011	-0.46643117
18	0xbfaee125	-1.3662459
19	0xbee47540	-0.44620705
20	0xbef1716d	-0.4715685
21	0xbe2b5056	-0.16729864
22	0x3cd578cc	0.026058577
23	0x3e96cda6	0.29453772
24	0xbe5db32f	-0.21650384
25	0xbe5f6340	-0.21815205
26	0xbed5f314	-0.41787016
27	0xbf0aa6b0	-0.54160595
28	0xbe823068	-0.25427556
29	0xbd9fb4a4	-0.07798126
30	0xbfa66a5b	-1.3001207
31	0xbed6b167	-0.41932222
32	0xbe6f1636	-0.23348317
33	0xbdbc2016	-0.091858074
34	0xbf1ec669	-0.620215
35	0xbe016f67	-0.12640153
36	0xbe1fdf7b	-0.15612595
37	0xbf2a9023	-0.66626185
38	0xbf6b17fb	-0.91833466
39	0xbe0e969b	-0.13924639
40	0xbf4a732b	-0.7908198
41	0xbd9ce22f	-0.076603286
42	0xbed0cd65	-0.40781704
43	0xc0050cae	-2.078899
44	0xbee11896	-0.4396407
45	0xbf0761ae	-0.5288342
46	0xbf382284	-0.71927667
47	0xbea25f9b	-0.31713566
48	0xbe77bc7c	-0.24192995
49	0xbeaecaa7	-0.34138986
50	0xbf87da87	-1.0613564
51	0xbe7745fe	-0.24147794
52	0xbf17efae	-0.593501
53	0x3f73847f	0.9512405
54	0xbfa87c98	-1.3163023
55	0xbec4fc5d	-0.38473788
56	0xbe265aa4	-0.16245514
57	0xbe8613a3	-0.26186857
58	0xbd869b66	-0.06572609
59	0x3f440981	0.76577
60	0xbedc59f8	-0.4303739
61	0xbe4cbbdd	-0.19993539
62	0xbec74e1d	-0.38926783
63	0xbe83db50	-0.2575326

net.4.weight f4 [5, 64]
0	0xbe9c97fb	-0.30584702
1	0x3db1cfc5	0.08682207
2	0xbe9006f8	-0.28130317
3	0xbe15e4f8	-0.14638126
4	0xbe5d989f	-0.21640252
5	0xbfa2ec22	-1.2728312
6	0x3f0800ed	0.5312641
7	0x3ea6cf54	0.32580054
8	0xbe9ba6ff	-0.30400845
9	0xbe8cbd4a	-0.27488166
10	0xbeccbbe7	-0.39987108
11	0x3ef4aa73	0.47786292
12	0x3e9e0fdd	0.30871478
13	0x3e44f2a6	0.19233188
14	0xbf430e74	-0.7619393
15	0xbeb27114	-0.34851897
16	0xbfb8c83d	-1.4436108
17	0xbc09f63b	-0.008420522
18	0x3f09bcf6	0.53803957
19	0xbf0a1961	-0.53944975
20	0x3e59785b	0.21237318
21	0xbfd6d4e9	-1.6783725
22	0x3d5e7294	0.05430849
23	0x3ec12d42	0.3772984
24	0x3dfb4d58	0.122706115
25	0x3f42a282	0.7602922
26	0x3e1115ae	0.14168426
27	0xbe82f47f	-0.2557716
28	0x3e888097	0.26660606
29	0x3ed0d55d	0.40787783
30	0xbfe59136	-1.793494
31	0xbe6e5087	-0.23272906
32	0xbe16027c	-0.14649385
33	0x3e7c277e	0.2462444
34	0x3c310af2	0.010805832
35	0xbe87ed84	-0.26548398
36	0x3e5d2a69	0.2159821
37	0x3f8315e7	1.0241059
38	0xbdbe2d0d	-0.092859365
39	0xbeae3d9d	-0.34031382
40	0x3efec221	0.49757484
41	0x3e26b58e	0.16280195
42	0xbe658d0e	-0.2241709
43	0x3e0aa639	0.13539971
44	0x3eaa805c	0.33301055
45	0xbe00e09c	-0.12585682
46	0x3ebbdaae	0.36690277
47	0xbe818b86	-0.2530176
48	0x3e47a4f6	0.19496521
49	0x3e8c818b	0.27442583
50	0xbf31581a	-0.6927506
51	0x3e392a6e	0.18082592
52	0x3e2f70c1	0.17132856
53	0x3f71f4df	0.9451427
54	0x3f6993b4	0.91241
55	0xbe0845be	-0.13307855
56	0xbdec3d7a	-0.11535163
57	0xbeb4971d	-0.3527154
58	0xbdbd2c29	-0.092369385
59	0x3f15da98	0.5853667
60	0xbe32a63b	-0.17446224
61	0x3e3b5007	0.18292247
62	0x3e9c024a	0.30470496
63	0x3e896734	0.2683655
64	0x3e8b46d8	0.27202487
65	0x3e5c397b	0.21506302
66	0x3e83f4c9	0.25772694
67	0xbeec4d5a	-0.46152765
68	0x3ebfae05	0.37437454
69	0x3efb0e47	0.4903433
70	0xbec61f29	-0.38695648
71	0x3f2fc4bb	0.6865956
72	0xbcaaf974	-0.020870902
73	0xbef9ef90	-0.48815584
74	0x3ea665e7	0.3249962
75	0xbea20669	-0.31645516
76	0xbf2e4def	-0.6808767
77	0x3ed22c13	0.4104925
78	0xbdbe46a5	-0.09290818
79	0xbe6a734c	-0.22895545
80	0x3eeef75c	0.46673095
81	0x3e045014	0.12921172
82	0x3f43c61f	0.76474184
83	0x3e96c084	0.29443753
84	0xbe71e159	-0.2362112
85	0xbfad86ee	-1.3556802
86	0xbc453916	-0.012037536
87	0x3b3aeef8	0.0028523784
88	0x3edd11ee	0.43177742
89	0xbd8f7238	-0.070042074
90	0xbebac88a	-0.36481124
91	0x3e728364	0.23682934
92	0xbe97a093	-0.29614696
93	0x3e7b0cb6	0.24516568
94	0x3eedaf9a	0.46423036
95	0xbd185e72	-0.037199445
96	0x3e250de4	0.1611858
97	0x3e68f6f6	0.22750458
98	0x3f43718a	0.7634512
99	0x3db7a3e7	0.08966809
100	0xbd601179	-0.054704163
101	0xbf9c30fc	-1.2202449
102	0x3ef22ad3	0.47298297
103	0xbded3a4c	-0.11583385
104	0xbde81426	-0.11331968
105	0xbe9fd92b	-0.31220374
106	0x3e89ac3a	0.2688921
107	0x3f6fca6f	0.93668264
108	0x3dd0a037	0.101868086
109	0x3f60be7d	0.8779066
110	0x3d8f11e5	0.06985835
111	0x3eb6a1ff	0.35670468
112	0x3de6199e	0.11235355
113	0xbe7100a0	-0.23535395
114	0x3f202045	0.6254924
115	0x3e9a3479	0.30118158
116	0xbe7b4c60	-0.24540854
117	0x3f2837c7	0.6571011
118	0x3f8a2eb2	1.07955
119	0xbde7ca08	-0.11317831
120	0xbe0d485a	-0.13797131
121	0x3e563911	0.20920207
122	0xbe1964c9	-0.14979853
123	0xbe04b87d	-0.12961002
124	0x3f02f782	0.51158917
125	0x3e825d3e	0.25461763
126	0x3e82ac7a	0.25522214
127	0xbc0fa181	-0.008766533
128	0x3bdd348c	0.006750649
129	0x3e74f2cf	0.23920749
130	0x3eefef46	0.4686224
131	0xbd234e59	-0.03986964
132	0xbfad1131	-1.3520871
133	0x3f4b63be	0.7944907
134	0x3dd8abec	0.105796665
135	0x3f74292e	0.95375335
136	0x3d0b3275	0.033983666
137	0xbe2cc84e	-0.16873285
138	0xbe717639	-0.23580255
139	0xbd98cff7	-0.07461541
140	0x3eb8fff1	0.36132768
141	0x3e884019	0.26611403
142	0x3ef616cf	0.48064277
143	0xbe5a3e11	-0.21312739
144	0xbe0ee26d	-0.13953562
145	0x3f1a48fe	0.6026763
146	0x3f32f6a6	0.69907606
147	0x3e3b6da8	0.1830355
148	0x3deeb953	0.116564415
149	0x3f5080ce	0.8144654
150	0x3f053d86	0.52047
151	0x3e8fe3dc	0.2810353
152	0x3dacdd75	0.08440677
153	0x3f585809	0.8450933
154	0x3ec6a58a	0.3879817
155	0xbea3721d	-0.31923
156	0xbd9595a3	-0.073039316
157	0x3e9b0033	0.3027359
158	0xbf5d2c28	-0.863955
159	0x3ea76e36	0.32701272
160	0x3e5e9ba5	0.21739061
161	0xbe42a3ba	-0.19007769
162	0xbc2c8ec8	-0.010532089
163	0xbe7cd950	-0.24692273
164	0xbe1fcefd	-0.15606304
165	0xbeb59ed5	-0.35472742
166	0x3f053dfa	0.52047694
167	0xbd63c497	-0.055607405
168	0xbdc8860c	-0.097911924
169	0x3d7db45b	0.06193958
170	0x3e4bdbf1	0.1990812
171	0x3f3de1a9	0.74172455
172	0x3ea074e3	0.31339177
173	0x3f046512	0.5171672
174	0xbf650299	-0.8945709
175	0x3e0f0166	0.13965377
176	0xbe8b13cb	-0.27163538
177	0xbe597d50	-0.21239209
178	0x3e5d99a7	0.21640645
179	0xbe346228	-0.17615569
180	0x3e28c99f	0.16483162
181	0xbf0b9cc3	-0.54536074
182	0x3ea8771f	0.32903382
183	0xbe2900e3	-0.16504245
184	0xbe4336e8	-0.19063914
185	0x3f000ce5	0.50019675
186	0x3e079cf9	0.13243474
187	0x3ef9a7f1	0.48760942
188	0x3ee58219	0.4482582
189	0x3d5bcf28	0.053664356
190	0xbd8d833f	-0.06909799
191	0xbe82beae	-0.25536102
192	0x3d3818b3	0.04494543
193	0xbf8158c0	-1.0105209
194	0xbf2b0529	-0.6680475
195	0x3ed01e31	0.40648034
196	0x4018075a	2.3754487
197	0xbd6eb330	-0.058276355
198	0x3fb675a0	1.4254646
199	0xbf7fd3ea	-0.9993273
200	0xbe50fa11	-0.20407893
201	0xbdbb480e	-0.09144603
202	0x3ecc7113	0.3993002
203	0x3e203a00	0.15647125
204	0x3ed306c6	0.41216105
205	0x3db7f5e3	0.08982446
206	0x3eb47e24	0.35252488
207	0x3e17304a	0.14764515
208	0x3f247a7d	0.642494
209	0x3f7ae1c6	0.9800075
210	0xbf8f17c4	-1.1179128
211	0xbf3f1e19	-0.746553
212	0x3eac5c6f	0.3366427
213	0x3f23db74	0.64006734
214	0xbfee7f6d	-1.8632637
215	0xbff7a485	-1.9347082
216	0x3e84333f	0.25820348
217	0x3e24e4d1	0.16102912
218	0xbe598531	-0.21242215
219	0x3f087592	0.533044
220	0xbf44c392	-0.76860917
221	0x3d8b423b	0.06799742
222	0x3ed33a8d	0.41255608
223	0xbeec2a11	-0.46125844
224	0x3dc8354d	0.09775791
225	0xbe0ce456	-0.13758978
226	0xbfaf0476	-1.3673236
227	0x3de145e5	0.109996594
228	0x3eca8495	0.39554277
229	0x3f5903c5	0.84771377
230	0x3e38bc6a	0.18040624
231	0xbeaa2d7e	-0.33237833
232	0x3ed7e5eb	0.421676
233	0x3e3f19e9	0.18662228
234	0x3ee900df	0.45508477
235	0x3c901549	0.017588275
236	0xbf0d13ed	-0.5510853
237	0xbe9956df	-0.2994909
238	0xbd1f6225	-0.038911957
239	0xbe939a4d	-0.2882866
240	0xbeaf2635	-0.34208837
241	0xbebb25ed	-0.36552373
242	0x3e86c6da	0.26323587
243	0x3e048769	0.1294228
244	0x3f08e216	0.5346998
245	0x3f968ee8	1.1762362
246	0xbf1df53f	-0.6170234
247	0x3e97cc56	0.29648083
248	0xbed83193	-0.42225322
249	0xbec85165	-0.391246
250	0x3e11cd7e	0.14238545
251	0x3f808d9e	1.0043218
252	0xbf1bf412	-0.60919297
253	0xbdeaa1b7	-0.11456626
254	0x3ef36a55	0.47542062
255	0x3f697221	0.9118977

net.4.bias f4 [5]
0	0x3d3a8e1c	0.045545682
1	0x3f806a48	1.0032434
2	0x3c0c09d3	0.008547264
3	0xbecf73f4	-0.40518153
4	0xbd5d4ba1	-0.054027203
