results/simple_nav_v1/2/model.pt (torch, 21556 bytes, 6 tensors)

net.0.weight f4 [64, 4]
000000 7a e5 e3 be 72 12 c1 be 30 e0 a3 3e c2 54 55 3e
       -0.44511014 -0.37709385 0.3200698 0.20833114
000010 57 c9 1f 3f e8 e8 65 3e 02 9f 3d bf 9a 42 2f be
       0.62416595 0.22452128 -0.7407075 -0.1711525
000020 4d ce a5 3e 5d 6b 61 be 8b 7a 3f bf 24 50 fc bd
       0.32383958 -0.22013612 -0.7479636 -0.12319973
000030 4e 86 e1 3d f6 4f 27 be ae a5 3e be 64 61 32 3e
       0.11011945 -0.16339096 -0.1861789 0.17419964
000040 45 74 b4 be d8 9b 87 3f 40 8f 69 3e 8f d3 39 bf
       -0.35244957 1.0594435 0.22808552 -0.7258844
000050 1c f8 a7 3c 46 ae 28 3f db 1e 8b 3d f3 28 1e bf
       0.02050405 0.6589092 0.067929946 -0.61781234
000060 da 71 2a bf 7b 08 cf bd 88 29 70 3f ae 4b 96 3e
       -0.66579974 -0.101090394 0.9381337 0.29354614
000070 f7 77 d0 be 2a 11 87 bf a9 32 80 3e 84 af 5a 3f
       -0.40716526 -1.0552113 0.2503865 0.85424066
000080 14 81 e6 3e 6f cf f1 3e 9e 7c eb be cb 71 9e be
       0.45020354 0.47228572 -0.45993513 -0.30946192
000090 b4 ef 00 3f d1 38 21 3f 2d 6e 14 bf 76 3c ae be
       0.5036576 0.6297732 -0.57980615 -0.34030503
0000a0 ca d5 10 bf 45 f9 11 3f ff 4c 50 3e cf 81 56 bf
       -0.56576216 0.5702098 0.20341872 -0.8379182
0000b0 b9 a8 3d be 18 eb 1e bf 34 3d 1c bd a4 4c 35 3f
       -0.18521394 -0.62077475 -0.038144305 0.7082007
0000c0 1d 41 d2 3e b8 14 08 bf 53 31 dc be 25 88 12 3f
       0.41065302 -0.53156614 -0.4300638 0.5723899
0000d0 c5 98 ca bd 99 e6 f7 bc 5d 49 a3 3e 64 5c 6c 3b
       -0.0989242 -0.030261325 0.3189191 0.0036065811
0000e0 59 8e ca be fc c7 00 bf 2e 2f c5 3d 51 52 04 3f
       -0.39561728 -0.5030515 0.096281394 0.51688105
0000f0 63 d7 7e 3d f2 90 f2 be 32 c9 6e 3f 89 44 34 3f
       0.062217128 -0.4737621 0.9327575 0.70417076
000100 24 ae 57 bf 32 b8 a4 3e 95 31 34 3f 71 09 28 bf
       -0.8425009 0.3217178 0.70388156 -0.65639406
000110 ef c4 d0 be 60 da 12 3e b6 86 5e 3e cb 41 fa 3d
       -0.40775248 0.14341116 0.21731076 0.1221958
000120 d7 eb bc 3d 0b 60 48 bd 86 6d 80 3d 0d c5 14 3d
       0.092246704 -0.04891972 0.0627089 0.036320735
000130 af ee a2 3e 48 92 19 bf 97 04 29 bf ad 87 42 3f
       0.31822726 -0.5998883 -0.6602263 0.75988275
000140 5d e1 a2 3e 3e 86 42 3f b7 bc 1e be 7f d1 40 bf
       0.31812564 0.7598609 -0.15501676 -0.75319666
000150 50 ca 34 3c 69 66 a9 3c 47 56 67 be 2e ad bf 3e
       0.011034563 0.020678716 -0.22591506 0.37436813
000160 79 a4 22 bf 8d 5e 46 3e e9 46 06 3f 4b e0 23 3f
       -0.63532215 0.19372006 0.5245195 0.6401412
000170 35 37 22 bf 29 ef cd be 43 02 1b 3e b1 9d 44 3f
       -0.6336549 -0.40221527 0.15137582 0.7680312
000180 2c 27 f8 be 62 2a c3 3d 45 4d 26 3f 92 75 b0 be
       -0.48467386 0.09529568 0.64961654 -0.344647
000190 cf 9a e8 3e 00 f0 cf 3e 5c 64 37 bd 1d 18 28 bf
       0.4543061 0.40612793 -0.044773445 -0.65661794
0001a0 fe ee 09 be fa 55 e1 3c 2b da cd 3d 4f bd be 3d
       -0.13470075 0.027506817 0.10051378 0.093134515
0001b0 83 74 2f bf 45 cd 32 be 32 e1 42 3f b4 da 90 3e
       -0.6853716 -0.17461117 0.7612487 0.28291857
0001c0 66 26 70 be 31 91 10 3d c9 78 aa 3e 92 20 dc bd
       -0.23452148 0.035294715 0.33295277 -0.107484
0001d0 d2 f2 e2 be bb ba 3c bf a0 4a c8 3e ea d0 22 3f
       -0.44325882 -0.7372243 0.39119434 0.6360003
0001e0 ad ee 00 3e e4 e2 07 3e 0b e9 ec 3e e2 4b f1 bc
       0.12591048 0.13270146 0.46271548 -0.029455129
0001f0 9a fc fa be 77 08 19 3f c0 9f c7 3e 83 f7 3d bf
       -0.49020845 0.5977854 0.38989067 -0.742058
000200 fa f8 51 bf 3d e5 f6 bd 64 04 6b 3f 6e d6 81 3d
       -0.82020533 -0.120554425 0.91803575 0.06339727
000210 8e bf ef 3e ab e6 df bd 53 3a 44 bf 8d d3 86 3e
       0.46825832 -0.10932668 -0.76651496 0.26333275
000220 51 3b 0c bf dd 1f 83 bd 63 60 13 3f ac 32 25 3e
       -0.5477801 -0.06402562 0.5756895 0.16132611
000230 83 3b 07 3e 27 62 18 3f bd 10 2f bf 0e 16 22 be
       0.13206296 0.5952477 -0.68384916 -0.15828726
000240 0a e6 16 bf b1 15 38 bf fb dd 00 3e fd 5c f5 3e
       -0.5894476 -0.719081 0.12584679 0.47922507
000250 ba 6a e9 be 9d 58 f9 3d f9 5c 94 3e d5 b8 95 bc
       -0.45589238 0.12175105 0.28977183 -0.018276611
000260 87 a6 2a bf 74 23 1e be 21 91 3d 3f 97 91 97 3c
       -0.6666035 -0.15443212 0.74049574 0.01850204
000270 02 cb a5 bb 7b 39 ff 3b 43 f5 dc bb bc 31 70 3e
       -0.005059601 0.0077888346 -0.0067431047 0.23456472
000280 4d b0 22 bf ec 47 a8 3c e9 b6 02 3f 25 f5 7f bd
       -0.63550264 0.020542108 0.5106035 -0.062489647
000290 09 62 20 3f 28 91 7e 3e bf 6b 35 bf 9a 16 1d bf
       0.6264959 0.2486006 -0.7086753 -0.6136261
0002a0 79 3c 48 3d 58 b0 3c 3e 7f ca e4 bd 1e d0 3f be
       0.048885796 0.18426645 -0.111714356 -0.18731734
0002b0 52 dc 0f 3e 20 87 c5 3e 68 5a c5 3e ae b5 3e be
       0.1404889 0.38579655 0.38545537 -0.18623993
0002c0 27 32 3f 3f 89 74 de be 42 2f 0d bf e5 50 07 3f
       0.746859 -0.43448284 -0.55150235 0.5285781
0002d0 c6 02 07 3f 26 49 5d 3d cb 0a eb be 0c 94 91 3e
       0.52738607 0.054024838 -0.45906672 0.28433263
0002e0 38 d6 22 bf 36 05 52 be cc 5a 43 3f 3f b9 be 3e
       -0.6360812 -0.205098 0.7631042 0.37250707
0002f0 e3 ed 0e 3f b6 ab 30 bf 36 eb e2 be b6 02 43 3f
       0.55831736 -0.6901201 -0.44320077 0.7617601
000300 34 9f a1 3e 75 70 4b be 1c 74 a3 be 59 48 6c be
       0.31566775 -0.19867118 -0.31924522 -0.23074473
000310 fe 56 ab 3c 62 7a 7b be 2b b0 e5 bd 78 36 d1 be
       0.020915505 -0.24558404 -0.11215242 -0.4086187
000320 a5 b0 54 3d ed e0 de 3e fa 78 c1 bd 5a 3f 31 bf
       0.051926274 0.4353098 -0.094469026 -0.6923729
000330 5e 43 1f 3e f0 aa a4 bc c2 61 ef 3e 44 87 b7 3d
       0.15553042 -0.02010104 0.4675427 0.08961347
000340 c8 e4 19 3f 89 8d 55 bf 00 19 33 be 73 d5 6f 3f
       0.6011472 -0.8341909 -0.17490005 0.9368507
000350 9a 60 88 be 68 15 24 3f 37 9d 54 bd d0 db 7f bf
       -0.266362 0.64095163 -0.051907744 -0.9994478
000360 38 ce 17 be 6d dd 9c bd 63 15 55 3e 89 4a 95 be
       -0.1482476 -0.07659421 0.2080894 -0.29158428
000370 03 18 2d bf 50 5d 6e bd fe e7 3c 3f 00 da 6f 3e
       -0.67614764 -0.05819446 0.7379149 0.23423004
000380 9d 7a 4a 3d 53 e8 70 bd d9 fa d1 bb 2c ed 95 3e
       0.04943334 -0.05881531 -0.006408077 0.2928251
000390 ca 34 b2 bc be c2 65 3e c2 23 12 3d 10 71 b3 3e
       -0.021753687 0.2243757 0.035678633 0.35047197
0003a0 c8 a1 3c bf d2 f0 ca 3e c3 e8 34 3f 36 c5 d3 bd
       -0.7368436 0.39636856 0.70667666 -0.103403494
0003b0 8b 69 2c be 17 30 99 3c fb db be 3e 71 de 03 3f
       -0.16837136 0.018699689 0.37277207 0.51511294
0003c0 eb 3d 5f 3d d2 29 c9 be ca 23 ff 3d 0c 1f 83 3e
       0.05450241 -0.3928972 0.12457998 0.25609624
0003d0 63 c5 68 bf 4f 7e 87 be 52 64 c9 3e 95 8b 9c 3d
       -0.9092619 -0.26463553 0.3933435 0.07643811
0003e0 35 bf 1e bf 8a bb 1b bd da 70 48 3f a7 5c a3 3d
       -0.6201051 -0.038020648 0.782972 0.079766564
0003f0 fb b9 a4 bc 2d 9e 94 3d 8d 24 8a bb e7 42 b6 bd
       -0.020108214 0.07256732 -0.004215783 -0.08899479

net.0.bias f4 [64]
000000 1e 7b 5d be bb 42 1f bf 26 41 23 3e b4 56 c3 be
       -0.21628997 -0.622112 0.15942821 -0.38152087
000010 42 52 fb be dc 7b fc be 78 8f 95 be c4 1e 2c bf
       -0.49086195 -0.49313247 -0.2921102 -0.67234445
000020 d5 ee f5 be f4 8c 10 bf 76 a7 e0 be 78 b6 eb be
       -0.48033777 -0.5646508 -0.43877763 -0.4603765
000030 6b a5 e5 be 2b 21 b3 be 40 10 0a bf ff ae d1 bd
       -0.44852766 -0.34986243 -0.53931046 -0.10238456
000040 9e ef 2a 3e bc c7 0e bf ac 8b 41 be 37 dd 05 bf
       0.16692969 -0.5577352 -0.18900937 -0.5229067
000050 0f 27 f4 be cf 90 ef be fe 2a 81 be b7 ca d4 3e
       -0.4768605 -0.46790168 -0.25228113 0.4156091
000060 b7 a4 dd be d6 c6 74 be 3a fd 72 be 3b cb f8 be
       -0.4328973 -0.23903975 -0.23729411 -0.48592553
000070 15 42 0d bf 5c 05 3b bf 59 89 a2 be b5 3e 3c bf
       -0.5517896 -0.7305505 -0.31745413 -0.73533183
000080 67 c0 20 bf b1 ae 0b bf fa fa cf be 63 89 ea bd
       -0.6279358 -0.5456343 -0.40621167 -0.11451986
000090 f6 88 d5 3e ea 5b e8 be 8e c5 f6 be 2b 6c a7 be
       0.41706055 -0.45382625 -0.48197597 -0.32699713
0000a0 70 5d 0b bf 2b e1 52 bd 24 c2 e3 be 22 c8 c4 be
       -0.5443945 -0.05148427 -0.44484055 -0.3843394
0000b0 8b 08 a3 3d 5f bb fb 3d 0c 7c c4 be fc 72 1b bf
       0.07960614 0.122915976 -0.3837589 -0.6072233
0000c0 55 22 9b be 43 4d c4 be e7 fc 29 bf fd 62 1d bc
       -0.3029963 -0.38340196 -0.66401523 -0.00960612
0000d0 98 fd e9 be fe f9 e7 be d2 fd dd be af 27 03 bf
       -0.4570129 -0.45307916 -0.43357712 -0.5123243
0000e0 6f 2b ac be a9 a0 ca be 01 d3 21 bf 58 a2 b3 be
       -0.33626887 -0.395757 -0.6321259 -0.35084796
0000f0 5a bd 0f bf 46 c3 de be f9 35 1b bf 68 45 4d be
       -0.561483 -0.43508357 -0.6062923 -0.20046008

net.2.weight f4 [64, 64]
000000 8e 2b 8a be d0 10 a7 be e5 05 91 bc 0a 71 2f be
       -0.26986355 -0.32630014 -0.017703006 -0.17132965
000010 66 ca 31 3e 1c d6 62 3e 3a 72 09 be 55 82 1c bc
       0.17362365 0.22151989 -0.1342248 -0.009552558
000020 5a 82 26 3e 22 b0 13 be 1a 08 66 3e b9 bb c2 be
       0.16260663 -0.14422658 0.22464028 -0.38033846
000030 db c7 e2 be e6 ea 8e bd 8e 5c 27 be ae ff 3a bf
       -0.44293103 -0.06978397 -0.163439 -0.73046386
000040 41 7c 15 3e 9f 52 8f 3e 30 ab 9f be c2 ad 4b be
       0.1459818 0.27992722 -0.31185293 -0.19890502
000050 5b e6 15 bd 6d 03 1b 3e 6e 61 53 be d0 2c 64 be
       -0.036596637 0.15138026 -0.20642635 -0.2228272
000060 f3 b0 87 bd 6c b6 13 3e 6d 52 1e 3e 05 17 94 3d
       -0.06625547 0.14425057 0.1546113 0.07230953
000070 9d cb 17 3e f7 6f 24 bd 4f b2 03 bf 72 2e 80 bd
       0.14823766 -0.04014584 -0.5144395 -0.06258859
000080 92 4a 84 3e b2 28 ef be 52 c6 0d bf 22 c8 cc be
       0.25838143 -0.46710736 -0.5538074 -0.3999644
000090 06 04 80 ba a4 5d 0c 3e 87 1b 96 3e 67 bc 9b 3e
       -0.0009766824 0.13707596 0.29317877 0.30417177
0000a0 4b bc b2 3e 3e c5 a5 be 3f 3a 1e bd 2e 42 49 bf
       0.3490928 -0.32377046 -0.038629767 -0.7861661
0000b0 f1 24 aa be f6 21 1d bd 33 81 eb 3d 24 52 ea bd
       -0.3323131 -0.038362466 0.11499252 -0.11441448
0000c0 13 4c 74 be dc d5 30 3c bd 9f ec 3e d4 f8 94 be
       -0.23857145 0.010793176 0.4621562 -0.2909609
0000d0 a8 71 18 3d 3e 9d 64 3e 6a e2 a7 be 9b 86 1b 3c
       0.037217766 0.22325608 -0.32789928 0.009492542
0000e0 e3 89 38 be 89 17 3a be 39 3a ba 3e 06 e8 a3 3e
       -0.1802135 -0.1817304 0.36372545 0.32012957
0000f0 2a 0c c0 be da 52 d3 3e 11 18 40 3e 23 17 31 3e
       -0.3750928 0.41274148 0.1875918 0.17293982
000100 2d a0 86 3c f7 6f 84 be 03 02 97 be d2 36 69 3c
       0.0164338 -0.25866672 -0.29493722 0.014234262
000110 37 0a 42 3d 5d 17 a4 3d 84 26 17 be 52 5d b2 bd
       0.047373023 0.08012269 -0.14760786 -0.08709206
000120 e5 98 5d bc 1a 35 5c be 86 75 7d be fc 83 8c be
       -0.013525222 -0.21504632 -0.24751863 -0.27444446
000130 da 4f db bc a7 24 1c be 63 59 8f be e3 78 f1 3c
       -0.026771475 -0.15248357 -0.27997884 0.029476589
000140 01 82 a3 be 86 83 13 be 95 f9 f7 bc b9 f4 08 be
       -0.31935123 -0.14405641 -0.030270377 -0.13374604
000150 cf f4 8d bd 28 62 ae 3d 58 83 37 3e 2a 03 cd bd
       -0.06931459 0.085148156 0.17921197 -0.10010369
000160 84 45 5e be f7 74 88 be 50 53 a7 be 74 61 b7 be
       -0.21706206 -0.26651737 -0.3268075 -0.35816538
000170 c5 c9 8b be 45 d8 c8 bd 9f 59 0f 3e 44 8d b9 3d
       -0.27302375 -0.09806875 0.13999031 0.090601474
000180 18 e5 b0 3e f3 7d 5a be 23 89 99 be ad bd 00 3b
       0.34549785 -0.21337108 -0.2998744 0.0019644306
000190 aa 77 8c bd fc 2d 3f be 05 65 a2 be ff 10 15 3e
       -0.068587616 -0.18669885 -0.31717697 0.14557265
0001a0 25 8a 70 be 71 91 01 bf a3 75 88 be e8 58 24 3e
       -0.23490198 -0.5061255 -0.2665225 0.1604954
0001b0 de dc 30 3d 0a fb 4f be 8c 85 42 be 28 ad f7 bd
       0.043179385 -0.20310608 -0.18996257 -0.12093574
0001c0 6e 99 07 3e 59 29 87 bd 4f 25 d5 bd 90 4b fe bc
       0.13242123 -0.06599683 -0.10407507 -0.03104189
0001d0 0f 9c e4 3c 6e 72 99 be 16 ec 7b 3d 09 6b 1c 3e
       0.027906446 -0.29970115 0.061504446 0.15275206
0001e0 81 8c 12 3e 73 a0 a6 bc 76 cc 91 be ea 32 15 3e
       0.1431141 -0.02034018 -0.28476304 0.14570203
0001f0 f2 32 8a be dc 83 98 3d c6 79 ab 3d a6 b4 0c be
       -0.26991993 0.07447025 0.08372836 -0.13740787
000200 58 73 27 bf a7 88 92 3e b8 6d 17 3c e0 0f c9 3e
       -0.65410376 0.28619882 0.009242468 0.39269924
000210 54 c9 0d bf e7 ed b4 be 21 e3 62 be 7e 1a 60 bf
       -0.5538533 -0.35337755 -0.22156955 -0.87540424
000220 51 c8 3c bf d7 b2 00 be e9 bc ef be bb 71 a0 be
       -0.7374316 -0.12568222 -0.46823815 -0.3133677
000230 46 25 57 3f e7 41 cf 3d b5 7f 3d be 76 a7 a5 be
       0.8404125 0.10119992 -0.18505748 -0.32354325
000240 ba 82 b8 bf 49 55 6e bd 87 84 6a be 06 5d 82 3f
       -1.4414895 -0.058186803 -0.22902118 1.0184639
000250 ab 00 ff 3d cf 50 7d 3e 17 bf 74 be 84 ec 40 be
       0.12451299 0.24737857 -0.2390102 -0.18840224
000260 6d 05 fc be 6e 04 7f be e3 72 28 be a5 56 50 bd
       -0.4922289 -0.24904034 -0.16450076 -0.05086388
000270 5e ed 0f bd 6c d1 3c bf 96 98 eb be f5 af 3f be
       -0.03513848 -0.7375705 -0.4601485 -0.18719466
000280 7e b3 b0 3d af 07 12 3f 1b 8e 3f 3e 4f 5a e5 be
       0.086279854 0.57042974 0.18706553 -0.44795462
000290 09 fd 00 be f7 7f bb be 9d ab ec be b2 54 c5 3d
       -0.12596525 -0.36621067 -0.4622468 0.09635295
0002a0 50 58 b0 bd 3a 61 a6 bd 50 7b 24 be 92 f1 23 bf
       -0.08610594 -0.08124013 -0.16062665 -0.6404048
0002b0 53 d9 07 3f 7b 7a 90 3d e6 23 f6 be e3 af a2 3f
       0.53065985 0.07054611 -0.48074263 1.2709926
0002c0 3c bb 95 3e 14 03 7c be 79 61 e6 be 30 e2 ea be
       0.2924441 -0.24610549 -0.4499624 -0.45875692
0002d0 e7 24 8c 3f 9e e9 42 3d 0f c4 00 bf d4 68 e9 3d
       1.0948762 0.047586076 -0.5029916 0.113969475
0002e0 41 4a b9 bb 64 03 02 bf e3 08 09 3d 20 14 29 bf
       -0.0056546037 -0.50786424 0.03345574 -0.66046333
0002f0 71 db 46 be 5a a0 1b be 79 4e ca be 9f 38 27 be
       -0.19419648 -0.15197888 -0.39512995 -0.16330193
000300 2d 4d 9a bd ae 11 e7 bb 1c f9 e3 be d1 c0 c9 be
       -0.07534251 -0.007051668 -0.44525993 -0.3940492
000310 61 a3 47 be eb aa 2a 3b 89 7c ae 3d 8a c5 eb be
       -0.19495918 0.0026041816 0.08519847 -0.46049148
000320 a1 c5 d5 be a0 85 55 be d8 f4 dd 3e 2f 78 54 3d
       -0.4175234 -0.20851755 0.43350863 0.05187243
000330 44 af ba be 41 b9 99 be 93 fd 13 3b d6 3f 7b be
       -0.36461842 -0.3002415 0.0022581562 -0.2453607
000340 09 86 9a 3d ad 7f 99 3e de 67 81 be 07 28 f2 be
       0.075450964 0.2998022 -0.25274557 -0.47296163
000350 3c cc 67 bf ec 5c bb be 13 fa 0b bf 5b ce 14 bf
       -0.9054601 -0.3659433 -0.5467846 -0.58127373
000360 78 1d d1 3e 7c fe a1 bf d3 8a 72 be 71 3e 7e be
       0.40842795 -1.2655787 -0.2368577 -0.24828507
000370 81 5c 7d 3e 1d 8a 83 be 59 d9 3a be 1d 68 db be
       0.24742319 -0.2569131 -0.18246974 -0.4285287
000380 bb d2 a7 3e c1 41 44 be ff 0f 67 3e cc a3 ce be
       0.32777962 -0.19165708 0.22564696 -0.40359342
000390 f5 5e 50 bd 84 b4 93 be 81 2d 0c 3f e7 64 2f be
       -0.050871808 -0.2884866 0.54756933 -0.17128335
0003a0 e5 a3 35 3f 8c f7 e0 bd 43 50 d4 bd 1b 23 0e bf
       0.7095321 -0.10984716 -0.10366871 -0.55522317
0003b0 63 3b 9e be e7 22 18 bf fd 43 85 be ea dd 64 be
       -0.30904683 -0.59428257 -0.26028433 -0.22350278
0003c0 d3 72 e3 be 77 5c ae 3e 01 63 e2 be d1 f3 06 be
       -0.4442354 0.3405492 -0.4421616 -0.13178946
0003d0 89 b8 5b be 73 19 b6 be ff c0 f3 bd 1a 0a eb be
       -0.21457113 -0.3556629 -0.119020455 -0.45906144
0003e0 05 ff be be 5d bd cf be 5a 56 8a bd 0b 36 16 be
       -0.3730394 -0.4057416 -0.067547515 -0.14669053
0003f0 c0 bf 33 be 87 69 9b 3e 3c 83 7e 3e 48 5c 1f 3e
       -0.17553616 0.30353948 0.2485475 0.15562546

net.2.bias f4 [64]
000000 96 6e 8e be a2 e0 39 be a1 1e 2d bf 7e f1 59 be
       -0.27818745 -0.18152097 -0.6762486 -0.21283528
000010 39 bd 4e be 4e a1 ef be cb f7 dd bd 6d 62 46 3e
       -0.2018937 -0.46802753 -0.108382784 0.19373484
000020 2b 10 67 bf fa 7a 35 bf b0 0b 8d bf 61 a8 fe bd
       -0.90259045 -0.7089077 -1.1019192 -0.124344595
000030 ab 2b b0 be de f9 a2 be 52 f8 b3 bd e3 a1 8a be
       -0.34408316 -0.3183126 -0.08787598 -0.27076635
000040 7f 23 a6 bd bf 35 f8 bd e8 f2 2c be 5b ca de bd
       -0.08112239 -0.12119626 -0.16889536 -0.1087844
000050 19 dd e1 be be ac 11 bf 1a 17 89 be 6c f6 11 be
       -0.44113997 -0.5690421 -0.26775438 -0.14254159
000060 3b 20 36 be 97 51 49 be 44 4e 37 bf 66 c3 a3 bd
       -0.17785732 -0.1966003 -0.716038 -0.07996254
000070 d5 da 1b bf bf 7a 27 be 20 1f f4 be 86 28 9c be
       -0.60880786 -0.16355418 -0.47679996 -0.30499667
000080 bc cb 8a be 7f 44 ed be 92 4b e6 be c1 65 57 be
       -0.27108562 -0.4634132 -0.4497953 -0.2103491
000090 91 bd 03 be c8 f3 31 bf 7f 2f c7 be df b6 c8 be
       -0.12865283 -0.69512606 -0.38903424 -0.3920202
0000a0 8c 8e 14 be 9c 34 e1 be d4 95 f8 bd ea 74 df bd
       -0.14507502 -0.4398545 -0.121379524 -0.109109715
0000b0 83 32 6c bd 12 f9 a4 bd ea 4e ec be 1c e4 93 be
       -0.05766536 -0.08055319 -0.46153957 -0.2888497
0000c0 b4 1c 1d 3e d6 ee 18 be cf 83 04 bf 22 f5 1b 3e
       0.1534298 -0.14934859 -0.51763624 0.1523023
0000d0 e7 31 14 be de 20 29 bf 4c ee 1c 3d 5f da d9 bd
       -0.14472161 -0.66065776 0.038313195 -0.10637354
0000e0 18 ef a3 be fc 32 0e bf 31 23 0a bf 0a a3 bd be
       -0.32018352 -0.55546546 -0.5395995 -0.3703845
0000f0 b7 01 49 be ac 50 5a be 6e 3a 3b bf dc ec 9d 3c
       -0.1962956 -0.21319836 -0.7313603 0.019277982

net.4.weight f4 [5, 64]
000000 db 8b f4 3e 10 76 b8 3e 37 a4 17 be ef 1b f0 3d
       0.4776295 0.36027575 -0.14808737 0.11724078
000010 26 40 d0 bc 70 d8 a4 3e 57 16 6f 3e 5f 5e a4 3e
       -0.025421213 0.3219638 0.23348366 0.3210325
000020 49 c5 ed be 42 60 2e bf 1f 96 26 bf f3 e8 bb 3e
       -0.4643958 -0.6811563 -0.65072817 0.36701164
000030 c5 d6 9d 3c 97 e4 86 3e 33 3f cb 3e 46 72 9d 3e
       0.01926745 0.26346275 0.39696655 0.30751246
000040 b3 5d ec 3c 4a c4 17 be 1f 59 02 3e c9 77 3f bd
       0.028853273 -0.14820972 0.1272931 -0.046745095
000050 7b c5 60 bf 21 59 7f 3c 6a 8b 55 3e cc 52 e5 bd
       -0.8780133 0.015585215 0.20853963 -0.11197433
000060 7b b6 55 3e f6 01 1f 3e 8c f6 3b bf 1a a8 9e be
       0.20870392 0.15528092 -0.73423076 -0.30987626
000070 fa 09 f6 bd 6e 94 86 3e d5 9f 83 be 97 3b 5f bd
       -0.12013622 0.26285118 -0.2570788 -0.05450019
000080 33 2f 97 be b1 44 99 be a1 c9 19 3e 9c a8 0c 3e
       -0.29528198 -0.2993522 0.15018322 0.13736194
000090 2e b0 a6 bd fd 49 4d bf 1c 0f ad bd 67 52 4e be
       -0.08139072 -0.8019102 -0.084501475 -0.20148621
0000a0 7a 7c 99 3c ea 6d 01 bf 52 e8 6f 3e cd d5 36 3e
       0.018736113 -0.5055834 0.23428467 0.17854996
0000b0 d9 b7 88 3e 82 3e b8 3e ab 52 5b be a4 4b 9b 3e
       0.26702765 0.3598519 -0.21418254 0.30331147
0000c0 eb 29 9d 3d 96 0a 25 3e ce 55 21 bf 48 63 39 bd
       0.07674011 0.1611732 -0.6302155 -0.045260698
0000d0 9e c4 d0 3d 25 87 6c be ba c8 13 be a6 93 a8 3e
       0.10193752 -0.23098429 -0.1443204 0.32925147
0000e0 2b f3 ba 3e ca 13 21 bf 0f c4 92 3d 81 9d 54 3d
       0.36513647 -0.6292082 0.071663015 0.05190802
0000f0 7a 0c 26 3e 05 c2 01 be 21 e9 ba be 47 ba 27 3f
       0.16215697 -0.12671669 -0.36505988 0.6551861
000100 a8 50 8a 3e c3 19 a0 3d a5 d6 3d 3f 8b 4a f2 bd
       0.2701466 0.07817414 0.74155647 -0.11830624
000110 66 a0 d4 be f8 5e 35 3c 3a 42 ad 3e 51 92 4e bf
       -0.41528624 0.011070006 0.3383959 -0.8069201
000120 10 9f 28 3f cc 72 01 3f 93 83 c2 3f 31 e7 aa 3a
       0.6586771 0.5056579 1.5196403 0.0013038871
000130 02 3b a7 3e f3 1d 8a 3e cc 51 9b 3c ba df bc 3e
       0.32662207 0.26975974 0.018959902 0.3688944
000140 d3 d5 05 3e 02 40 55 3e 24 bd 7d 3e a8 f6 ed bd
       0.13069849 0.20825198 0.24779183 -0.116193116
000150 98 9c 02 3e df 34 2c 3f 6a f9 6c 3d 2a a7 c9 3d
       0.12755048 0.67268175 0.057855047 0.09846337
000160 8d 72 e7 be 3e d9 13 3e 2b 5c 74 3f f8 a9 a8 3d
       -0.45204583 0.1443834 0.9545314 0.08235544
000170 9a 80 5a bf df 17 73 be 44 a6 3f bf 8b bc 30 3f
       -0.8535248 -0.23739575 -0.74863076 0.69037694
000180 23 42 52 be ba d8 ae 3e b2 12 8f bd 58 65 07 3e
       -0.20533042 0.34149724 -0.06985988 0.13222253
000190 db e9 5b 3e 48 cc 75 bc 0f 8a ef 3e 29 9b 92 3e
       0.21475928 -0.015002318 0.46785018 0.28634003
0001a0 51 67 43 ba 2e e1 ba 3e fc 1f 77 3e 41 57 ad bc
       -0.0007454055 0.36499923 0.24133295 -0.02115977
0001b0 93 c0 0a be 7d 69 87 3d fb 54 fa 3d 45 5a 12 be
       -0.13550024 0.06611917 0.1222324 -0.14292248
0001c0 30 df 00 c0 eb 51 0c 3e 28 a5 23 3d 20 ef 30 3f
       -2.0136223 0.13703124 0.039952427 0.69114876
0001d0 3a 34 69 3d 42 50 da be e8 59 eb 3e a8 b9 cb bd
       0.056934573 -0.42639357 0.4596703 -0.099475205
0001e0 a8 b7 31 3d 91 a7 26 bf 31 ce a6 be 4e 03 fc be
       0.04338804 -0.65099436 -0.32579187 -0.4922127
0001f0 61 ff ba 3c 90 36 4b 3e a8 83 48 bf 9b 56 15 bf
       0.022826852 0.19845033 -0.7832589 -0.58335274
000200 88 d4 28 3e 09 9a 11 3e 73 b7 38 3f d1 d0 6d 3e
       0.16487324 0.14218916 0.7215492 0.23224188
000210 c5 65 25 3d f1 38 73 3e 99 68 b1 be 5e 16 cc 3e
       0.040380258 0.2375219 -0.34650114 0.39860815
000220 e2 cc 75 3f 1a 91 70 bf 55 9d 54 3f 87 12 16 bd
       0.9601575 -0.9397141 0.8305257 -0.036638763
000230 1f bd 5f 3e 93 ca 9f 3d 9c d9 09 be 71 ac 12 bf
       0.21849488 0.0780231 -0.13461918 -0.57294375
000240 3c 87 d5 3e 8d c1 9f bd 4c 58 07 3d e7 fd 8c be
       0.41704738 -0.07800589 0.03304319 -0.27537462
000250 b6 d8 f7 3e 2b f2 08 3f 97 8b 34 3e 9e 9a 14 3e
       0.48407525 0.5349452 0.17631374 0.14512107
000260 fd 5d 38 3e bb 07 a7 3e 1d a2 1e 3f 43 9e 0c 3e
       0.18004604 0.32623085 0.61966115 0.13732247
000270 5f 9c 20 bf 3c ca a8 3d 58 64 38 3e 1c c8 9d be
       -0.62738603 0.08241698 0.18007028 -0.30816734
000280 f6 7a 66 3e 50 11 6f be 2a fa 98 3e b7 b9 d3 bc
       0.22507843 -0.23346448 0.2987836 -0.025845392
000290 b2 a1 67 be fa b5 e9 3e 13 33 ba be 70 ab aa be
       -0.22620276 0.4564665 -0.36367092 -0.3333392
0002a0 21 e9 43 bd 09 59 3c bf 5c f3 26 bf 10 a2 c3 3d
       -0.04782975 -0.73573357 -0.65215087 0.09552395
0002b0 a9 09 a4 be a2 fa d6 be ca 77 ec 3e d2 51 32 be
       -0.3203862 -0.41988093 0.46185142 -0.17414024
0002c0 2a 3d f0 3e 8d 82 60 3e 94 86 2a 3f ee a7 fe bd
       0.46921664 0.21924801 0.666116 -0.12434374
0002d0 bc 3e c0 3b 0a 56 7a 3e 9b c9 cd be a9 46 a1 3d
       0.0058668535 0.24446884 -0.40192875 0.078748055
0002e0 96 63 f6 be 14 21 7e 3e e2 41 c2 be e6 4a dd 3d
       -0.48122853 0.24817306 -0.3794089 0.10805301
0002f0 81 e2 b9 be b0 6c 71 be c5 00 20 3e 39 81 38 3f
       -0.3630562 -0.23576617 0.15625294 0.7207218
000300 b5 dd 66 3e 2c 43 69 3e fc 68 a3 3c b5 b7 b6 be
       0.22545512 0.2277953 0.019947521 -0.35687032
000310 d8 b0 00 3e 56 88 bc be 78 2d d1 bd 3a 2e 5f 3e
       0.1256746 -0.36822766 -0.102137506 0.21794978
000320 c8 fb 34 bc e0 98 67 3f 24 9b 19 bf 80 6f dd 3d
       -0.011046357 0.90467644 -0.6000235 0.108122826
000330 5b 1a 71 3e 7b f4 0e 3e 6a 87 42 be 8e cf fe 3e
       0.2354521 0.1396045 -0.18996969 0.49767727
000340 ce d5 aa be 7f 51 a0 3e c9 cc 51 3e d5 80 5c 3e
       -0.33366245 0.31312177 0.20488276 0.2153352
000350 90 38 ec be 74 fe 8c bd 6e b6 19 3d cc a9 f1 3e
       -0.46136904 -0.068844706 0.037527494 0.47199857
000360 f0 7c db 3e b9 be ba 3e b2 f7 db 3e ef e4 29 bd
       0.42868757 0.36473635 0.42962414 -0.041478094
000370 ef 21 a3 3f a9 51 a2 3d ce 03 db 3c 22 79 9d bd
       1.2744731 0.07925732 0.026735213 -0.0768912
000380 24 e0 d0 be e7 f0 df bb 10 ae 77 3a 8f eb 30 be
       -0.40796006 -0.0068341377 0.00094482396 -0.17277358
000390 3c 2c e8 3c b5 ec 04 3f 7d 18 bb 3e 25 5b 33 bf
       0.028341405 0.51923686 0.3654212 -0.7006095
0003a0 c6 4d 78 be bb 8d 3e 3f e1 a0 bf bb 0f af c6 bd
       -0.24248418 0.74435014 -0.0058480357 -0.097013585
0003b0 fc c7 83 3d 9f 2e a9 3e 41 28 a6 be ee e7 75 3e
       0.06434628 0.33043382 -0.32452586 0.24014255
0003c0 47 69 e8 3e 53 93 a7 3e 0f 82 6b bf ae ea 25 bf
       0.4539282 0.32729587 -0.9199533 -0.6481122
0003d0 58 f7 1f be d2 1b a4 be ad 13 96 be 1d 7c 23 be
       -0.15621698 -0.32052475 -0.29311886 -0.15965314
0003e0 fc 7b 81 3d 4e 59 07 be f5 2b e4 3e 72 f0 cf 3d
       0.06322476 -0.13217661 0.44564787 0.10153283
0003f0 ae 4e e2 3d 48 41 22 bc 78 56 29 3f 24 16 08 bf
       0.11050163 -0.00990326 0.66147566 -0.53158784

net.4.bias f4 [5]
000000 af 1a 2f be 4b 1c 8c 3d d0 99 83 bd 9b e4 79 3d
       -0.17100023 0.06841334 -0.06425822 0.06100903
000010 0d f9 ac 3e
       0.3378376
