results/simple_nav_v1/2/model.pt (torch, 532352 bytes, 4 tensors)

0.weight f4 [256, 512]
000000 f4 db f2 bc fa d7 25 be 15 9d c9 bd 1e 88 22 3d
       -0.029645897 -0.1619567 -0.09844414 0.039680593
000010 07 7c f0 bd ea 84 66 3d b9 73 79 bd c5 4b e9 bd
       -0.11742406 0.0562791 -0.060901377 -0.11391405
000020 8c 8d 07 be b0 75 74 3d 9d be 6b bd 37 f0 00 3e
       -0.1323759 0.059682548 -0.05755483 0.12591635
000030 9c ae 46 bd 7e 15 d8 bd c2 32 aa bd f9 b8 d1 bd
       -0.048506364 -0.10550974 -0.083104625 -0.10240359
000040 44 f5 c7 bd 37 c4 89 bd 36 2c 24 be 1e 72 aa bc
       -0.097635776 -0.06726878 -0.1603249 -0.020806368
000050 79 e4 62 bc 75 d3 27 be 23 00 64 3e 8d 52 23 3b
       -0.013848417 -0.16389258 0.22265677 0.002492103
000060 38 48 44 3d fd d5 e4 3c 35 21 10 3d 29 dd 6e 3d
       0.047920436 0.027934069 0.03518792 0.058316384
000070 4c 6a a5 bd 01 ed 87 bd 91 41 de 3a e1 31 be bc
       -0.08076915 -0.06637002 0.0016956796 -0.023217143
000080 ac da 8f bc 74 5b 27 bd 71 80 e9 3d cf 5b 55 bd
       -0.017560326 -0.0408587 0.114014514 -0.05208951
000090 ea 0f 29 3e 42 76 3d 3c b9 8a d2 bd fa 62 8e bd
       0.16509977 0.011563839 -0.102803655 -0.06952472
0000a0 75 54 ba bc 79 60 14 be 11 45 9e 3c 0b 6a 16 be
       -0.02274535 -0.14489926 0.019320043 -0.1468889
0000b0 9b 6f d6 bc 8d b6 08 3d 5d c9 97 3d 82 b7 89 3c
       -0.026176265 0.03337722 0.07411454 0.016811136
0000c0 9d 8a 2e bd 76 95 51 3d 95 43 ac 3c a9 ca 2d 3d
       -0.04261266 0.051167928 0.02102832 0.0424296
0000d0 95 ee e0 bd d2 f6 b7 3c bd fc 1c 3d be 32 a0 3d
       -0.10983006 0.02245656 0.038326968 0.07822178
0000e0 99 34 ac 3d a2 9c 7c bd 07 16 12 be 7b 9a 6a be
       0.0840847 -0.061672814 -0.14266215 -0.22910492
0000f0 f9 b4 ed bd 03 64 a9 bd d2 aa 0e 3d 88 67 a2 3b
       -0.116067834 -0.08271029 0.034830876 0.0049561895
000100 72 f2 a4 bd bf 7e f1 3d b2 bb 4b bd 44 7e ef 3c
       -0.08054055 0.11791753 -0.049739547 0.029235013
000110 16 05 32 be 95 29 b1 bd 98 2b 01 bd 3f 9a ae 3d
       -0.17384753 -0.08650509 -0.031535715 0.08525514
000120 f6 99 00 3e 32 02 85 bd 30 b0 e7 bd 94 4e 94 3d
       0.12558731 -0.06494559 -0.11312902 0.0724155
000130 1d 20 fe 3d da 2e dd bd 98 d5 08 be c6 0e c1 bd
       0.12408469 -0.10799952 -0.1336273 -0.09426646
000140 2e 8c 51 bd 70 d7 0c be 1c a3 02 be f3 a6 41 3d
       -0.051159076 -0.13754058 -0.12757534 0.047278356
000150 d0 d8 01 be d7 79 8c bb 09 d8 04 be 73 4f cc bd
       -0.12680364 -0.0042869854 -0.12973036 -0.09976091
000160 7e b3 22 3d f7 85 4e bd d7 45 7b bd c4 e7 1e 3e
       0.03972196 -0.050420728 -0.0613459 0.15518099
000170 ab 24 08 3e 77 d5 42 3b f3 f5 cb bb 2c 8b a1 bb
       0.13295238 0.0029729286 -0.006224388 -0.0049299207
000180 55 01 31 bc 35 f9 0d be bd 34 4c 3d be 45 8f bc
       -0.01080354 -0.13864596 0.049854983 -0.01748931
000190 92 01 35 be ef 02 b5 bd 48 9f 2a be 31 bb 05 be
       -0.1767638 -0.0883845 -0.16662323 -0.13059689
0001a0 56 27 76 3d ab dc 05 3e 4d c7 45 be 6b ab 9b 3d
       0.060096107 0.1307246 -0.19314308 0.07601055
0001b0 4c 90 48 3b b6 9f b7 bc e6 73 a7 bd 10 92 d4 bd
       0.0030603586 -0.022415023 -0.08176403 -0.10379422
0001c0 d8 ad 70 3d ec b6 c7 bc a8 d8 30 be 7f 4d 67 3c
       0.05875954 -0.024379216 -0.17270148 0.014117598
0001d0 7c ae 14 be 3d 8b 4f bd 77 2c de bb d6 f1 08 3e
       -0.14519686 -0.050669897 -0.006780203 0.13373503
0001e0 ea f3 2b 3d ab 2d 6a be 17 b0 a4 3d 6b 4e 9e bc
       0.04198066 -0.22868983 0.08041399 -0.019324502
0001f0 d6 e9 4d 3d f8 e0 69 3d fb 65 7d bd 4a cb 25 bd
       0.05027183 0.057099313 -0.061864834 -0.040477075
000200 53 28 09 3d f8 39 e7 3c de c3 99 3d 5a 68 d6 3d
       0.03348572 0.028225884 0.07508062 0.10469122
000210 11 8e dc ba f6 4c 0b 3d 97 03 f4 3c 12 61 a4 3c
       -0.0016827007 0.034008943 0.029786868 0.020065818
000220 91 f8 ab bd 96 a4 b7 bc 5a eb 18 be 52 60 0e be
       -0.0839702 -0.022417348 -0.1493353 -0.13903931
000230 9d d7 00 be f7 0d dc 3b 98 0d 07 be e8 5f 60 3d
       -0.1258225 0.006715532 -0.1318878 0.054778963
000240 00 9b 0e bd 6f 0a af bc 26 22 7a bd ab 13 41 bd
       -0.03481579 -0.02136728 -0.061067723 -0.047137897
000250 9f b0 f4 3d c5 b9 9e 3d 3a a3 54 be c3 62 95 3d
       0.1194775 0.077502765 -0.20765391 0.07294228
000260 94 c1 32 be 66 fd b6 bd 8b e3 cc bd 5d 11 8e 3d
       -0.17456657 -0.08935051 -0.10004338 0.069369055
000270 45 83 f4 3d b9 9b ec bd ff fc 0a bd de 44 dc 3d
       0.119391 -0.11553139 -0.033932682 0.10755323
000280 d7 a0 b1 bd 04 56 fe 3b a1 38 45 bd ba 44 2e bc
       -0.08673256 0.0077617187 -0.04814971 -0.010636503
000290 40 68 bb 3c 86 f5 0f be 3b 8c 66 bd 12 61 8c bd
       0.022876859 -0.14058504 -0.056286078 -0.06854452
0002a0 50 93 19 be 6b ec 2f 3b c8 14 c1 3d f5 18 03 be
       -0.14997602 0.0026843797 0.09427792 -0.12802489
0002b0 57 c9 28 3d a2 d6 33 3c 3e e8 e3 bd fc 5b ef bd
       0.041207638 0.010976465 -0.11128281 -0.116874665
0002c0 39 02 82 bd 85 3f 25 be e7 1d 60 be 2d a9 7a bd
       -0.0634808 -0.16137512 -0.21886407 -0.061196495
0002d0 6c 18 a8 3c e1 9d 4f bd 61 67 eb 3d e6 5e a4 bc
       0.020519458 -0.050687674 0.11494327 -0.020064782
0002e0 29 8e e1 bc 85 51 a7 3d bf 26 cd 3b 0e e0 46 3d
       -0.027533608 0.081698455 0.0062607224 0.04855352
0002f0 00 71 21 bd cc 4e 32 be 44 d1 b6 ba 07 b4 15 3e
       -0.039414406 -0.17412871 -0.0013947864 0.14619456
000300 b5 44 47 bd 01 b9 14 bd ea 32 1e be d4 80 de bd
       -0.04864951 -0.036309246 -0.1544911 -0.10864416
000310 5c c9 91 bc 2d 81 b8 bd 34 d5 0e bd df c3 23 be
       -0.017796211 -0.09009013 -0.034871295 -0.15992688
000320 33 2c c8 3d 5b 46 ec 3c b8 9e bc 3c ca af dc bd
       0.09774055 0.028842142 0.023024902 -0.107757166
000330 d5 ef a7 bd 8f 0c 03 be a5 6d 7f bd 2b 30 64 bd
       -0.08200041 -0.1279776 -0.062360425 -0.05571
000340 8c 6c 93 bd 71 00 e7 bd b6 d2 14 be a9 40 c3 bd
       -0.07198438 -0.11279381 -0.14533505 -0.09533817
000350 02 7c 15 bc d2 b6 39 be 44 30 70 bd d9 65 92 bd
       -0.009123804 -0.18136147 -0.05863978 -0.07148332
000360 30 99 c7 bd e4 66 6e 3d 9d b0 2f bd 85 04 e2 bd
       -0.09746015 0.058203593 -0.04289304 -0.11036018
000370 42 4a e4 bd ce ae 9c 3c 21 cb f6 bd f1 fd 5b 3c
       -0.11146976 0.019126322 -0.120504625 0.013427244
000380 9c 95 52 bd e4 a1 e5 3c bd 6e c7 bd e6 f4 4d be
       -0.05141221 0.028031297 -0.097379185 -0.20112953
000390 5d e2 db bd e4 7a 72 bc 6c 23 11 bc b6 38 0e be
       -0.10736535 -0.014799807 -0.008858543 -0.13888821
0003a0 27 8f 59 bd 46 86 94 3d a0 fa b1 3b 12 4f 80 3d
       -0.053115036 0.07252173 0.005431488 0.062650815
0003b0 c6 9e cf ba da 75 85 bd 05 a9 15 be 7e f6 d7 bd
       -0.0015840165 -0.06516619 -0.14615257 -0.105450615
0003c0 22 91 56 be 73 98 65 bd c3 03 19 bd 37 6c 25 bd
       -0.20953801 -0.05605359 -0.037357103 -0.040386405
0003d0 9e de 2d be 86 6a 9f bc 7c da 86 bd b5 e5 1c be
       -0.16979453 -0.019459974 -0.06584641 -0.15322001
0003e0 61 38 29 3e 4c 1f 87 3d 82 97 24 be 7a ea 15 bd
       0.16525413 0.06597766 -0.1607342 -0.036600567
0003f0 f6 40 63 be e8 a5 30 bc a7 83 f0 3d 40 e1 ac 3d
       -0.2219275 -0.010781743 0.11743861 0.084414005

0.bias f4 [256]
000000 ae ba 03 bd 03 ce 61 bd 70 3b 95 bd 12 90 a5 bc
       -0.032160453 -0.05512811 -0.072867274 -0.0202103
000010 fc 02 4d bd e5 7a 8d bd e4 ab a3 bd ed 68 55 bd
       -0.050051674 -0.06908206 -0.0799177 -0.05210202
000020 b5 20 9c bd f2 cd 06 bd 61 70 14 be b5 eb d3 3e
       -0.07623426 -0.03291125 -0.14495994 0.41390768
000030 0a 92 95 bd 4a aa 4c bd 26 89 46 bd ec e0 86 bb
       -0.07303245 -0.049967088 -0.04847064 -0.0041161682
000040 3c fd d1 bd ac a8 95 bd 85 d6 de 3c 2a 58 77 bc
       -0.10253379 -0.07307562 0.0272019 -0.015096704
000050 26 a2 37 be 68 04 4d bd e1 d7 24 be ce 12 1e bd
       -0.17932948 -0.05005303 -0.16097976 -0.038592152
000060 19 83 1c bd 33 05 4d bd 6f 92 87 bd fa 00 4d bd
       -0.038210962 -0.050053786 -0.06619727 -0.05004976
000070 de cc 3d bd 77 05 4d bd 4c ac 99 bd ec 7c 09 3e
       -0.046337955 -0.05005404 -0.07503566 0.1342656
000080 03 24 94 bd 8d 9f b4 bd 00 f2 59 bd 6b 2a b6 bd
       -0.07233431 -0.088194944 -0.053209305 -0.08894809
000090 6b ed 4c bd 81 d5 8f bd 68 a9 ba bd f9 e5 57 bd
       -0.050031107 -0.070231445 -0.09114343 -0.052709553
0000a0 25 a9 91 bd 9e 92 10 bd cf 73 49 bd 47 a4 6d bd
       -0.0711234 -0.035296075 -0.04918271 -0.058017995
0000b0 a4 99 c0 bd 7e b4 c8 3e db 59 5c bd cc fb 64 bd
       -0.094043046 0.39200205 -0.05379663 -0.055904195
0000c0 cf 18 ef 3e bc 6b 47 bd 1e 00 4d bd 93 f2 85 bd
       0.46698615 -0.048686728 -0.05004894 -0.06540408
0000d0 74 39 91 3e 90 21 b6 3e 76 35 21 bc 8d 16 3a bd
       0.28364146 0.3557248 -0.009839406 -0.045431662
0000e0 63 f3 41 be 6e 9d 98 bd 18 02 4d bd 65 e3 91 bd
       -0.18940501 -0.07451902 -0.050050825 -0.0712345
0000f0 12 5e 8b bd 40 59 10 bd 27 4d af bd 9e 05 4d bd
       -0.06805052 -0.035241365 -0.085596375 -0.050054185
000100 9b 04 4d bd 3e 51 56 bd 95 b2 d3 3d cd 1d 54 bd
       -0.05005322 -0.052323572 0.10336796 -0.051786233
000110 b3 fc 26 bd fa ef 4c bd 6c 05 4d bd bd 05 4d bd
       -0.040768337 -0.050033547 -0.050054 -0.0500543
000120 5d 78 95 bd 6e 02 4d bd 4d 99 36 bd 7f b5 4f bd
       -0.07298348 -0.050051145 -0.044579793 -0.050710198
000130 53 bb 54 bd 04 13 fe 3d 80 4f 43 bd a7 df 7a bd
       -0.05193646 0.12405971 -0.04768324 -0.061248448
000140 80 04 4d bd 99 84 4b bd 21 3e 4d bd bc 60 4a bd
       -0.05005312 -0.049687 -0.05010808 -0.04940866
000150 dd f0 38 bd 95 97 6c 3e 65 8f 6e bd 48 6c c2 3e
       -0.04515158 0.23104699 -0.05824222 0.37973237
000160 61 01 4d bd a3 34 65 bd 38 04 15 be 97 55 a2 bd
       -0.050050143 -0.0559584 -0.1455239 -0.07926481
000170 a1 c2 00 be 6f e1 a7 3e 08 07 96 bd f9 61 40 be
       -0.12574245 0.3278918 -0.0732556 -0.18787374
000180 13 1d 8f bd a3 10 aa bd 05 05 4d bd 58 04 4d bd
       -0.06987967 -0.083039545 -0.050053615 -0.05005297
000190 94 60 8b bd eb fb 58 bd 87 64 1b be d4 f8 31 be
       -0.0680553 -0.052974623 -0.15175067 -0.17380077
0001a0 23 d9 6d bd 62 c7 53 bd 7b d3 a1 bd d5 a3 44 bd
       -0.058068406 -0.05170382 -0.07901665 -0.048007805
0001b0 99 05 4d bd 6b 95 7f bd 5c 02 4d bd f4 f5 f8 bc
       -0.050054166 -0.062398355 -0.05005108 -0.030390717
0001c0 e5 6f 36 bd 21 dc b2 bc 1d f3 a8 bd 19 8b 77 bd
       -0.044540305 -0.021833481 -0.08249495 -0.06043539
0001d0 37 84 59 bd fd 93 64 bd 4a 67 5f bd ae f2 d1 bc
       -0.053104606 -0.055805195 -0.054541864 -0.025628414
0001e0 63 52 05 bd 31 01 4d bd 23 05 4d bd a5 b1 38 bd
       -0.032549273 -0.050049964 -0.050053727 -0.04509129
0001f0 81 d1 9c bd 4b ba f1 b7 58 4e 9e bc 20 ff 06 bd
       -0.07657147 -2.8816188e-05 -0.019324467 -0.03295815
000200 ff 31 39 bd 8a c5 56 bd 32 04 4d bd 70 69 a9 bd
       -0.045213696 -0.05243448 -0.05005283 -0.08272064
000210 11 c1 86 bd 41 fc 4c bd cf 96 18 bd 90 04 4d bd
       -0.06579793 -0.050045256 -0.037253197 -0.05005318
000220 59 bc 97 bd d0 55 63 bd 43 a1 9c bd b9 cb d5 3e
       -0.07408971 -0.05550176 -0.07647946 0.4175699
000230 89 86 a9 bd 38 40 d6 3e f1 3a 8e bd 24 71 9f bd
       -0.08277614 0.4184587 -0.06944836 -0.07785252
000240 3f 8b 96 bd cc 28 8a bd a7 59 12 bd cb df 5c bd
       -0.07350778 -0.06746063 -0.03573003 -0.053924363
000250 50 bd 4b bd 9b be 6b bd ed 29 7e bd 7d 37 60 bd
       -0.04974109 -0.057554822 -0.062051702 -0.054740418
000260 36 9c 46 bd 9d 04 4d bd f1 7e 47 bd 2c fa ab bd
       -0.048488818 -0.050053228 -0.048705045 -0.08397326
000270 bb 7e e2 3e a9 ed 09 bd 17 e8 23 bd 68 6c 94 bd
       0.44237313 -0.033673916 -0.04001626 -0.07247239
000280 31 b2 85 bd 4f 58 4f bd 7c 6f 59 bd 57 74 ab bd
       -0.06528128 -0.050621327 -0.053084835 -0.083717994
000290 69 ed 21 bd 8b d9 50 bd bd 04 4d bd 93 51 19 3e
       -0.039533053 -0.050988715 -0.050053347 0.14972524
0002a0 35 04 4d bd ab 88 2f bd 76 65 03 3e aa 04 4d bd
       -0.05005284 -0.042854946 0.12831673 -0.050053276
0002b0 79 11 13 be b5 02 4d bd 24 05 4d bd dc d1 04 be
       -0.14362134 -0.05005141 -0.05005373 -0.1297068
0002c0 44 fc 05 bd e5 04 50 bd 05 03 4d bd a8 42 47 bd
       -0.032711282 -0.050785918 -0.050051708 -0.048647553
0002d0 d4 04 4d bd 94 a8 2e be d2 04 4d bd ce 01 4d bd
       -0.050053433 -0.17056495 -0.050053425 -0.05005055
0002e0 2e e3 4c bd 60 05 4d bd 7f 05 4d bd a1 f2 fa bc
       -0.050021343 -0.050053954 -0.05005407 -0.030633273
0002f0 64 ea 55 bd 1f 5c a8 bd 93 7e cf 3e f4 04 4d bd
       -0.052225485 -0.08220696 0.40526256 -0.05005355
000300 d8 02 4d bd fb 4b 61 bd fa 44 99 bd 3c 03 4b bd
       -0.05005154 -0.0550041 -0.07483859 -0.04956363
000310 80 fa a6 bd e1 61 d5 bd 87 d3 4d bd ca 58 af bd
       -0.08153248 -0.104190595 -0.050250556 -0.08561857
000320 6d 03 4d bd 74 7b b7 bd ca 0c 99 bd ab ff 4c bd
       -0.050052095 -0.08959094 -0.074731424 -0.05004851
000330 1d 9e 65 3e b1 e1 59 bd 40 94 ab bd 02 0e 66 bd
       0.22423597 -0.05319375 -0.08377886 -0.056165703
000340 0a 53 bd bc 49 03 4d bd 65 03 4d bd 62 2f 51 bd
       -0.023110885 -0.05005196 -0.050052065 -0.05107058
000350 ed 04 4d bd 64 03 4d bd 79 c2 b1 bd 6b 26 91 bd
       -0.050053526 -0.05005206 -0.08679671 -0.07087406
000360 a0 cc b0 bd f2 6e 98 bd 86 bd 9e bd bc 01 3e bd
       -0.08632779 -0.07443036 -0.077509925 -0.046388373
000370 8f 24 17 bd a7 c0 39 be 35 04 4d bd 30 b1 15 be
       -0.0369001 -0.18139897 -0.05005284 -0.14618373
000380 57 05 4d bd 3d fa a1 bd 88 8d 50 bd 3e 8f db 3d
       -0.05005392 -0.07909057 -0.050916225 0.10720681
000390 1b b9 51 bd 8f 03 4d bd d5 3c b7 3d cb 05 95 bd
       -0.05120192 -0.050052222 0.0894715 -0.072764955
0003a0 ed 5d c6 bd 98 73 48 bd 47 24 49 bd 9e 8c 4d bd
       -0.09685884 -0.048938364 -0.049106862 -0.05018293
0003b0 df 71 30 bd eb 89 54 bd 26 12 aa bd fd 86 5a bd
       -0.043077346 -0.05188934 -0.08304243 -0.05335139
0003c0 3a 85 ca bd c6 19 4e bd 2b e3 4e bd e8 a0 70 bd
       -0.09888692 -0.05031755 -0.050509613 -0.058747202
0003d0 f5 a3 06 bd fc a4 9f bd 8a fd 98 bd 5b 80 fa bd
       -0.032871205 -0.0779514 -0.07470234 -0.12231513
0003e0 e7 4c 33 bc fd b1 4f bd ef 8c a0 bd 1f 88 35 bd
       -0.010943628 -0.050706852 -0.07839381 -0.04431927
0003f0 e3 96 83 bd c7 88 56 be e4 46 a3 bd 78 04 4d bd
       -0.06425264 -0.20950614 -0.07972506 -0.05005309

2.weight f4 [5, 256]
000000 3e 69 5c 3e 0e c2 f3 bd ea eb de 3c c2 1f 02 be
       0.21524522 -0.11902247 0.027212102 -0.12707427
000010 de 2d e5 bc 01 00 a0 3c 99 d9 1b 3e f2 77 15 be
       -0.027975973 0.019531252 0.15219726 -0.14596537
000020 d6 74 1d bd 98 a3 b1 bd 09 71 4a bd 44 96 55 bd
       -0.0384415 -0.08673781 -0.049424205 -0.052145258
000030 e7 44 62 3d ce 48 fa bd e3 20 95 3d db fe e4 3d
       0.05524149 -0.12220918 0.07281663 0.11181422
000040 8a 3e 28 bd a8 1b 03 3d 0f 2e 51 be 4f 12 5f 3c
       -0.041075267 0.032008797 -0.20427726 0.013615205
000050 41 55 1f be 58 0b 85 3d ee bf ac 3c 53 1b 44 3d
       -0.15559866 0.06496304 0.021087613 0.04787762
000060 6d e8 78 3d bc 1a ee bd d2 d8 0e 3d 16 08 9d bd
       0.060768533 -0.11626193 0.034874745 -0.07667558
000070 03 8f 0a 3b 19 5a e4 bd 66 f5 be 3d a4 a3 90 be
       0.002114237 -0.11149997 0.0932415 -0.28249848
000080 6e 19 cf 3d fc c9 04 3e fe 77 18 3e e6 4d 66 be
       0.10112272 0.12967676 0.14889523 -0.22490653
000090 71 72 fe bb 8a c8 47 3d 95 e0 b5 3d 20 2c 27 bd
       -0.0077651073 0.048775233 0.08880726 -0.040813565
0000a0 7b 66 e8 3d fa 01 07 be 96 eb d2 bc 1a b3 00 bd
       0.113476716 -0.13184348 -0.025747102 -0.031420805
0000b0 2c 19 ba 3d da fb 1e be 41 54 03 3c 92 c4 b0 3c
       0.090868324 -0.15525761 0.008015693 0.021578107
0000c0 4a a8 bb be 68 1e 0d bd 82 07 23 3d 03 72 7e bd
       -0.36651832 -0.034452826 0.039802082 -0.06212045
0000d0 84 5b 2c be c9 aa 86 3d 76 88 dd 3d 70 5a bc 3a
       -0.16831785 0.065755434 0.108170435 0.0014370214
0000e0 68 38 2f be e5 b0 f6 3d 42 9c ed bd 96 bc 83 3d
       -0.17111361 0.12045459 -0.116020694 0.06432454
0000f0 42 1a 62 3d 32 8e 5a 3d 13 1b 19 3d d3 c1 02 be
       0.055200823 0.053358264 0.037379336 -0.1276925
000100 13 48 de bd bf ce 19 be 67 4b 2e be 9c ae 94 3d
       -0.10853591 -0.15020274 -0.17020951 0.072598666
000110 a9 a0 02 be 99 c9 d0 bd b5 d4 1c be 6b 9b 15 be
       -0.127566 -0.10194702 -0.15315516 -0.14610069
000120 f5 41 60 3d 8e 08 e7 bc 19 84 27 bd 6a ce f8 bd
       0.0547504 -0.028202321 -0.040897463 -0.12148745
000130 ac 4e ea bb a9 37 d5 bd dc 7c 0d be 39 da 17 3e
       -0.0071504917 -0.10411007 -0.13817161 0.14829339
000140 13 19 22 bd 64 8a 04 be 5c 8c e1 bc 72 dd 09 be
       -0.039574694 -0.12943417 -0.027532749 -0.13463381
000150 f7 fe b2 bd f0 9c 17 bd ab 9b 80 bd 2c 82 2d be
       -0.08740037 -0.0370149 -0.06279691 -0.16944188
000160 86 7c ed 3c 27 a0 47 3d b3 3d 98 3d f6 b8 c2 3d
       0.028990041 0.048736718 0.07433643 0.09507935
000170 d8 ad f4 bd 3c 59 62 bd 8b e3 1a bd 9b 09 85 3d
       -0.119472206 -0.05526088 -0.037814658 0.06495973
000180 d9 93 b0 3d d1 3f 3a 3d 1d 94 e9 bd 3f ee dc bd
       0.0862195 0.045471016 -0.114052035 -0.10787629
000190 9e 0f 6e 3d b6 78 a5 bd f0 d7 e5 3b 2a 8f 93 3d
       0.058120362 -0.080796644 0.007014267 0.07205041
0001a0 c2 c9 cc bd a5 e2 25 bd 91 3b 89 3d 33 df 07 be
       -0.0999942 -0.04049935 0.067008145 -0.13268737
0001b0 27 d4 fd bd 9e e0 6b bd 95 14 9e 3d 9b 92 c6 3d
       -0.123939805 -0.05758726 0.077187695 0.096959315
0001c0 d0 5f bd 3d 73 9e d9 bb 4a 76 cc 3d 66 ef 8a bd
       0.092467904 -0.006641203 0.09983499 -0.06783943
0001d0 b3 a9 a3 bd 75 52 e1 3d fb 47 12 3d cc bf c9 3d
       -0.07991352 0.110020556 0.035713177 0.098510355
0001e0 f0 4d 42 3e fc 30 88 3d 5d 3b dd bd 61 f3 93 bd
       0.18975043 0.06649968 -0.10802338 -0.07224155
0001f0 94 e7 28 3c bc 6c 93 bd b7 cf ca 3d 3b 33 57 3d
       0.010309119 -0.07198474 0.099029 0.05253909
000200 7b 57 01 3d 9e 9d c1 3d c3 ad 05 3d 19 4d 3d 3d
       0.03157757 0.09453891 0.032636415 0.046216104
000210 81 a7 d3 3d 87 cb 74 3e 7e aa da 3d 94 b0 09 be
       0.10334683 0.23905765 0.1067705 -0.13446265
000220 2c d8 28 bd 5b 26 14 bd 6f 12 02 3e fe ca 72 be
       -0.041221783 -0.03616939 0.12702344 -0.23710248
000230 83 ca 06 3e 3b c8 7e 3d fe aa c7 bc 22 4f 69 3d
       0.1316319 0.062202673 -0.024373528 0.056960233
000240 7c 1a a4 3d 4b f7 95 3d 8b c2 ec bb 78 0a 58 ba
       0.08012864 0.07322558 -0.0072253398 -0.0008241306
000250 9c 2a e7 3c 45 ea a8 bd 6b d3 34 3e a7 f2 15 bd
       0.02821856 -0.08247808 0.17658775 -0.036608364
000260 dd d6 db 3b 01 5b d7 bd 35 77 d1 bc c7 4d ee 3d
       0.0067089633 -0.105154045 -0.025569538 0.116359286
000270 c0 bd 44 be 9e 5b b8 bc 24 a5 6f bd 4f bb cd 3d
       -0.19213009 -0.022504624 -0.0585071 0.10045492
000280 cd d8 40 3d 2b e0 e7 bd da a8 c0 bd b4 a3 b7 bd
       0.047081757 -0.113220535 -0.09407206 -0.08966771
000290 b9 c8 6b bd 9b dd ec bc 8e d9 d2 bd 18 6a 60 be
       -0.05756447 -0.028914263 -0.102954015 -0.21915472
0002a0 04 e2 ce bd 2c 00 c9 3d bc 5a 95 be 28 04 c9 bd
       -0.10101703 0.09814486 -0.29170787 -0.09815246
0002b0 de 7e a4 3d a9 d0 a4 3c c3 9d ba bd 47 25 fe 3c
       0.080320105 0.020119028 -0.09112122 0.031023635
0002c0 7e 11 24 3e 29 e3 c7 bd 8f 9e e8 bd 95 f8 cd 3d
       0.16022298 -0.09760124 -0.11358368 0.10057179
0002d0 27 02 85 bd 34 bc 97 bc 52 66 86 bd 0e 99 e6 3c
       -0.06494551 -0.01852236 -0.06562485 0.028149154
0002e0 84 60 85 bd 2c 2c 5f bc 0b b5 1c be 5b a8 a4 bd
       -0.065125495 -0.013621371 -0.15303437 -0.08039924
0002f0 57 6a a2 bb b2 67 f3 3c 0b 73 59 be 6c ba fd bd
       -0.0049565244 0.029712532 -0.21235292 -0.12389073
000300 53 74 e7 bd 4f fa d9 bd d1 96 04 3d da 52 b0 bd
       -0.11301484 -0.10643446 0.032370392 -0.08609553
000310 8e 70 a1 bd 5d 1d c4 3c ef fe fa bd 40 fd df 3d
       -0.07882796 0.023939783 -0.12255656 0.109369755
000320 34 18 b0 bd be f6 26 3d 2f 22 f9 bb bc 1e ed 3d
       -0.085983664 0.040762655 -0.007602952 0.11578128
000330 71 1e 94 be aa 76 04 be 6f 9e 07 3e a0 d5 77 bd
       -0.28929475 -0.12935892 0.13244031 -0.060506463
000340 96 70 bf bd 6b 7f 05 3d f3 9d e2 bd 9e 3d e1 3d
       -0.09347646 0.03259222 -0.11065283 0.10998081
000350 d2 bf 6e bd b6 15 b9 bd 39 b3 c6 3c 0e e1 a0 3a
       -0.058288403 -0.09037344 0.024255382 0.0012274103
000360 61 57 c2 3d c8 cb 8e bd 7b c8 ec 3d 92 4c 11 3e
       0.094893225 -0.06972462 0.11561676 0.14189366
000370 50 68 3b 3c 6a f8 d9 bd e1 ce 13 3d 2d c9 56 3d
       0.011438444 -0.10643084 0.036085967 0.05243795
000380 97 da d6 bd 85 ce a8 3d 2e b6 f9 3c 42 e9 61 be
       -0.104909115 0.082425155 0.030482378 -0.22061637
000390 14 0b 39 bd 16 32 6e bd 5c 3a a2 be 36 b8 16 3e
       -0.04517658 -0.058153234 -0.3168515 0.14718708
0003a0 30 1a be 3d 0f 14 54 bc a3 cd 01 be dd 4a e7 bd
       0.092823386 -0.0129442355 -0.126761 -0.11293576
0003b0 8e 5c 88 3d cb 2c 10 be ab 6d f8 3d bd 41 b6 bd
       0.066582784 -0.14079587 0.121302925 -0.08899257
0003c0 fd 45 6c 3c 16 8b b1 bd a7 88 0d be a0 fe cb 3c
       0.014420983 -0.08669107 -0.1382166 0.024901688
0003d0 a6 98 86 3d c1 7f 07 3d 91 5e 2a bd 05 cd 04 be
       0.06572084 0.03308082 -0.04159409 -0.12968834
0003e0 a9 1e ac 3d e4 2b 69 bd 99 6e 66 bc 86 77 f3 3c
       0.084042855 -0.056926623 -0.0140644545 0.02972008
0003f0 53 0f 19 39 5c 4c 16 be 76 2e d5 3c 0b 61 5b bd
       0.00014596926 -0.14677566 0.02602313 -0.053559344

2.bias f4 [5]
000000 7c 2d bd bd 1b 2c a0 be 3e b8 cf bd 37 cf 54 be
       -0.09237191 -0.3128365 -0.10142563 -0.20782171
000010 db c1 e4 3e
       0.4467915
