results/simple_nav_v1/1/model.pt (torch, 21556 bytes, 6 tensors)

net.0.weight f4 [64, 4]
00000000: af75 1a3f 46ac 4abd c82f 0bbf a033 bd3e
00000010: e4ef c0bc 057e a73e 154c e8bd 1419 4abe
00000020: ac8a 553e 4e38 333f 9e4a a8be ebd7 13bf
00000030: ee8c db3e 9cf3 29bf bde6 a6be bbb5 4a3f
00000040: 55ae 4b3f 3cf4 313e fce7 1dbf 96ca a93c
00000050: 8606 66be 5bfb df3e ce43 de3c 689c 47bf
00000060: 5d12 3e3f 2227 9d3e cd1e bc3e b14e adbe
00000070: d9d1 d2bd 16b7 b5bd 8a1c 053e 29a5 223d
00000080: e403 97be 504e 5d3d 59df 5c3e 695a 423c
00000090: f514 283e d724 17bf 1182 2e3d f656 233f
000000a0: a104 8ebe efd9 56be 6f7c 4b3e 493a 0f3e
000000b0: 007b b43d 02d1 ce3e 93eb 0cbd 1d8b 21bf
000000c0: c6a4 15bf 8219 f13c c64f e33e 9376 553e
000000d0: 0afd e43e 1931 08bf 8ec3 dcbe 87c7 823e
000000e0: 973f eabd dda9 a9bd 9408 193e 49c7 9cbd
000000f0: 0a81 cbbe c141 02bf 8449 6d3e ee4d 013f
00000100: bc96 383e 1ab7 033e 0b3f ca3e 302a cbba
00000110: b197 873d a0f4 9ebe 68ca 05be c94b cc3d
00000120: 5ad5 6fbd 795a c9be 20cb 4d3e fafc 123f
00000130: 76cd b8be 691c 2dbf c1de f93e ac7d 203f
00000140: 7675 3abf aaaa 44be f1e2 a63e ff67 09be
00000150: 9245 393f fa49 793e b4d2 12bf 1243 2bbe
00000160: 998e 93bd e94c 823e 1a5e 373d 14e0 95be
00000170: ac5a c0be c742 e2be dcf0 ec3e 33c7 433f
00000180: cf7d 253e 2c8f a4be 3b1e 0abf ac3c bf3e
00000190: b293 193f 9349 333f e0a8 f8be fa70 15bf
000001a0: 3220 a1be 0441 1c3d 41b3 203f d7aa 8abc
000001b0: 6792 11be 21a7 bebd 2a2e 953e 6665 203f
000001c0: 406d 94be 83f7 6b3e 2c99 a73e 61bb a5be
000001d0: ba87 a23e 18af 45bf 0776 9bbe 9de1 cd3e
000001e0: e087 ff3d 4e40 09be 48d7 6b3e 0289 f63e
000001f0: 86c1 1d3f 3a0d b7be c523 1bbf 54b0 5f3e
00000200: 87d8 a9be 34db e73e de16 363e 843d 30bf
00000210: 5883 81bb 48a5 f83e 8185 533e cae0 103f
00000220: d3af 09bf 4943 fc3e 59d7 043f 89ba c6be
00000230: 9cc9 3dbe 3e39 853e 13dd ec3d 6bb4 21bf
00000240: 121b 17bf 5145 0a3d 52e2 c43e 1e6c b2bd
00000250: b295 99be 4d28 473f 1d1d b43e 36f1 e0be
00000260: 79fd 97be 3bc2 ce3e 4796 d63e 645c debe
00000270: 2a29 23bf a408 d5be b870 e23e d24f 0c3f
00000280: 59c8 07bf 4497 203e 0e51 e13e e912 66be
00000290: c628 91bd 1b0f 0b3d 275a 83bd 221f 3cbd
000002a0: 3003 67be a438 25bf c191 483e ddfd 493f
000002b0: 747f 0c3f 8da8 90be f112 efbe ea05 8ebc
000002c0: 07da b43e 45d6 cf3e 7bcf 38be b084 13bf
000002d0: dd35 1a3e 640b 31bf f2e3 bc3d 4b01 1d3e
000002e0: 8a64 293f cd34 dc3e 55ca dabe 9b2d eabe
000002f0: b7cb 2a3e c973 c7bd 8c6b 83bd bd39 f53d
00000300: 7568 28bd 5890 00bd c77f 373d 9c55 bf3a
00000310: bc24 04bf 49ee 543e 71f3 d13e a901 5bbe
00000320: e3f5 1b3f 8de5 0d3e 2a04 15bf b76e 86bd
00000330: 8ec3 a6bd 72d5 b13d ba59 9c3d cd74 9abd
00000340: 76be 01bf 289a 963c 4811 833e 6534 593e
00000350: b25e 873c f74f 9b3d d713 c0bd 1286 1c3d
00000360: 2d04 c33e ed5c f63e d93e 3dbe 765b 0abf
00000370: e7d8 c7be b6ba 383e a553 843e 0586 2fbe
00000380: cc3f 11bf 51b2 e0bc 94a9 093f 89ee ddbd
00000390: 160c 26be 3bc5 343c 3d23 493c dd67 dc3d
000003a0: 1553 50bd a016 c5be 5019 de3d e8c2 f63e
000003b0: 0fac 133f 23d0 e6be db33 2abf 2e1f 363e
000003c0: 8b2f 41bf 581d da3e e7cc 113f 7101 90be
000003d0: 5684 fc3e eb0f d8bc a124 fcbe 93c7 503d
000003e0: fe71 483f 9e6d 023d decc 3ebf fb23 2b3e
000003f0: 9dcf 90be 793d b2be a307 62bd a368 c1bd
0.6033582 -0.0494807 -0.54369783 0.3695345 -0.023551889 0.32713333 -0.113426365 -0.19736129
0.2085368 0.7000779 -0.32869428 -0.5775134 0.42880958 -0.66387343 -0.32597914 0.7918355
0.79562885 0.17378324 -0.61682105 0.020726483 -0.22463426 0.43746457 0.027131941 -0.7797303
0.7424677 0.30693918 0.3674225 -0.338491 -0.102939315 -0.088728115 0.12999168 0.03970829
-0.29495156 0.054029763 0.21569575 0.011862376 0.16414244 -0.5904059 0.04260451 0.63804567
-0.27737907 -0.20981573 0.19871686 0.13987078 0.08812523 0.40393835 -0.03440435 -0.63102895
-0.5845455 0.029431108 0.443968 0.20846014 0.44724303 -0.5319992 -0.43117946 0.25542852
-0.1143791 -0.08284352 0.14944679 -0.07655198 -0.39746886 -0.5088158 0.23172575 0.50509536
0.1802625 0.12862816 0.39501223 -0.0015500244 0.0662073 -0.3104601 -0.13065493 0.09975392
-0.058553077 -0.39326838 0.20097017 0.5741726 -0.36094254 -0.67621475 0.4880276 0.6269176
-0.7283548 -0.19205728 0.32595018 -0.13418578 0.7237178 0.24344626 -0.5735276 -0.16724804
-0.07204933 0.25449303 0.044767477 -0.2927252 -0.37569177 -0.44191572 0.4627751 0.7647583
0.16161273 -0.3214048 -0.5395238 0.37350976 0.5999099 0.7003414 -0.4856634 -0.58375514
-0.31469876 0.03814794 0.6277352 -0.016927166 -0.14216004 -0.09309221 0.29136783 0.6265472
-0.289896 0.23043637 0.32734048 -0.3236952 0.31744176 -0.77220297 -0.30363485 0.40211192
0.12477088 -0.13403437 0.23031342 0.48151404 0.6162342 -0.3575228 -0.60601455 0.21844608
-0.3317301 0.45284426 0.1778216 -0.68843865 -0.003952425 0.485636 0.20656396 0.56593
-0.5378391 0.49270085 0.51891094 -0.3881419 -0.18533939 0.26020235 0.11565604 -0.6316592
-0.5902568 0.03375751 0.3845392 -0.08712028 -0.2999702 0.7779587 0.35178462 -0.4393403
-0.29685572 0.4038256 0.41911528 -0.43429863 -0.63734686 -0.41608155 0.44226623 0.54809296
-0.5304008 0.15682703 0.44007152 -0.22468151 -0.07087855 0.033949953 -0.064136796 -0.045928128
-0.2255981 -0.6453955 0.1958685 0.7890299 0.5488198 -0.28253594 -0.4669414 -0.017336804
0.35322592 0.40593162 -0.18047898 -0.5762434 0.1505961 -0.69158006 0.092231646 0.15332524
0.66169035 0.43009034 -0.42732492 -0.4573792 0.16679274 -0.09738881 -0.06416997 0.11973903
-0.041115243 -0.031387657 0.044799592 0.0014597657 -0.5161855 0.20794024 0.41006044 -0.21387352
0.6092207 0.13857098 -0.5820948 -0.06564086 -0.08142768 0.086832896 0.076343015 -0.07541809
-0.50681245 0.018384054 0.25599122 0.21211393 0.016524646 0.075836115 -0.09378784 0.038213797
0.38089123 0.48117772 -0.18481006 -0.5404581 -0.3903267 0.18039975 0.25845066 -0.17140968
-0.5673797 -0.027428778 0.5377438 -0.108365126 -0.16215548 0.0110333515 0.012276468 0.10761998
-0.050860483 -0.38493824 0.10844672 0.48195577 0.57684416 -0.4508067 -0.66485375 0.17785332
-0.7546317 0.42600513 0.5695328 -0.281261 0.49319714 -0.026374778 -0.49246696 0.05097158
0.7829894 0.03184282 -0.7453135 0.16712944 -0.28283396 -0.34812525 -0.055183064 -0.09443786

net.0.bias f4 [64]
00000000: 8de4 473c 3943 c1be fa29 043e e08a 18be
00000010: f07b c6bd 2dba 95be eee4 92bd 4afe 8fbe
00000020: b810 76be 5cdf 723c 5d15 9cbe 6b0e 90be
00000030: c9b9 e3be c70d 05be ef53 9cbe 3abe f4bd
00000040: bebb 93be 66b7 8ebe bafb 81be 8a5c 34bb
00000050: 7271 873d 1e70 eebd 770f abbe 518c 88be
00000060: 094a c3be 3072 15be 6587 483e d117 b6bd
00000070: 7ba4 9fbe 4078 cfbd b5b3 85be 236e 8abe
00000080: fe1a 7dbe ea6d 9ebe 6086 cabe 70f5 05be
00000090: 2b98 903b 44a1 99bc e2d2 97be a473 033c
000000a0: 8089 f5bd 7f8c 34be 5030 59be 14bc 0bbe
000000b0: 997a e3be bd81 1fbe ad30 f63c 0080 9bbe
000000c0: 9fe0 95be db70 18be 40af 9cbe e7d6 2fbe
000000d0: 30cc e63a 9adc 71be 67bc 5abe f58c adbe
000000e0: 3587 9abe 0ca9 a8be 66db f4bd b860 8fbe
000000f0: 6593 2a3e 67d3 8bbd 56ea 27be e962 64be
0.012200487 -0.377466 0.12906638 -0.14896727 -0.09691608 -0.29243603 -0.07172571 -0.28123695
-0.24029815 0.014823761 -0.3048505 -0.28136 -0.4447768 -0.12993537 -0.30532786 -0.11950345
-0.28854173 -0.27874297 -0.25387365 -0.0027520978 0.06613435 -0.116424784 -0.33410236 -0.26669553
-0.38142422 -0.1459434 0.19582899 -0.08891261 -0.31180176 -0.10130358 -0.26113668 -0.27037153
-0.24717328 -0.30943233 -0.39555645 -0.13081908 0.004412671 -0.018753655 -0.29653078 0.008023176
-0.11989117 -0.1763172 -0.21209836 -0.13645965 -0.44429472 -0.15576835 0.030052507 -0.30371094
-0.29272935 -0.14886801 -0.30602455 -0.17171822 0.001760846 -0.23619309 -0.21360932 -0.33896604
-0.3018128 -0.32941473 -0.119559094 -0.28003478 0.16657789 -0.06827431 -0.16397986 -0.22303356

net.2.weight f4 [64, 64]
00000000: e829 dbbc d34b 81be 5a7e 80be 0590 db3e
00000010: e994 44bd 7b39 94bd c356 8cbe c801 41be
00000020: 7b71 80be 4311 5d3e dc98 a23e a6d5 af3e
00000030: e3b9 f13d 4973 db3e ca08 15be b824 90bd
00000040: b14f 8a3d 71db 9b3d fd63 e4be 4d03 26be
00000050: 40f7 50be 56ba 3ebe 6257 533d 6f4e a33d
00000060: 54f3 8d3c 420a 48be 3628 203e e887 80bd
00000070: 9be0 14be 3272 8a3e df66 4cbe f9c5 c73e
00000080: 644d ea3d 0b48 283e e2ef 4ebe 9c97 9b3e
00000090: 1426 1ebe cc6c 3ebe d43b 963e 8a55 b43d
000000a0: a6cd 0cbe ad85 11be 1ea4 3b3e 3077 d03e
000000b0: ae20 ad3d c2aa 6b3e 862a 53be 187a df3d
000000c0: 297d 623e 65ea 1bbe 5e23 a9be f680 ca3e
000000d0: 1849 ea3d 3f42 a73e 3df0 343e a0f1 76bc
000000e0: b563 aebd 86f6 9a3e 48fc 9f3d 04c1 44be
000000f0: 5350 0fbf 10c0 853d abf7 83bd 6726 aebd
00000100: 526d c2be fb24 c23d 3ed4 133e dd60 91be
00000110: a6ed 2c3e 8a21 683e 9e28 81be ba40 84bd
00000120: 459e cebd ace7 0cbe a99a 3c3d f2ae 673d
00000130: 188f 21be 07d1 82bc 2ced 99be bf3c b1bd
00000140: d018 d3be 823c ddbd a805 81be 316f f5be
00000150: 1d5b c3be 8c0a 8a3e e1a1 b9be 41d5 5cbd
00000160: ddaa 85be 5bb5 b83e 9f1a 3cbe 007c 21bf
00000170: 9b61 333e c1f7 923c 25ef e93d d2cc 83be
00000180: ee06 a23e 5d31 243d 011f 983e 4e29 353e
00000190: b6c1 8fbe 16b6 123d c5b4 98bd 32dc 95be
000001a0: c611 36be 7dbd 5cbd c80d c03d acbf 06be
000001b0: 1866 673e d21b 25bf 3fbc b5bd 6a38 1ebc
000001c0: f76b 5539 5f00 90be 3af0 fe3d bf86 07be
000001d0: 4592 a3be b921 8fbd 97be 2f3e df9e 5e3e
000001e0: a824 e73c 388e b63d 99f4 debd 0c63 d3bd
000001f0: 202f 95be cac1 a6bd 4899 183f 631e 1ebf
00000200: fdbc 18bf 75d5 9fbe 1da2 44be 4ebd 84be
00000210: ff85 bebe 0333 873f 785b 38bd d398 d13c
00000220: e242 c9bc ddc5 40bb fdee 593e c29b 623f
00000230: 65cc c7bd 9d0b b1be b7f3 39be fa28 083e
00000240: 4407 94be b9fb 293e b9c8 44be ad76 cbbd
00000250: bf1a b0bb c090 dbbd 1b66 c83d 7f99 933d
00000260: 243d 4bbe f544 2fbd 8be9 b7bd e120 90be
00000270: fb16 fa3e cb59 95be c604 bebe b5c3 c3be
00000280: 8074 5e3f c6d0 963d 86ed 573f c587 b33e
00000290: f543 ea3d 6799 7c3e 3e9a 1a3f a293 263c
000002a0: b90e 073f dc28 a53d a4be babe 1594 afbe
000002b0: 222d d73e 2e25 e1bd 02fb 8c3c 8d99 1d3d
000002c0: 8e50 d93e 4493 023f 9e52 0abe df23 223e
000002d0: b14e 09bf b6cb d6bc e6cb 163f 16c3 bc3e
000002e0: 2014 b63e 83c7 683d 923c 55bd b4b8 ddbd
000002f0: daf6 a13e fad6 d8be d757 923d 63b0 173d
00000300: 5b20 1cbf e5f4 0cbf 0fb1 d8be c299 f3bd
00000310: ff9d adbe 3272 a63d 6d7a 653e 7959 22be
00000320: 8d7e 3a3e 6b9b a4bc 4921 143d adfd bfbc
00000330: 1e6e 4d3d 3883 953d 0161 b1be 6fbd 823e
00000340: 1c82 0b3e 98cd c5be 6655 153e d82c 163f
00000350: 2a72 253d fbff a0bd 79f1 493e fc9b 1b3e
00000360: 5239 2ebe 5e82 08bf 2481 853e ad4e e63e
00000370: 2b43 64bc 92c6 aa3e b1f0 1fbe 99cc d33c
00000380: b754 0ebf 2787 a9be 7031 a3bd 3df8 33bf
00000390: f27b ee3e 7a66 24bc 9448 3fbe 0f2a 9c3e
000003a0: c6ff 7abd 8931 a5be dfc2 a73e a39f 63be
000003b0: af7f 89bd 5116 22bd 0e8a 4dbf eda4 98be
000003c0: 088c 423e 30d4 9abe 6e5a dd3d 11f8 a63e
000003d0: 9e90 8e3e 9e4a 143e 813b a9be 6a64 08bd
000003e0: 2293 ab3e e5fc f13d 4980 213d 9255 36be
000003f0: 7b5b b0bd ed65 1d3d bb1c bdbe 3239 8bbe
-0.02675338 -0.25253162 -0.250964 0.42883316 -0.047993574 -0.07237526 -0.27409944 -0.18848336
-0.2508658 0.21588616 0.31757247 0.34342688 0.11803033 0.42861393 -0.14554134 -0.070382535
0.06753481 0.076102145 -0.44607535 -0.16212197 -0.20406818 -0.18625769 0.051597007 0.079739444
0.017327942 -0.19535163 0.1564034 -0.06275922 -0.14538805 0.2704025 -0.19961117 0.3901823
0.11440542 0.16433732 -0.20208696 0.30389106 -0.15444213 -0.1859619 0.2934252 0.08805378
-0.13750324 -0.1421115 0.18324324 0.40715933 0.08453499 0.23014358 -0.2062169 0.109119594
0.22118057 -0.15226133 -0.33034796 0.39551514 0.11439723 0.3266773 0.17669769 -0.015072256
-0.08515111 0.30266207 0.07811791 -0.19214255 -0.5598194 0.06530774 -0.06443723 -0.085034184
-0.3797403 0.0947971 0.14436433 -0.28394213 0.1688753 0.22669044 -0.252263 -0.06457658
-0.10088781 -0.13760251 0.046045933 0.056563325 -0.15777242 -0.015968813 -0.3006376 -0.086541645
-0.41229868 -0.108025566 -0.25199628 -0.47936395 -0.3815545 0.26961172 -0.36256316 -0.053914312
-0.2610692 0.36075863 -0.1836953 -0.63079834 0.17517702 0.017940404 0.11422566 -0.25742203
0.31645912 0.04008614 0.29711154 0.17691538 -0.28077477 0.035818182 -0.07456354 -0.29269558
-0.17780218 -0.053891648 0.093776286 -0.13159055 0.2259754 -0.64495575 -0.08873796 -0.009657005
0.00020353483 -0.28125283 0.12448163 -0.13234995 -0.31947532 -0.06988854 0.17162548 0.21740292
0.028215721 0.08913845 -0.10886497 -0.10321626 -0.29137516 -0.08142431 0.5960889 -0.61765116
-0.59663373 -0.31217542 -0.19202466 -0.25925678 -0.37211606 1.0562443 -0.045009106 0.025585568
-0.024568025 -0.002941481 0.21282573 0.8851892 -0.09755782 -0.34579173 -0.18159376 0.13296881
-0.28911793 0.16599931 -0.19217195 -0.09934745 -0.005374282 -0.10720968 0.097851 0.072070114
-0.19847542 -0.042790372 -0.08980092 -0.28150085 0.48845658 -0.2917007 -0.37113017 -0.3823525
0.86896515 0.07364039 0.84346807 0.3506452 0.11438743 0.24667893 0.60391605 0.010167034
0.5275684 0.08064434 -0.36473572 -0.34292665 0.4202662 -0.109934196 0.017209534 0.038476516
0.4244427 0.5100596 -0.13508078 0.15833996 -0.536357 -0.026220184 0.58904874 0.3686759
0.3556223 0.056830894 -0.052059717 -0.10826245 0.31633645 -0.42351514 0.0714566 0.03703345
-0.6098687 -0.5506118 -0.42322585 -0.11894561 -0.33909604 0.0812725 0.22409983 -0.15854444
0.18212338 -0.02009364 0.036164556 -0.023436392 0.050153844 0.073004186 -0.3464432 0.2553515
0.13623852 -0.38633418 0.14583358 0.58662176 0.04039208 -0.078613244 0.19721021 0.15196222
-0.17014053 -0.53323925 0.2607509 0.449819 -0.01393203 0.33354622 -0.1561916 0.025854396
-0.55598015 -0.33110926 -0.07968414 -0.70300657 0.46578938 -0.010034198 -0.1868003 0.30500838
-0.06127908 -0.32264355 0.32765862 -0.22228865 -0.06713807 -0.039572064 -0.8028878 -0.29813328
0.1899873 -0.3024001 0.10808264 0.32611135 0.2784471 0.14481589 -0.3305321 -0.033298887
0.3351069 0.11815814 0.039428983 -0.1780608 -0.086111985 0.038427282 -0.36935982 -0.27192074

net.2.bias f4 [64]
00000000: f35d 1cbe 53ee adbe a5c5 b4be a0ba 44be
00000010: 4b88 b7bd 9ebc 97be 2230 b2be 0df4 27be
00000020: ea36 f7bd e99c 9fbe 0867 fdbd 43c3 b8be
00000030: 4668 1fbe 6b2b edbe 249f 563e 9709 dcbe
00000040: 9f22 94bd da8c c2bd f74e fd3b e119 aebd
00000050: 1f90 4bbd fafa c4be 3a22 c6bd f85c 91bd
00000060: 7df4 21be 4afb 97bd 9b86 0bbe aeb4 c6be
00000070: 8341 93be 62a9 79be bf0e f7bc f535 82be
00000080: 017b aebe cb1a 05be 546f ebbd 9b1a 4f3d
00000090: cf35 99be 2b02 72be 6322 f2bd 3aef 95be
000000a0: b229 c3be 98f2 94be d30f a7bd e44b 86be
000000b0: a0a8 bfbc 930a 94bd 90d5 35be 30c3 53be
000000c0: 192c 88be 3c40 123e 03c3 8fbe 2bc4 f7bc
000000d0: 2258 b9be 3ae2 63be 31e8 afbe 6762 cabe
000000e0: c811 a7be d025 a3be 401e 1abe 848b 50bd
000000f0: 915e ebbd e29a b6bd 706d 4ebe b89a a7be
-0.15270214 -0.3397089 -0.3530704 -0.19211817 -0.08961543 -0.2963609 -0.34802347 -0.16401692
-0.12071021 -0.311744 -0.12373167 -0.36086473 -0.15567121 -0.46322188 0.20959145 -0.42976066
-0.07233166 -0.094995216 0.0077303606 -0.0850103 -0.04969799 -0.3847273 -0.09674497 -0.070978105
-0.15815921 -0.074209765 -0.13625567 -0.38809723 -0.2876092 -0.2438102 -0.030158399 -0.2543179
-0.3407822 -0.12998502 -0.114958435 0.050562482 -0.29923865 -0.2363364 -0.11822965 -0.29284078
-0.38117748 -0.29091334 -0.08157315 -0.26229775 -0.023395836 -0.07228579 -0.17757249 -0.20679927
-0.26596144 0.14282316 -0.2807847 -0.030244907 -0.36200052 -0.22254267 -0.34356835 -0.395282
-0.32630754 -0.31864786 -0.15050602 -0.050914302 -0.114926465 -0.0891626 -0.20158935 -0.3273523

net.4.weight f4 [5, 64]
00000000: 494e fabe 2a1c abbe 5829 dfbe bd8e 7d3e
00000010: ac4d 033e 221c 1c3e 1f5b 253d 36b2 14be
00000020: f721 fdbd 04d9 87be 2b4e 7d3e 3f21 47be
00000030: 3b9f 703e 9638 a23c 8f21 ae3e 3ff9 89be
00000040: 72be 983d 290a 0a3d 6664 52be 1576 e33e
00000050: f97d a8be 4944 78bf 70cf 783d 8b55 5f3e
00000060: 2cd3 91be 8d92 bf3d 60a7 9f3e 32eb 22bf
00000070: 5848 a03d dbdf 80be 447f 0e3f efb6 543e
00000080: ec67 2f3e 9f1f fbbe 628c c23d 041e 923e
00000090: 0e01 c3bc 2919 613d de6d 6a3e 18f7 773e
000000a0: 124d a6bf 0348 253d 5ecf 783d 7c94 07be
000000b0: f88d cb3e 20b1 acbe 2d59 1dbe 2079 57bd
000000c0: 7d90 2abe 2723 0fbe c37e 9bbe 35ec 453e
000000d0: b03a 0bbf c9fc 0abe d278 ab3d 7d9e b1be
000000e0: 7bb6 343e 5413 783e 7b1c 5fbe 5b4f 63be
000000f0: 4361 9e3e d1a0 333e 8aab 73bd 0584 55be
00000100: 4475 91bd 05be 1dbe ac8e 553e d780 9b3e
00000110: 5d83 95bc b636 0bbf 4fcd 80be 05da 0bbe
00000120: 86c6 393e 7c79 90be 17bc e73d a8e1 8e3e
00000130: 6826 b33e 6738 13bf 6de7 8f3e ffaf 973e
00000140: 41bf 41be e7c7 5cbe dba4 413e 287d 833e
00000150: d3cf 153e b9d6 f0bd d7d4 64bf 4d33 3b3e
00000160: 64fe bebe 030d 8f3e cb70 933e 5f4d 283e
00000170: 79e9 8ebe c49a b43d e471 8d3e 9e7d abbe
00000180: 2518 0fbe 4a7b 923e bbfc 763e d9e8 e43e
00000190: a14f c43d 8825 da39 a828 643e ea1c 4e3e
000001a0: 3f9f c5bd f479 8fbd e234 b43d 6a47 653e
000001b0: 0c95 0ebe ebf0 d93d 02e0 7c3e 6872 c73d
000001c0: 2352 d4be 4f1a c53e 0d18 0abd abb8 cb3d
000001d0: 0e9a 613d d1aa 603e d497 7abe 6ab6 c83e
000001e0: 9f82 53be cbed 1d3c e8e2 2ebc 506c 743d
000001f0: 1165 e2be 483b dabd adc7 f8bd 0508 83be
00000200: daea a93d 8604 043e 5e01 48bf 8ff2 a33d
00000210: b73a a83d 72b5 a43e b207 25be 8dea 62be
00000220: 27bf 2e3e fb94 8fbe 78ea 9cbe 9393 aa3e
00000230: 9ac0 c0bd 36a7 6b3e 79db 813c b4e7 e9bd
00000240: c403 163e ce0f 943e c567 953e eeff c63e
00000250: a348 6e3e a417 ea3e cc4d f23e d85d b73d
00000260: 8852 203d f036 1a3e cf79 b83e 43f4 933e
00000270: c8f6 143e b6d1 3bbd b8c7 b1bc a911 9d3e
00000280: f43c 5d3d 177f 16bd 150e 0e3d e294 4dbf
00000290: 1f97 8d3e cf38 e5bd 4e6b 90be 059e 15bf
000002a0: 8271 8a3d 7545 98be 48df 49bb 8f69 eebe
000002b0: 05e2 9a3e 0434 863d 7c6f e13e 2eed dcbe
000002c0: ac8f 2d3e 693b a3be 4aa3 de3e a5bc 41bf
000002d0: 8647 a2be 7417 633d c0ef 953e f2bb ad3d
000002e0: 754f c33e c61a cc3d 34ab 243b 73d0 87be
000002f0: 6942 9f3e cd62 98bd fe79 e23d cd87 a23d
00000300: c89e d03e e89b 273d 8d40 033d 71a6 b03e
00000310: 1ea3 38bc a305 ba3e 8e53 3abf 5cc2 45bc
00000320: f3fe a43e db2f d8be 36ca 843d 241d 623e
00000330: ee80 dfbd 8f46 00be b739 0cbf c398 363e
00000340: 5d20 c13c dc2c cebd d558 6ebe 30d5 8cbf
00000350: 803f d23d 99d2 ef3e 917e 8abd 7179 243d
00000360: 5400 383d 7631 00bf 0be2 99be 2aab b63e
00000370: 30a8 6dbc 8738 a8be 16b6 bfbe afcb ad3c
00000380: 24ac 2bbe bc84 5dbd c8d4 3c3d 911e 983e
00000390: 3ef7 1abe f669 4b3e 4369 9d3e 2afe 113e
000003a0: beeb 613d d4bb 4a3e 9809 cabe eb73 063e
000003b0: 65e7 1abc 2404 cbbe fbd3 e53e 0dc5 e23e
000003c0: 918d a4be 00bd 853e b1e8 e13d 3b9e 4bbe
000003d0: c390 24be 8237 cabe 6ff5 f4be 7b63 cd3e
000003e0: edc0 8abe e0e0 95bd d8ce ccbd 24ba ab3e
000003f0: befe b4bd 71d5 8e3e 0c24 7abe 28bd dd3c
-0.48887852 -0.33419925 -0.4358623 0.24761482 0.12822598 0.15245107 0.040370103 -0.14521107
-0.12359994 -0.26532757 0.2473685 -0.19446276 0.23498242 0.019802373 0.34009978 -0.26947972
0.074581996 0.033701096 -0.20546111 0.44426027 -0.3290861 -0.96979195 0.060744703 0.21809976
-0.28481424 0.09354124 0.31182384 -0.6364013 0.078262985 -0.25170788 0.5566294 0.20772909
0.17129487 -0.49047562 0.09499432 0.28538525 -0.023804214 0.054955635 0.22893474 0.24215353
-1.299227 0.04035188 0.060744636 -0.13240236 0.3975675 -0.33728886 -0.15366049 -0.05260575
-0.1665668 -0.13978253 -0.3037015 0.19328387 -0.54386425 -0.13572992 0.08372654 -0.3469123
0.17647736 0.24226123 -0.21788208 -0.2219824 0.3093358 0.17541815 -0.059489764 -0.20851143
-0.07102445 -0.15404518 0.20855206 0.30371734 -0.018251115 -0.5438036 -0.25156638 -0.13657387
0.18142137 -0.28217685 0.11315172 0.27906537 0.3499024 -0.5750794 0.2810625 0.29626462
-0.18920614 -0.21560632 0.18910544 0.25681424 0.1463006 -0.11759705 -0.8938727 0.18281288
-0.3730346 0.27939615 0.28796992 0.16435765 -0.279125 0.08818582 0.27625954 -0.33494276
-0.13974054 0.28609687 0.24119847 0.447089 0.095855005 0.00041608163 0.22281134 0.20128217
-0.096495144 -0.070056826 0.08799149 0.22390524 -0.13924044 0.106416546 0.24694827 0.09738618
-0.41468915 0.38496634 -0.033714343 0.09947332 0.05507856 0.21940161 -0.2447198 0.3920167
-0.20655297 0.009639214 -0.010674216 0.059673607 -0.44217733 -0.10655838 -0.1214746 -0.25592056
0.082967475 0.1289235 -0.78127086 0.08005249 0.08214324 0.32169682 -0.16116217 -0.22159787
0.17065106 -0.2804335 -0.30647635 0.33315715 -0.09411736 0.23013005 0.015851723 -0.11421147
0.14649874 0.28918308 0.29180732 0.38867134 0.23269896 0.4572116 0.4732498 0.08953446
0.039141208 0.1506002 0.36030433 0.28897294 0.14547265 -0.045854293 -0.021701679 0.30677536
0.054013208 -0.036742296 0.0346814 -0.803053 0.2765436 -0.11192476 -0.28206867 -0.58444244
0.06759931 -0.29740492 -0.0030803252 -0.4656491 0.30250564 0.0655289 0.44030368 -0.43149704
0.16949338 -0.31881264 0.43483955 -0.75678474 -0.31695193 0.05544229 0.29284477 0.08483113
0.38146558 0.09966044 0.002512646 -0.26526222 0.31105354 -0.0744072 0.110584244 0.07936058
0.4074614 0.04092017 0.032043982 0.34501985 -0.011269359 0.36332425 -0.72783744 -0.012070265
0.3222576 -0.4222401 0.06483881 0.22081429 -0.10913263 -0.12526916 -0.54775566 0.17831711
0.023575002 -0.1006715 -0.23276074 -1.100256 0.10266018 0.4684036 -0.06762422 0.040154878
0.044922188 -0.5007547 -0.3005527 0.35677463 -0.014505431 -0.32855627 -0.37443608 0.021215288
-0.16764885 -0.054081663 0.04610136 0.2971082 -0.15133378 0.1986464 0.3074437 0.14257112
0.055156462 0.19798213 -0.39460444 0.13130157 -0.009454583 -0.39651597 0.4488829 0.44290963
-0.32139257 0.26120758 0.110307105 -0.19884579 -0.16070847 -0.39495474 -0.478435 0.4011496
-0.27100316 -0.07318282 -0.1000039 0.33540452 -0.08837651 0.27897218 -0.24427813 0.027067736

net.4.bias f4 [5]
00000000: 1177 653d 7b8b 1e3e e993 953d 121e 19be
00000010: 30dc c8bd
0.056021754 0.15482895 0.07303602 -0.14952877 -0.098076224
