results/simple_nav_v1/1/model.pt (torch, 21556 bytes, 6 tensors)

net.0.weight f4 [64, 4]
0	0xbf022dee	-0.50851333
1	0xbe9ca9eb	-0.30598387
2	0x3ebfda86	0.37471408
3	0x3e297040	0.16546726
4	0x3eb11824	0.3458873
5	0xbf07ab97	-0.529962
6	0xbe821db5	-0.2541329
7	0x3f05cbf7	0.5226435
8	0xbcff11ff	-0.03113651
9	0xbe14cd89	-0.1453153
10	0x3dd8be1c	0.105831355
11	0xbe13a834	-0.14419633
12	0x3e471a14	0.19443542
13	0x3db602b8	0.08887237
14	0xbeb3765d	-0.35051242
15	0xbd9f0875	-0.07765285
16	0xbea95b89	-0.33077648
17	0x3c963663	0.01833648
18	0x3f55127a	0.8323132
19	0x3bd262d3	0.006420472
20	0xbef18598	-0.47172236
21	0xbfa49f5d	-1.2861134
22	0x3e3b62ec	0.18299454
23	0x3fc8359a	1.5641358
24	0xbd7d3705	-0.06182005
25	0xbde9c0f1	-0.11413754
26	0xbc58c2ed	-0.013230068
27	0x3de8236d	0.11334882
28	0x3d9f2d2d	0.077722885
29	0xbd78812f	-0.060670074
30	0xbdeddfdf	-0.11614966
31	0xbe22acd6	-0.15886244
32	0xbf6d56fd	-0.9271086
33	0x3f96bb05	1.1775824
34	0x3f8e1949	1.1101466
35	0xbf958cee	-1.1683633
36	0xbee0a823	-0.43878278
37	0xbfb466fe	-1.4093931
38	0xbd42defd	-0.04757594
39	0x3fda7c8f	1.7069262
40	0x3eaebbd0	0.34127665
41	0xbea41fca	-0.32055503
42	0xbf0774ea	-0.5291277
43	0x3e593840	0.21212864
44	0xbf3165c7	-0.69295925
45	0xbe8d0afa	-0.27547437
46	0x3f213a23	0.62979335
47	0x3def4f40	0.116850376
48	0xbe6bb5e2	-0.23018602
49	0xbea53c48	-0.32272553
50	0x3ee154ed	0.44010106
51	0x3f44e0db	0.769056
52	0x3d906ce5	0.0705202
53	0xbdc229f7	-0.094806604
54	0x3bf46b68	0.007459093
55	0x3d4fcbd5	0.0507315
56	0x3dd7b72c	0.10532984
57	0xbd195d0d	-0.037442256
58	0xbe82b610	-0.25529528
59	0x3ce54c86	0.02799059
60	0x3e87fb4d	0.26558915
61	0xbe498195	-0.19678338
62	0xbeee099d	-0.4649171
63	0x3eb55eda	0.35423928
64	0x3ef959d5	0.4870135
65	0x3d57f642	0.052725084
66	0xbf0a0ff9	-0.5393062
67	0xbbc148cb	-0.00589857
68	0x3e84e064	0.25952446
69	0x3e6e4dcf	0.23271869
70	0xbf10e29e	-0.5659579
71	0xbe89e574	-0.2693287
72	0xbde02551	-0.109446175
73	0xbf1108be	-0.56653965
74	0xbdbe6c6f	-0.09298026
75	0x3f83f62b	1.03095
76	0x3e5f43ac	0.21803159
77	0xc0205c4d	-2.5056336
78	0xbe19d7c9	-0.15023722
79	0x401fad89	2.4949667
80	0x3e8dde5f	0.27708718
81	0xbef53fbd	-0.4790019
82	0xbeb10e1a	-0.3458107
83	0x3ebaac48	0.36459565
84	0xbeb26254	-0.34840643
85	0xbdd03c9e	-0.10167812
86	0x3ec871e2	0.39149386
87	0xbd655ebb	-0.055998545
88	0xbe0c0b70	-0.13676238
89	0xbec6dfc0	-0.38842583
90	0x3e8e24d7	0.27762482
91	0x3f8cc834	1.0998597
92	0x3e64673c	0.22305006
93	0x3c824129	0.015900211
94	0xbdd59b08	-0.104299605
95	0xbd2e0fe5	-0.042495627
96	0x3e94d404	0.29068005
97	0x3e292366	0.1651741
98	0xbebd8e53	-0.37022647
99	0xbd854392	-0.06507029
100	0x3e14be60	0.14525747
101	0x3dd910d4	0.10598913
102	0xbeea0e57	-0.45714065
103	0xbd88b1bc	-0.06674525
104	0xbe38d6f3	-0.18050747
105	0x3d631185	0.05543663
106	0xbd8f5b99	-0.06999893
107	0x3d97685a	0.0739295
108	0x3ecf3300	0.40468597
109	0xbf880ddd	-1.0629231
110	0xbf067152	-0.52516663
111	0x3faf5cb8	1.370017
112	0xbeed61b9	-0.4636362
113	0xbe5a22d6	-0.21302351
114	0x3ed99c71	0.42502168
115	0x3dd56598	0.10419768
116	0x3c3634f7	0.011121026
117	0x3d3cf827	0.046135094
118	0xbdea5be0	-0.11443305
119	0x3d9f273c	0.07771155
120	0xbd82a967	-0.06379967
121	0xbcd1c84c	-0.025608204
122	0xbdf82bff	-0.121177666
123	0x3d962108	0.07330519
124	0xbe993972	-0.2992664
125	0xbdf0c791	-0.11756814
126	0x3eb8b427	0.36074945
127	0x3e8449ba	0.258375
128	0xbd3836e0	-0.044974208
129	0xbd9c5714	-0.07633796
130	0x3e182080	0.14856148
131	0xbd9ef07f	-0.07760715
132	0x3e1c3a93	0.1525672
133	0xbdaa1e21	-0.08306528
134	0x3e1ca67d	0.15297885
135	0x3e77bc01	0.24192812
136	0x3f6dbbb2	0.92864525
137	0xbf819bd5	-1.0125681
138	0xbf87d5f8	-1.0612173
139	0x3f56166e	0.83627975
140	0xbfc7abde	-1.5599325
141	0xbebe3b15	-0.3715445
142	0x3fbd5c5f	1.4793814
143	0x3e9836d5	0.29729334
144	0xbe2b3886	-0.1672078
145	0xbc52b0b0	-0.012859508
146	0x3ef2d9b6	0.47431725
147	0xbe39313f	-0.18085192
148	0xbe5c6895	-0.2152427
149	0xbeb7c323	-0.35891065
150	0xbd0fea9d	-0.035135854
151	0x3ed01e82	0.40648276
152	0xbffef0f3	-1.9917282
153	0x3ea2ff8f	0.318356
154	0x40033445	2.0500653
155	0xbe507576	-0.20357308
156	0x3d67ebab	0.056621235
157	0xbd1d4cd4	-0.038403347
158	0x3e0405ca	0.12892833
159	0x3d5e9b52	0.054347344
160	0x3e125987	0.14291964
161	0xbc2b95b5	-0.010472705
162	0xbe8d71e4	-0.27625954
163	0x3d3ac907	0.04560187
164	0x3e0bd13d	0.13654037
165	0x3c9820b0	0.018570274
166	0xbed6f845	-0.4198629
167	0x3cd98dee	0.026556935
168	0xb98366f5	-0.00025062976
169	0x3dddbd39	0.10827107
170	0x3df9560c	0.12174615
171	0xbd0cb48b	-0.034351867
172	0x3fcd986e	1.6062143
173	0xbe9487d3	-0.29009876
174	0xbfe48a94	-1.7854791
175	0x3ed61e11	0.41819814
176	0x3f2a70b2	0.6657821
177	0x3ff939e7	1.9470795
178	0xbf1a2f5b	-0.6022851
179	0xc000d651	-2.0130808
180	0xbd285bf2	-0.04110331
181	0xbde3fbbe	-0.111320004
182	0xbd1ac1ca	-0.037782468
183	0x3b587f5f	0.0033034903
184	0x3f0bb174	0.54567647
185	0xbe0a07fb	-0.13479607
186	0xbe9d9086	-0.30774325
187	0x3a6e4014	0.0009088528
188	0x3e9d998e	0.30781215
189	0x3dcfa5d7	0.10139053
190	0xbf149b3c	-0.5804937
191	0xbe274183	-0.16333584
192	0xbf75e4d7	-0.96052307
193	0xbe9f288a	-0.31085616
194	0x3f9100ec	1.1328406
195	0x3f080ebb	0.53147477
196	0xbef2e84d	-0.47442856
197	0x3ce48add	0.027898246
198	0x3f11881d	0.5684832
199	0x3ce687f2	0.028140996
200	0x3e64e0dc	0.22351402
201	0xbe3deee6	-0.18548164
202	0x3de67b03	0.112539314
203	0x3db8945f	0.090126745
204	0xbee14892	-0.4400068
205	0x3d1cdf3d	0.038298834
206	0x3f0da1e5	0.55325156
207	0xbe06a94c	-0.13150519
208	0x3e538dbc	0.20659536
209	0x3d3b775f	0.045768138
210	0xbee00845	-0.4375631
211	0xbe65add4	-0.22429591
212	0x4011d7b0	2.2787895
213	0xbe14447a	-0.14479247
214	0xc01c8c67	-2.4460695
215	0xbc0ba609	-0.008523473
216	0x3e9a4b3c	0.30135524
217	0x3ee6ab55	0.4505259
218	0xbe7077cb	-0.23483197
219	0xbf0a18af	-0.53943914
220	0x3e718300	0.23585129
221	0xbbc04dd3	-0.0058686524
222	0xbda12677	-0.07868665
223	0x3d499141	0.04921079
224	0x3e692e75	0.22771628
225	0x3dd1bbd1	0.10240901
226	0xbe9b7a1a	-0.30366594
227	0xbd4481f6	-0.047975503
228	0x3f7cd53d	0.98762876
229	0x3ebc0760	0.36724377
230	0xbf659ca9	-0.8969217
231	0xbed846a0	-0.42241383
232	0xbf4967ad	-0.7867382
233	0x3f282d1d	0.6569384
234	0x3f60632b	0.8765132
235	0xbf43bd41	-0.76460654
236	0x3d886361	0.0665958
237	0x397a186b	0.00023850954
238	0x38328077	4.255815e-05
239	0x3da47e1b	0.08031865
240	0xbdb64d1d	-0.08901427
241	0x3d8f4805	0.069961585
242	0xbd47e889	-0.048805747
243	0x3c3a8509	0.011384257
244	0x3d5d15bb	0.053975802
245	0xbd6b70bf	-0.05748057
246	0xbdb1147c	-0.08646485
247	0xbc1e8c33	-0.009676981
248	0xbde298ee	-0.11064325
249	0x3c1cc245	0.009567802
250	0x3f06865b	0.5254876
251	0xbe7f0a3d	-0.2490625
252	0xbf061ac2	-0.5238458
253	0x3d9eef7e	0.07760523
254	0x3f22c3bd	0.6357992
255	0x3d78050d	0.06055169

net.0.bias f4 [64]
0	0xbf91b5ea	-1.1383641
1	0xbfa8fa99	-1.3201476
2	0xbebd7cc8	-0.37009263
3	0xbf218879	-0.63098866
4	0xbfa770a3	-1.3081249
5	0xbfa6f573	-1.3043655
6	0xbe9229cf	-0.28547522
7	0xbf0f0345	-0.55864364
8	0x3cac019e	0.020996865
9	0xbfabbe51	-1.3417455
10	0xbf9c1a04	-1.2195439
11	0xbe9dc7ba	-0.30816442
12	0xbfb6c0db	-1.4277605
13	0xbe46433a	-0.19361582
14	0xbeedac7e	-0.46420664
15	0xbf9155dd	-1.1354328
16	0xbf70d672	-0.9407722
17	0xbf93bd7d	-1.1542202
18	0xbfc03636	-1.5016544
19	0xbe922cd3	-0.28549823
20	0xbf8fdfe0	-1.1240196
21	0xbf794c53	-0.97382087
22	0xbfbaf1aa	-1.4605
23	0xbed7c89f	-0.4214525
24	0xbf40fe9e	-0.75388515
25	0xbf3c0713	-0.73448294
26	0xbeb85d7b	-0.3600882
27	0xbfe210b5	-1.7661349
28	0xbf9e339b	-1.2359499
29	0xbf1c8c8f	-0.61151975
30	0xbe8096b0	-0.25114965
31	0xbf5e11d6	-0.86745965
32	0xbf70daff	-0.9408416
33	0xbf098ee0	-0.53733635
34	0xbf89271b	-1.0715059
35	0xbf84c85e	-1.0373647
36	0xbf86fdd5	-1.0546213
37	0xbf5ce241	-0.86282736
38	0xbe1d9226	-0.15387782
39	0xbe6a4488	-0.22877705
40	0xbf0f8f87	-0.5607838
41	0xbf38da12	-0.7220775
42	0xbe8139f3	-0.25239524
43	0xbf8620b6	-1.0478733
44	0xbe9105a1	-0.28324607
45	0xbe5a127a	-0.21296111
46	0xbf628ce7	-0.8849625
47	0xbf7cb530	-0.9871397
48	0xbf9a8272	-1.2071059
49	0xbf8b5cc5	-1.0887686
50	0xbf06a4cd	-0.52595216
51	0xbf93852e	-1.1525018
52	0xbf49d6ef	-0.7884359
53	0xbed18a92	-0.40926033
54	0xbfa00e88	-1.2504435
55	0xbebf4ed8	-0.3736484
56	0xbf26d2f9	-0.6516567
57	0xbf9c59c1	-1.2214891
58	0xbfaae9d3	-1.3352607
59	0xbe267985	-0.16257294
60	0xbe4e4b6f	-0.20145963
61	0xbe8a4ec5	-0.2701322
62	0xbf74454d	-0.95418245
63	0xbf8d63c9	-1.1046077

net.2.weight f4 [64, 64]
0	0xbf355f98	-0.7084899
1	0xbe39e159	-0.1815237
2	0x3de4ac06	0.11165623
3	0xbda570e0	-0.0807817
4	0xbe727e41	-0.23680975
5	0xbe0f662d	-0.1400382
6	0x3e0ae637	0.13564382
7	0x3b8deff9	0.0043315855
8	0x3efe8c74	0.49716532
9	0xbe9118c9	-0.28339222
10	0xbed7b222	-0.42128092
11	0xc088140b	-4.2524467
12	0xbe386e22	-0.18010762
13	0xbe9df296	-0.3084914
14	0xbe5c9098	-0.21539533
15	0xbef932fa	-0.48671705
16	0x3eb1981e	0.3468637
17	0x3f85d1e4	1.0454679
18	0xbd5b129b	-0.05348454
19	0xbf19e118	-0.6010909
20	0xbd96bdbc	-0.07360408
21	0xbe5609a6	-0.20902118
22	0x3e1b558b	0.15169351
23	0xbe05071b	-0.12990992
24	0xbe85b9ca	-0.26118308
25	0x3e473e36	0.19457325
26	0x3ce0d9c4	0.027447589
27	0x3e29c724	0.16579872
28	0xbf518de6	-0.81857145
29	0x3f85435d	1.0411183
30	0xbecdeeea	-0.4022134
31	0xbf4227b0	-0.7584181
32	0xbf97e164	-1.1865659
33	0xbd4e41ec	-0.050355837
34	0xbff730da	-1.9311783
35	0xbfbb9404	-1.4654546
36	0xbdecf2e6	-0.11569767
37	0xbe7ae30a	-0.24500671
38	0xbd655dac	-0.055997536
39	0xbea1a428	-0.31570554
40	0x3e1c3185	0.15253265
41	0xbdf5c1db	-0.119998656
42	0x3d9b6766	0.07588081
43	0xbf5a8851	-0.8536425
44	0x3fa5457b	1.2911829
45	0xbe4307fb	-0.19046013
46	0xbecafaeb	-0.3964456
47	0x3edc4e1b	0.4302834
48	0xbfc7f720	-1.5622292
49	0xbe94e6ef	-0.29082438
50	0xbd17274f	-0.036902722
51	0xbf2098f9	-0.6273342
52	0x3f45a507	0.77204937
53	0xc0164e49	-2.3485281
54	0x3ff40ead	1.9066979
55	0x3c9925b1	0.01869473
56	0xbe6564d1	-0.2240174
57	0x3e1df7a1	0.15426494
58	0x3f111fa6	0.56688917
59	0xbce05252	-0.027383003
60	0x3df21ef4	0.1182231
61	0xbe567cef	-0.20946096
62	0x3e86db52	0.26339203
63	0xbed34951	-0.41266873
64	0xbd3681f9	-0.044557545
65	0x3e1b6e9c	0.15178913
66	0x3e50e7d0	0.2040093
67	0xbdfefec8	-0.124509394
68	0x3e5e9082	0.21734813
69	0xbe91e364	-0.28493798
70	0xbe11924a	-0.14215961
71	0xbe8128fa	-0.25226575
72	0xbeaedb26	-0.34151572
73	0x3e09eb6f	0.13468717
74	0x3d901844	0.07035878
75	0xbe0ff85c	-0.14059585
76	0xba372448	-0.00069863023
77	0x3e541490	0.20710969
78	0xbeab33bb	-0.33437905
79	0xbe9b00d7	-0.30274078
80	0xbe76cd6f	-0.24101804
81	0xbd945b42	-0.072439685
82	0xbe94128e	-0.28920406
83	0xbde91e65	-0.113827504
84	0xbdb68d6a	-0.08913691
85	0xbdf0b405	-0.11753086
86	0xbd604dc6	-0.05476167
87	0x3dd2a869	0.10286028
88	0x3e8f9bca	0.28048545
89	0x3bc2665e	0.0059326133
90	0xbeb8e317	-0.36110756
91	0x3dcb421a	0.09924717
92	0x3e6a181e	0.22860762
93	0xbec85c22	-0.39132792
94	0x3d83951a	0.06424923
95	0x3e4f2f0d	0.20232792
96	0xbea031cc	-0.31287992
97	0xbde74a1c	-0.11293432
98	0x3e28c905	0.16482933
99	0xbe98c581	-0.29838184
100	0xbdc6328b	-0.09677609
101	0x3d95b7da	0.073104575
102	0x3d80c4bd	0.06287525
103	0x3dc92315	0.098211445
104	0x3e88e25d	0.267352
105	0xbe3e63ca	-0.18592754
106	0x3e618672	0.22023943
107	0xbe9f7f3f	-0.3115177
108	0xbc6e3e2e	-0.014541192
109	0x3e2df411	0.16987635
110	0x3dfc0582	0.12305738
111	0xbed2f10f	-0.41199538
112	0x3c543215	0.012951394
113	0xbe437a8c	-0.19089717
114	0xbe675b36	-0.22593388
115	0x3ddbd5a7	0.1073411
116	0xbda0a189	-0.078433104
117	0xbf39090d	-0.72279435
118	0xbe93be7d	-0.2885627
119	0xbe82b1dc	-0.2552632
120	0xbb927b74	-0.004470283
121	0xbeca3fdd	-0.3950185
122	0xbd214c8f	-0.039379653
123	0x3db53802	0.08848573
124	0xbdf90a57	-0.12160175
125	0xbd478345	-0.048709173
126	0xbe8f622c	-0.28004587
127	0xbda8aa32	-0.08235587
128	0xbf3da64f	-0.7408189
129	0xbf1b6ee0	-0.60716057
130	0xbe399aa5	-0.18125398
131	0xbe90adc8	-0.28257585
132	0xbf4f1033	-0.80884093
133	0xbf1d52b8	-0.61454344
134	0xbe0256db	-0.12728445
135	0x3c452e92	0.012035029
136	0xbe20b8d1	-0.15695502
137	0x3dbba3bf	0.091620915
138	0xbf20d013	-0.62817496
139	0xbe2f7c75	-0.1713732
140	0xbf2bc739	-0.67100865
141	0xbca9e741	-0.020740153
142	0xbd81ac80	-0.0633173
143	0xbf02af91	-0.51049143
144	0xbe855c94	-0.26047194
145	0xbe5b6f37	-0.21429144
146	0xbd3aa920	-0.045571446
147	0xbf1ba3ae	-0.6079663
148	0xbe198297	-0.14991222
149	0xbe9debe4	-0.30844033
150	0xbf1e08bd	-0.61732084
151	0xbe1d20ae	-0.15344498
152	0xbe419266	-0.18903503
153	0xbd8c1662	-0.06840207
154	0x3c337dd9	0.010955297
155	0xbe9c4d62	-0.30527788
156	0xbfb43d05	-1.4081122
157	0x3db43028	0.087982476
158	0x3c9b9342	0.018991116
159	0xbee8d299	-0.45473173
160	0x3e67a01b	0.22619669
161	0x3d512468	0.05106011
162	0xbe9aee59	-0.3025997
163	0xbf3ca71b	-0.7369248
164	0xbe9679b0	-0.29389715
165	0xbcc4f312	-0.024041686
166	0xbe82cfdb	-0.25549206
167	0x3e744c24	0.2385717
168	0x3e2815fc	0.16414636
169	0xbe5fa93e	-0.21841905
170	0x3ed21d1b	0.4103783
171	0xbf4bf84a	-0.79675734
172	0xbed7427c	-0.4204291
173	0xbe989d7c	-0.2980765
174	0x3daeefc5	0.08541826
175	0xbebba4eb	-0.3664926
176	0xbf9cc5ef	-1.2247905
177	0xbf141785	-0.5784839
178	0x3ad1e73b	0.0016014347
179	0xbd12ab34	-0.035807803
180	0xbd255ca7	-0.040371563
181	0xc0262952	-2.596272
182	0xbef1d5c6	-0.4723341
183	0xbd2aeb54	-0.041728333
184	0xbef019e0	-0.4689474
185	0x3d8be81b	0.0683138
186	0x3a20646a	0.00061184785
187	0xba77e6ba	-0.0009456683
188	0xbcb5828c	-0.022156976
189	0x3e6a8c72	0.22905138
190	0x3f4d064f	0.8008775
191	0xbf0d2790	-0.5513849
192	0xbe573407	-0.2101594
193	0x3dbd7a93	0.09251895
194	0xbe014776	-0.12624916
195	0x3ea41739	0.32048967
196	0x3e888b4a	0.2666877
197	0xbcac92eb	-0.02106615
198	0x3e5709f0	0.20999885
199	0x3daecec0	0.08535528
200	0xbf454f72	-0.7707435
201	0xbde06c02	-0.10958101
202	0xbecdfae3	-0.40230474
203	0xbed726dd	-0.42021838
204	0xbe6a8b4b	-0.22904699
205	0x3df692c1	0.1203971
206	0xbc596c53	-0.013270455
207	0xbe7e53b0	-0.24836612
208	0x3e18b61c	0.14913219
209	0xbd9f5a7d	-0.07780931
210	0xbda6c4ca	-0.08143003
211	0xbf62e975	-0.8863748
212	0xbe833234	-0.2562424
213	0xbea6d478	-0.32583976
214	0xbdf35102	-0.118806854
215	0x3c5f46fb	0.013627763
216	0xbe2c43dd	-0.16822763
217	0x3e78027d	0.24219699
218	0x3e567aab	0.20945232
219	0xbe3449b1	-0.17606236
220	0x3c3cade2	0.011516066
221	0xbc4fd649	-0.012685367
222	0xbe9e8d7b	-0.30967316
223	0xbc4310cf	-0.011905863
224	0x3ded696f	0.115923755
225	0xbe86a937	-0.26300976
226	0x3d80a99f	0.06282353
227	0xbec22057	-0.37915298
228	0xbdb2c9fb	-0.08729931
229	0xbeb409fb	-0.35163864
230	0xbf042164	-0.5161345
231	0x3e552225	0.20813806
232	0xbcaf1ff5	-0.021377543
233	0x3e904918	0.28180766
234	0x3eb638fe	0.35590357
235	0xbe8c050c	-0.273476
236	0xbe81dae1	-0.25362304
237	0x3e35f9cb	0.1777107
238	0x3d2b30f2	0.041794725
239	0xbe427c03	-0.18992619
240	0xbe8e0cb9	-0.27744082
241	0x3de74f6c	0.112944454
242	0xbc9a5750	-0.018840462
243	0x3df41baa	0.11919339
244	0x3e5636b7	0.2091931
245	0x3da436ca	0.08018263
246	0xbed4643c	-0.41482723
247	0x3e31b5b7	0.17354475
248	0x3de7ee88	0.11324793
249	0x3f10f06a	0.5661684
250	0xbe17e924	-0.1483503
251	0x3e8760bd	0.26440993
252	0x3d26668b	0.040625136
253	0x3d93695e	0.071978316
254	0x3dfaaaa5	0.12239579
255	0x3e63b608	0.22237408

net.2.bias f4 [64]
0	0xbfd88546	-1.6915672
1	0xbea86d24	-0.32895768
2	0xbb8b06cd	-0.004242754
3	0xbec340b3	-0.381353
4	0xbffae868	-1.9602175
5	0x3fa83494	1.3141046
6	0xbe388d3b	-0.18022625
7	0xbdc3897a	-0.09547706
8	0x3f3d6bad	0.73992425
9	0x3f6ee96b	0.9332492
10	0xbf03690f	-0.5133218
11	0xbd8e4525	-0.06946782
12	0xbfee7aa1	-1.8631173
13	0xbe799362	-0.24372628
14	0xbf350d72	-0.7072364
15	0xbe4fa39a	-0.20277253
16	0xbdfe9a6c	-0.124317974
17	0x3f8b0f96	1.0864131
18	0xbd7eb67a	-0.062185742
19	0xbde41264	-0.1113632
20	0xbfa5dd02	-1.2958071
21	0xbe0790ef	-0.13238882
22	0xbed9abf9	-0.42514017
23	0xbef82313	-0.4846426
24	0xbed160ef	-0.40894267
25	0xbe278be1	-0.16361953
26	0xbf144e63	-0.5793211
27	0xbfc3fbcf	-1.5311221
28	0xbdecf1a9	-0.115695305
29	0xbfd257f9	-1.6433097
30	0xbe76e8d0	-0.24112248
31	0xbda4b6b4	-0.0804266
32	0xbde22c4d	-0.11043606
33	0xbea6d591	-0.32584813
34	0xbf375117	-0.7160811
35	0xbfd004dc	-1.6251483
36	0xbeb6bd33	-0.35691223
37	0xbe428ad7	-0.18998276
38	0x3fb1af6d	1.3881661
39	0xbed27131	-0.41101983
40	0x3fa24ed9	1.2680312
41	0xbe2af77b	-0.16695969
42	0xbf2d2532	-0.6763488
43	0xbec44f7e	-0.38341898
44	0xbf009b01	-0.5023652
45	0xbe41419b	-0.18872683
46	0xbdca9e59	-0.09893484
47	0xbe452d5b	-0.19255583
48	0xbee3de99	-0.44505766
49	0xbe4a395f	-0.19748448
50	0xbf18922c	-0.5959804
51	0xbd96bdd7	-0.07360428
52	0xbfc3de1a	-1.5302155
53	0xbee55f48	-0.44799256
54	0xbe84bb27	-0.25924036
55	0xbdc38823	-0.095474504
56	0xbe47cfe6	-0.195129
57	0xbdad562d	-0.08463702
58	0xbf9f9150	-1.2466221
59	0xbeb7a8df	-0.35871026
60	0xbe7f8d38	-0.24956214
61	0xbed17c6f	-0.40915248
62	0xbf57c537	-0.842853
63	0x3f6b976a	0.92027915

net.4.weight f4 [5, 64]
0	0x3ecbb91a	0.3978966
1	0xbe926397	-0.28591606
2	0x3f0b0e6e	0.5431889
3	0xbf0ba9d3	-0.54556006
4	0xbf99bae5	-1.2010161
5	0x3f129212	0.57254136
6	0xbe728574	-0.23683721
7	0x3e4e7437	0.2016152
8	0x3f88e3e5	1.0694548
9	0x3f2f1f9f	0.68407625
10	0xbec18637	-0.3779771
11	0xbe2a8b09	-0.166546
12	0xbe932f9b	-0.28747258
13	0xbeb8a041	-0.36059764
14	0x3e785be1	0.24253799
15	0xbd11b8c7	-0.035576608
16	0xbcbe46d1	-0.023227127
17	0x3e829993	0.25507793
18	0x3dc7a55a	0.09748335
19	0x3b94467a	0.004525003
20	0xbfb9e086	-1.4521644
21	0x3d9acb4a	0.075583056
22	0x3de37e91	0.11108125
23	0xbe7a337d	-0.24433704
24	0xbe2907c6	-0.16506872
25	0xbdfa2eee	-0.122159824
26	0x3ef99a8d	0.48750725
27	0x3f1541dc	0.5830362
28	0x3d5a5542	0.053303964
29	0xbfd818a3	-1.6882519
30	0x3e71bac6	0.23606405
31	0xbea6b2cb	-0.32558283
32	0xbe269ee5	-0.16271551
33	0xbc4c4565	-0.012467717
34	0x3e820e79	0.25401667
35	0xbff2aff8	-1.8959951
36	0xbd8ce05b	-0.0687873
37	0x3e71abcf	0.23600696
38	0xbf8dde02	-1.1083376
39	0x3e821f97	0.25414726
40	0xbf7e154c	-0.99251246
41	0x3e402235	0.18763049
42	0x3f2583ec	0.6465442
43	0xbe329598	-0.17439878
44	0x3eb2fe1f	0.34959504
45	0x3dee0a69	0.11623079
46	0x3ea0e84e	0.31427234
47	0x3e9dc16f	0.3081164
48	0x3e576aec	0.21036881
49	0x3e5f7f8c	0.21825999
50	0x3cb477ee	0.022029843
51	0x3e055120	0.13019228
52	0xbeedef1a	-0.46471483
53	0xbeb86f29	-0.36022308
54	0x3edc9a54	0.43086493
55	0xbe8e4bdb	-0.27792248
56	0x3e8ad67a	0.27116758
57	0x3e8b75bc	0.27238262
58	0xbda9bdbf	-0.08288144
59	0xbde59479	-0.112099595
60	0x3e8db59c	0.2767762
61	0xbef3503e	-0.47522157
62	0x3e263638	0.1623162
63	0x3f39531f	0.7239246
64	0xbf869b5a	-1.051616
65	0x3da403a6	0.080085084
66	0xbcdad03b	-0.02671062
67	0x3db620e2	0.08892991
68	0x3e628cf0	0.22124076
69	0x3fa46a80	1.2845001
70	0x3e91ab6d	0.284511
71	0x3dad6f48	0.08468491
72	0x3f8c88b4	1.0979218
73	0xc0634bf3	-3.5515106
74	0x3ea93776	0.33050126
75	0x3e9969ac	0.29963434
76	0x3f3ea531	0.7447081
77	0xbf3b8e12	-0.7326366
78	0xbe85d35a	-0.2613781
79	0x3e2ff085	0.17181595
80	0x3e52fe93	0.20604925
81	0x3f41ddd4	0.7572911
82	0xbe173b10	-0.14768624
83	0x3e2401c1	0.16016294
84	0x3f2a1709	0.664414
85	0xbeaf783e	-0.34271425
86	0x3dadab02	0.08479883
87	0x3d468745	0.048468847
88	0x3ee9d634	0.45671237
89	0xbdef48a1	-0.11683775
90	0x3ebc70ae	0.36804718
91	0x3dbb9944	0.091600925
92	0xbe95dd00	-0.29270172
93	0x3fa04a86	1.2522743
94	0xbd940ed1	-0.072293885
95	0xbc415cbe	-0.011801897
96	0xbd144214	-0.03619583
97	0x3e6a05b5	0.2285374
98	0xbd9fc43b	-0.078011
99	0x3fddb3de	1.7320516
100	0x3e0ad0af	0.13556169
101	0x3e833280	0.25624466
102	0xbf5ddeeb	-0.8666827
103	0x3f9390d5	1.1528574
104	0xbf2281be	-0.6347922
105	0x3e081d64	0.13292462
106	0xbf5375fe	-0.82601917
107	0x3e9fe557	0.3122966
108	0xbeae2c55	-0.34018198
109	0xbd1f5823	-0.038902413
110	0x3b8d5438	0.004313018
111	0x3e3d48a1	0.18484737
112	0x3ed3571e	0.41277403
113	0x3ee309ae	0.44343323
114	0xbed05673	-0.40690956
115	0x3eaa8cfb	0.33310685
116	0x3f12bd1f	0.57319826
117	0xbe23c198	-0.15991819
118	0xbe3d1574	-0.18465215
119	0x3df7c308	0.12097746
120	0x3e9d7671	0.30754426
121	0x3e4274b9	0.18989839
122	0xbe20be89	-0.15697683
123	0xbea6d867	-0.32586977
124	0xbe178ebf	-0.14800547
125	0x3dfe979e	0.124312624
126	0x3f39f80c	0.72644114
127	0x3f2a307a	0.6648022
128	0x3f328719	0.6973739
129	0x3da011af	0.07815873
130	0xbe88ebde	-0.26742452
131	0x3e7b78d2	0.24557808
132	0xbe63a928	-0.22232497
133	0xbfb81861	-1.438244
134	0x3cb6bd85	0.022307167
135	0xbdccea64	-0.10005644
136	0x40073a5a	2.1129365
137	0x3f3c29ab	0.7350108
138	0x3d835cfc	0.0641422
139	0x3dd2ff39	0.10302586
140	0x3d849884	0.064744025
141	0x3def15de	0.11674093
142	0x3f4cb1c3	0.7995874
143	0xbe963ebc	-0.29344738
144	0x3e9fbf38	0.31200576
145	0xbefffa1c	-0.49995506
146	0xbecebd00	-0.4037857
147	0xbe110340	-0.14161396
148	0x3f490909	0.7852941
149	0xbda94dd8	-0.08266801
150	0x3e9a017c	0.30079257
151	0x3db8096c	0.08986172
152	0x3c81394e	0.015774395
153	0xbc821765	-0.015880296
154	0xbd23a323	-0.0399505
155	0x3f86ca4b	1.0530485
156	0xbdd47a5b	-0.103749
157	0x3fe26a85	1.7688757
158	0x3ec9dca9	0.39426163
159	0xbdfea807	-0.124343924
160	0x3e5ab609	0.21358503
161	0xbdd60926	-0.10450964
162	0x3eaaccdb	0.33359417
163	0x3ed9e281	0.4255562
164	0xbcf68864	-0.030094333
165	0x3e432dc3	0.19060425
166	0x3feec918	1.8655119
167	0xbd7a9741	-0.061179403
168	0x3eb10fe2	0.3458243
169	0x3dbb2121	0.09137178
170	0x3f1a724e	0.60330665
171	0xbe434db1	-0.19072606
172	0x3f484103	0.782242
173	0x3e84457d	0.25834265
174	0xbd8c460a	-0.068492964
175	0x3e69ab65	0.22819288
176	0xbed7b86a	-0.42132884
177	0xbf60cf6e	-0.8781651
178	0x3ec8e03b	0.39233574
179	0x3e3b3eca	0.18285671
180	0x3e66f72b	0.22555225
181	0x3eb9a6ed	0.36260167
182	0x3ec4afbb	0.38415322
183	0x3e3b63dd	0.18299814
184	0xbf7a3bfe	-0.9774779
185	0x3ee467bb	0.4461039
186	0xbe743630	-0.23848796
187	0x3d99e187	0.07513719
188	0xbdd4a235	-0.10382501
189	0x3db5a9c1	0.088702686
190	0x3ecd2267	0.4006531
191	0xc0913106	-4.5372343
192	0x3fac5675	1.3463885
193	0x3ee43dc1	0.44578364
194	0x3e4e7b46	0.20164213
195	0xbdd6e320	-0.104925394
196	0x3f89c8f5	1.0764452
197	0x3f2cb1c4	0.6745875
198	0xbe2be7a5	-0.16787584
199	0xbe545e7d	-0.2073917
200	0xc00a1950	-2.157795
201	0x3f490336	0.78520525
202	0xbe8f2c00	-0.27963257
203	0x3e4ae79c	0.19814914
204	0x3e2bce21	0.1677785
205	0x3f6999d9	0.9125038
206	0xbf063423	-0.52423304
207	0x3e26de1f	0.1629567
208	0xbdf1d229	-0.11807663
209	0xc019bd9b	-2.4021976
210	0x3dd6a900	0.10481453
211	0x3dc41e2d	0.09576068
212	0x3e264bdf	0.1623988
213	0x3c97f52c	0.018549524
214	0xbdcb3144	-0.09921506
215	0xbd85be72	-0.06530465
216	0xbd8d3576	-0.068949625
217	0xbe08e956	-0.1337026
218	0x3ee24a32	0.44197232
219	0xbff4bc46	-1.9119956
220	0xbe6d3a05	-0.23166664
221	0xbed8b5ac	-0.42326105
222	0xbdce3749	-0.100691386
223	0x3e94ab22	0.29036814
224	0x3e508f1b	0.2036709
225	0x3ed151c3	0.40882692
226	0xbe2e744f	-0.17036556
227	0x3f302747	0.6880993
228	0xbcb624d5	-0.02223436
229	0x3e205fb9	0.15661515
230	0x3ee6b352	0.45058686
231	0x3d5d2f62	0.054000266
232	0x3f7ac845	0.9796184
233	0x3e84c02c	0.25927866
234	0x3ebbd28f	0.3668408
235	0xbcc50dfc	-0.02405452
236	0xbe1a7147	-0.15082274
237	0x3e445af9	0.19175328
238	0x3e93eb18	0.288903
239	0x3d89656b	0.06708797
240	0xbe9a9c5a	-0.30197412
241	0x3e289079	0.16461362
242	0x3e0d14bf	0.13777445
243	0x3d75a6af	0.059973415
244	0x3f0a744f	0.5408372
245	0x3eaf10c8	0.3419249
246	0xbdfa299c	-0.122149676
247	0x3b616f32	0.0034398553
248	0x3e0e7971	0.13913514
249	0xbb43912e	-0.0029841173
250	0x3e8549a5	0.2603275
251	0xbda7fb14	-0.08202186
252	0x3e763ea2	0.2404733
253	0x3ee5e902	0.44904333
254	0xbece77d7	-0.40325806
255	0x3f1070ac	0.56421924

net.4.bias f4 [5]
0	0x3fb7727a	1.433181
1	0x3f1f0d39	0.6212955
2	0x3fb2485c	1.3928332
3	0x3e71c378	0.23609722
4	0xc0178b55	-2.3678792
