results/simple_nav_v1/1/model.pt (torch, 22068 bytes, 6 tensors)

net.0.weight f4 [64, 6]
0	0xbf574791	-0.84093577
1	0xbed4c771	-0.41558412
2	0x3e8b1408	0.2716372
3	0xbe4750cd	-0.19464417
4	0x3f3dda2b	0.7416102
5	0xbe5b91d8	-0.21442354
6	0xbe5e7cd7	-0.2172731
7	0x3dc7f2a5	0.09763078
8	0xbee43937	-0.445749
9	0x3eb299d4	0.34882987
10	0xbe2fa6ca	-0.17153469
11	0x3f0e628a	0.5561911
12	0xbf7e9ace	-0.99454963
13	0x3ea9d5c2	0.33170897
14	0x3de7905f	0.113068335
15	0xbb87b4ae	-0.0041414117
16	0x3f5560dd	0.83350927
17	0xbe95e026	-0.29272574
18	0xbc6bb9a0	-0.014387518
19	0xbf5d03eb	-0.86334103
20	0x3dc18aa7	0.09450274
21	0x3ec749e4	0.38923562
22	0x3ec7e699	0.3904312
23	0x3f5dc224	0.8662436
24	0xbf73d0f3	-0.95240706
25	0x3cc0d3ac	0.023538433
26	0x3e88cc71	0.26718476
27	0x3cbecc88	0.023290887
28	0x3f65b7f5	0.8973382
29	0xbd480485	-0.048832435
30	0xbf3e2e2e	-0.74289215
31	0xbf77a23f	-0.9673194
32	0x3e4d29ad	0.2003543
33	0x3daf1a55	0.08549944
34	0x3f1d0473	0.61334914
35	0x3f716aa3	0.9430334
36	0x3f18ce1d	0.59689504
37	0x3f09bbdc	0.53802276
38	0xbd9985ae	-0.074962005
39	0x3e15a6b8	0.1461438
40	0xbea1b44e	-0.31582874
41	0xbe2e8a8f	-0.17045043
42	0x3e8a9cac	0.27072656
43	0xbe005ede	-0.12536189
44	0xbc8d8e78	-0.017279848
45	0x3e59f5a6	0.21285114
46	0xbdc7ffaa	-0.09765561
47	0x3ee99647	0.45622465
48	0xbf7c5a31	-0.9857512
49	0xbe8c839e	-0.27444166
50	0x3e9e7364	0.3094741
51	0xbbe89d5b	-0.0070988364
52	0x3f77eadf	0.9684276
53	0x3ea18cee	0.31552833
54	0x3f7341f0	0.9502249
55	0xbf2be420	-0.67144966
56	0xbc9dce7d	-0.0192635
57	0xbebd742f	-0.37002704
58	0xbf30d7bd	-0.6907919
59	0x3ce517a8	0.027965382
60	0xbe9e06f1	-0.3086467
61	0x3e6df35c	0.23237365
62	0x3e13cefb	0.14434426
63	0xbef5effd	-0.4803466
64	0x3eb89031	0.3604751
65	0xbf48e487	-0.78473705
66	0x3eee7983	0.4657708
67	0x3e00bfaa	0.12573114
68	0xbe0b10cb	-0.13580625
69	0xbddc4b86	-0.107565925
70	0xbefc6c11	-0.49301198
71	0xbdff0148	-0.12451416
72	0xbeb9a06c	-0.36255205
73	0x3f36aabb	0.71354264
74	0x3e0673be	0.1313009
75	0x3e367e33	0.17821579
76	0xbd7d4c36	-0.06184026
77	0xbe61de4c	-0.22057456
78	0x3f030bbd	0.51189786
79	0x3e140fef	0.14459203
80	0xbe38a4bd	-0.18031593
81	0x3d1c6f92	0.03819234
82	0x3e52ee9a	0.20598832
83	0x3ec9298a	0.39289504
84	0xbe24cb69	-0.1609322
85	0x3f64ef17	0.8942732
86	0x3ca17e8d	0.019713664
87	0xbe85b481	-0.26114276
88	0x3dbd0560	0.09229541
89	0xbf607794	-0.8768246
90	0x3f148a7b	0.58023804
91	0xbf0fe8e1	-0.5621472
92	0xbdce7017	-0.10079973
93	0x3ca81977	0.020519955
94	0xbf0c192b	-0.54725903
95	0x3ea50d81	0.32236865
96	0x3e6fd21a	0.23419991
97	0x3f75e231	0.96048266
98	0x3d1d4d51	0.038403813
99	0xbe08ecef	-0.13371633
100	0xbe5b0b55	-0.21391042
101	0xbeda0b09	-0.42586544
102	0x3db360ca	0.087586954
103	0xbf47c864	-0.78040147
104	0xbe32129a	-0.17389908
105	0x3f0c619d	0.54836446
106	0xbdd6065e	-0.10450433
107	0x3f526027	0.82177967
108	0x3d09d1f3	0.03364749
109	0x3dce3dee	0.10070406
110	0x3e20d1b6	0.15704998
111	0xbd97eceb	-0.074182354
112	0xbd8b8edb	-0.06814357
113	0x3dd55238	0.104160726
114	0xbf5d9bdb	-0.8656594
115	0x3dcc4abf	0.09975194
116	0x3e1632bd	0.14667793
117	0xbeb53c33	-0.3539749
118	0x3f4414fb	0.76594514
119	0xbe1c68c2	-0.15274337
120	0x3f0b253c	0.5435369
121	0xbf00a0ec	-0.5024555
122	0xbe4b716d	-0.19867487
123	0xbe86b7b8	-0.2631204
124	0xbe4e4f7b	-0.20147507
125	0x3e20db33	0.15708618
126	0x3ea890a3	0.3292285
127	0x3d578a8f	0.052622374
128	0xbe1c202f	-0.15246652
129	0xbe534cda	-0.20634785
130	0xbe65ebe7	-0.22453271
131	0x3d22b099	0.039719198
132	0x3f53ad70	0.8268652
133	0x3dee69c2	0.116412655
134	0xbe30c9aa	-0.17264429
135	0xbe123ac5	-0.14280231
136	0xbf5bf682	-0.85923016
137	0xbd5fc548	-0.0546315
138	0xbcc30371	-0.023805352
139	0xbf82fe12	-1.0233786
140	0x3e00d047	0.12579452
141	0x3ea6c355	0.32570902
142	0x3dd2eb52	0.1029879
143	0x3f735052	0.95044434
144	0xbec98d13	-0.39365444
145	0x3f834463	1.0255245
146	0xbccc5892	-0.024944577
147	0xbe9f4303	-0.31105813
148	0x3edffdef	0.43748423
149	0xbf8952d7	-1.0728406
150	0x3e4ed514	0.2019847
151	0xbe95f6a7	-0.29289743
152	0xbeba9e18	-0.3644874
153	0x3e67bae9	0.22629894
154	0x3de71521	0.11283327
155	0x3ee808f2	0.45319325
156	0xbef36a45	-0.47542015
157	0x3e02ba10	0.1276629
158	0x3e0e6d76	0.13908944
159	0xbdd7b575	-0.10532657
160	0x3f085627	0.5325646
161	0xbe02e787	-0.12783633
162	0x3eb72f90	0.35778475
163	0xbebce331	-0.36892083
164	0x3e272fea	0.16326872
165	0x3e7132d7	0.2355455
166	0xbe2d6b22	-0.16935399
167	0x3f503ab0	0.8133955
168	0xbee1f66c	-0.44133317
169	0x3f501720	0.81285286
170	0x3dced449	0.10099084
171	0x3d0eef20	0.034896016
172	0x3f0b07d9	0.5430885
173	0xbf339157	-0.70143646
174	0x3f0b2d1c	0.54365706
175	0xbf6bbad3	-0.92081946
176	0xbda008ce	-0.07814179
177	0x3e89ba40	0.2689991
178	0xbf0b5392	-0.54424393
179	0x3f380280	0.71878815
180	0x3e97afba	0.29626256
181	0x3e7c756a	0.24654165
182	0xbdd7586a	-0.105149105
183	0x3e827d83	0.25486383
184	0xbdda35cc	-0.10654792
185	0x3f292b0b	0.66081303
186	0x3e85c34a	0.26125556
187	0xbf3a9568	-0.72884226
188	0xbe1393f0	-0.14411902
189	0x3f0779b1	0.5292006
190	0xbe52edab	-0.20598476
191	0x3f21aa81	0.63150793
192	0xbd7de653	-0.061987232
193	0x3f4edc08	0.8080449
194	0x3e9cd44d	0.30630723
195	0xbc5e260b	-0.013558875
196	0x3cde57f7	0.027141554
197	0xbf219da6	-0.6313118
198	0xbe8619a8	-0.2619145
199	0xbf4b9285	-0.79520446
200	0xbe1d740b	-0.15376298
201	0x3ed519ee	0.41621345
202	0x3e91d484	0.2848245
203	0x3f8f8a3e	1.1214063
204	0xbcefb13f	-0.029259322
205	0xbd28cfb1	-0.041213695
206	0xbd7b8483	-0.06140567
207	0x3d962b9f	0.07332539
208	0xbe089d5e	-0.13341281
209	0xbd02f0c2	-0.031967886
210	0x3f671eda	0.9028145
211	0xbf35a241	-0.70950705
212	0xbe55d846	-0.20883283
213	0xbda20161	-0.07910419
214	0xbf6645aa	-0.8995005
215	0x3e0eee55	0.13958104
216	0x3f4e916b	0.8069064
217	0xbebd00b1	-0.3691459
218	0xbea3ffee	-0.32031196
219	0x3ebf6ca0	0.37387562
220	0xbef5cb78	-0.48006797
221	0x3f163008	0.5866704
222	0xbd86981c	-0.06571981
223	0xbf6383e1	-0.88873106
224	0xbcf06e9d	-0.02934962
225	0x3ee7ff7a	0.453121
226	0x3dd0d418	0.10196704
227	0x3f649f9b	0.8930604
228	0xbf811753	-1.0085243
229	0x3e90cc05	0.28280655
230	0x3d708a95	0.058725912
231	0xbd8c520e	-0.06851588
232	0x3f5e6726	0.8687614
233	0xbe8b4759	-0.2720287
234	0x3e16b375	0.14716895
235	0xbf25e7ea	-0.64807
236	0x3e38f949	0.18063845
237	0xbf6dce30	-0.9289274
238	0x3e3ae6b5	0.1825207
239	0xbf9d1d97	-1.2274655
240	0x3f34ddf7	0.7065119
241	0xbd913570	-0.070902705
242	0xbec7eee4	-0.39049447
243	0x3e58aac9	0.211589
244	0xbf444896	-0.7667326
245	0x3ebce231	0.3689132
246	0xbe257217	-0.16156803
247	0x3f458b69	0.7716585
248	0xbe0c9278	-0.13727748
249	0xbe1c6f7b	-0.15276901
250	0x3de72b46	0.11287551
251	0xbf5505ed	-0.8321217
252	0x3ebe0b36	0.37117928
253	0x3e3d5703	0.18490224
254	0xbddd8d38	-0.10817951
255	0xbe3cfb86	-0.18455324

net.0.bias f4 [64]
0	0xbefc3400	-0.49258423
1	0xbd1a9c0c	-0.037746474
2	0xbeb2eb8c	-0.34945333
3	0xbef61f1c	-0.4807061
4	0xbf755d18	-0.95845175
5	0xbf33204c	-0.69971156
6	0xbf4850a5	-0.78248054
7	0xbf2b35fd	-0.66879255
8	0xbf0cc654	-0.54990125
9	0xbf3710e3	-0.7151014
10	0xbf486c4b	-0.7829024
11	0xbe90ad6f	-0.2825732
12	0xbebba1e8	-0.36646962
13	0xbeb3c8ee	-0.35114235
14	0x3d5ad613	0.053426813
15	0xbbe7e26e	-0.007076553
16	0xbe998166	-0.29981536
17	0xbf607c65	-0.8768981
18	0xbede9230	-0.43470907
19	0xbe7694e3	-0.24080233
20	0xbe27489e	-0.16336295
21	0xbf15c813	-0.58508414
22	0xbef63153	-0.48084506
23	0xbf29327a	-0.66092646
24	0xbf006c01	-0.501648
25	0xbdf62e05	-0.12020496
26	0xbf21e686	-0.63242376
27	0xbec4053d	-0.38285246
28	0x3d9c7e6d	0.07641301
29	0x3e833ffb	0.2563475
30	0xbf4d42a0	-0.80179787
31	0xbf5543cf	-0.8330659
32	0xbe88671f	-0.26641175
33	0xbee5ba8c	-0.44868886
34	0xbea32875	-0.31866804
35	0xbef2302e	-0.47302383
36	0xbd267043	-0.040634405
37	0xbf433606	-0.7625431
38	0x3c8ed18c	0.017433904
39	0xbf0a936d	-0.54131204
40	0xbdf5ac57	-0.11995762
41	0x3e1006a1	0.14065029
42	0xbee7ad44	-0.4524938
43	0xbe9261a9	-0.28590134
44	0xbe6a2a53	-0.22867708
45	0xbf2544a1	-0.64557844
46	0xbe7025bc	-0.23451895
47	0xbed4c374	-0.4155537
48	0x3bbd2e9e	0.0057733795
49	0x3e0ccd9b	0.13750307
50	0x3d0846c3	0.03327061
51	0xbe85dafb	-0.2614363
52	0xbf7a6564	-0.9781096
53	0x3d45961a	0.04823885
54	0xbe82f1e5	-0.25575176
55	0xbf426698	-0.75937796
56	0xbe58c37b	-0.2116832
57	0xbf1c3216	-0.61013925
58	0xbf93b576	-1.1539752
59	0x3e0c874e	0.1372349
60	0xbe9d6b16	-0.30745763
61	0x3eb1b314	0.34706938
62	0xbe74119c	-0.23834842
63	0x3d7f858f	0.06238323

net.2.weight f4 [64, 64]
0	0x3e2f91a9	0.17145409
1	0xbe576035	-0.21032794
2	0xbd80daf7	-0.06291764
3	0xbcf18caf	-0.029486028
4	0xbe0772ff	-0.13227461
5	0xbeade1e2	-0.33961397
6	0xbe9896a5	-0.29802433
7	0x3e2a4b99	0.166304
8	0x3e260f93	0.16216879
9	0xbe98761e	-0.29777616
10	0xbe935b02	-0.2878037
11	0x3da00fcd	0.07815514
12	0x3e1ce561	0.15321876
13	0x3e2f8d63	0.17143779
14	0xbe1f07ac	-0.1553027
15	0x3d9fb0cb	0.077973925
16	0x3e1cd97d	0.1531734
17	0xbe67d93e	-0.22641465
18	0xbecb3128	-0.3968594
19	0x3bdc8af9	0.006730434
20	0xbeafbba7	-0.34322855
21	0xbc8dc9d8	-0.01730816
22	0xbe76036e	-0.24024746
23	0xbeb9d319	-0.36293867
24	0xbc8058d5	-0.015667358
25	0xbe977ff3	-0.29589805
26	0x3cff39b3	0.031155443
27	0xbea93f0f	-0.33055922
28	0xbe565e99	-0.20934524
29	0xbe17d428	-0.14827025
30	0xbdc66f1e	-0.09689163
31	0xbe3a554b	-0.18196599
32	0x3d937f35	0.07201997
33	0xbeb085f7	-0.34477207
34	0xbe9be787	-0.3045008
35	0x3e213692	0.15743473
36	0xbe6399ac	-0.2222659
37	0xbd8661c1	-0.06561614
38	0xbe28aa47	-0.16471206
39	0xbd5dade6	-0.05412092
40	0xbe8d6058	-0.27612567
41	0xbe2e4ce2	-0.17021516
42	0xbe6a290b	-0.22867219
43	0x3e05609d	0.13025136
44	0x3e3535f7	0.17696367
45	0x3dd749d3	0.10512128
46	0xbd3177b6	-0.043327056
47	0xbe6ea9e1	-0.23306991
48	0xbe5ed1a0	-0.21759653
49	0xbde60e47	-0.11233192
50	0x3e1f6689	0.15566458
51	0x3e0f394e	0.13986704
52	0xbecda11b	-0.40161976
53	0xbe87a6cd	-0.26494446
54	0x3cbbc6a8	0.022921875
55	0xbdc1cd72	-0.09463014
56	0x3debb9b5	0.1151003
57	0x3e3cdd03	0.18443684
58	0xbeb43ca4	-0.35202515
59	0xbecfbd8a	-0.40574294
60	0x3d6c1b8b	0.057643455
61	0xbe7220c7	-0.23645316
62	0x3df2b025	0.11850003
63	0xbebba4ea	-0.36649257
64	0xbc2086b1	-0.009797738
65	0xbf4102a6	-0.75394666
66	0xbea90476	-0.33011216
67	0x3e261cd3	0.16221933
68	0xbdc084df	-0.09400343
69	0xbe8675ed	-0.26261845
70	0xbf404c36	-0.7511629
71	0xbecd3c51	-0.4008508
72	0x3d5e7c35	0.05431767
73	0x3de92b46	0.11385207
74	0xbe9a8799	-0.30181578
75	0xbe7b967a	-0.24569121
76	0xbe84fdd0	-0.25974894
77	0x3e837c7b	0.2568091
78	0xbe09e1db	-0.13465063
79	0xbe257f7c	-0.16161913
80	0xbe803ca1	-0.25046256
81	0x3f2255de	0.6341227
82	0x3e035c9e	0.128283
83	0x3c9be4c0	0.019029975
84	0x3d3bdf78	0.045867413
85	0x3cde8eda	0.027167726
86	0xbde8cfb4	-0.11367741
87	0x3f538538	0.8262515
88	0xb80f468c	-3.415956e-05
89	0xbe7c0a60	-0.24613333
90	0x3d76f4b9	0.06029198
91	0xbbbdf3ae	-0.005796871
92	0xbec6e069	-0.38843086
93	0xbedd65ec	-0.43241823
94	0xbefd04cb	-0.4941772
95	0x3df8c483	0.12146857
96	0x3d779eb5	0.06045409
97	0x3ee461b5	0.44605795
98	0x3b80e2b3	0.0039332747
99	0x3eaacbb1	0.3335853
100	0xbdcbbc60	-0.09948039
101	0x3f083ec5	0.5322078
102	0xbee54ee0	-0.4478674
103	0xbf251196	-0.6447996
104	0x3c6cb60b	0.014447699
105	0xbe2da3be	-0.16956994
106	0x3e10e293	0.14148931
107	0xbea07c25	-0.31344715
108	0x3d079b85	0.0331073
109	0x3eb66481	0.35623553
110	0xbdbda2b8	-0.09259552
111	0x3c8fc120	0.017548144
112	0xbc77c81f	-0.015123396
113	0xbf30173d	-0.6878546
114	0x3cca691a	0.02470832
115	0xbdd733c1	-0.10507918
116	0x3ed19885	0.40936676
117	0xbf061013	-0.5236828
118	0xbda6ee5c	-0.08150932
119	0x3ea2f938	0.31830764
120	0xbef24d03	-0.4732438
121	0xbf271965	-0.65273124
122	0x3e59ed2e	0.21281883
123	0x3e669911	0.22519328
124	0xbf3e6292	-0.74369156
125	0x3d93c39a	0.072150424
126	0xbe36559f	-0.178061
127	0x3db55fd7	0.088561706
128	0xbe92f22b	-0.28700384
129	0x3f0c41fc	0.54788184
130	0xbf51c87b	-0.81946534
131	0x3e53df78	0.20690715
132	0xbec9fbca	-0.39449912
133	0xbf379aa5	-0.71720344
134	0x3d481d89	0.048856292
135	0x3dae27f1	0.08503712
136	0xbf3ef316	-0.7458967
137	0xbd1a4acc	-0.037668988
138	0x3e7a280b	0.24429338
139	0xbe4b917f	-0.19879721
140	0x3db7e6c7	0.08979564
141	0xbde7099c	-0.1128113
142	0x3ee34f25	0.4439632
143	0x3e3beacf	0.18351291
144	0xbe25218c	-0.16126078
145	0xbe0c7542	-0.13716605
146	0xbcb87acd	-0.022519493
147	0xbef53e51	-0.47899106
148	0x3e01e67c	0.12685579
149	0xbd99221d	-0.0747721
150	0xbe7a111b	-0.24420588
151	0xbee9c0b4	-0.45654833
152	0xbf02a883	-0.5103838
153	0x3e826e82	0.25474936
154	0xbe3f0ae7	-0.18656503
155	0x3e637b40	0.22214985
156	0x3ed38b15	0.4131705
157	0xbe2007e3	-0.15628009
158	0x3bd373c3	0.006453009
159	0xbdd82adf	-0.10555052
160	0xbf018659	-0.50595623
161	0x3e641516	0.22273669
162	0xbce86fc2	-0.028373603
163	0x3db4ef5b	0.08834716
164	0x3ddbebed	0.10738359
165	0xbeb59ea7	-0.35472605
166	0xbf570c87	-0.8400349
167	0xbe557774	-0.20846349
168	0xbf4525b3	-0.7701065
169	0x3e7d2ac1	0.2472334
170	0xbe729774	-0.23690587
171	0x3ec4c763	0.3843337
172	0x3e068af1	0.1313894
173	0xbe279e39	-0.16368951
174	0xbe0391e3	-0.1284862
175	0xbd592370	-0.05301231
176	0xbe6fa363	-0.23402171
177	0xbebabc79	-0.36471918
178	0xbf00764c	-0.50180507
179	0x3cd0692d	0.025440777
180	0xbe96ff89	-0.29491833
181	0x3ea9600b	0.33081087
182	0x3d981453	0.074257515
183	0xbee0c1aa	-0.43897754
184	0x3e3ecc70	0.18632674
185	0xbda15d6c	-0.07879147
186	0x3c296ba1	0.010340602
187	0x3f28487f	0.6573562
188	0xbe82f8ad	-0.2558035
189	0x3ea66e0b	0.3250583
190	0xbc662971	-0.014047966
191	0xc02f9853	-2.7436721
192	0xbdd62dbf	-0.10457944
193	0x3ece9abc	0.40352428
194	0xbee36d42	-0.44419295
195	0x3e240951	0.16019179
196	0xbe121d9a	-0.14269105
197	0x3d1323b3	0.035922717
198	0xbe3ba8d5	-0.18326123
199	0x3e785f46	0.24255094
200	0x3e577c52	0.21043518
201	0xbe3401d6	-0.17578825
202	0xbe9816df	-0.2970495
203	0xbde452db	-0.11148616
204	0x3e3dad64	0.18523175
205	0xbdecaccf	-0.11556398
206	0x3eb7fe76	0.35936326
207	0xbe8f7252	-0.28016907
208	0xbeb92831	-0.36163476
209	0xbe7cb4a4	-0.24678284
210	0xbd54efd3	-0.051986527
211	0xbe48d3b3	-0.19612007
212	0xbeb116b8	-0.34587646
213	0x3d5f35f1	0.054494802
214	0xbe9c9679	-0.30583552
215	0xbdbaba5b	-0.09117576
216	0x3c62210c	0.013801824
217	0xbd054bc5	-0.032542963
218	0x3dc534a0	0.09629178
219	0xbe01ff69	-0.12695087
220	0xbe3016cc	-0.17196196
221	0xbf4a1b3e	-0.7894782
222	0xbd854b26	-0.06508474
223	0xbde4de59	-0.11175222
224	0xbf02fb44	-0.5116465
225	0x3cc8098b	0.024418613
226	0x3e7a0aad	0.24418135
227	0xbed89e78	-0.42308402
228	0x3d9d705e	0.07687448
229	0xbe89dc8c	-0.26926076
230	0xbe847f64	-0.2587844
231	0xbe54f498	-0.2079643
232	0xbf2ed43c	-0.68292594
233	0xbbcf8798	-0.0063333027
234	0xbdc71115	-0.09720055
235	0xbdf7b7f3	-0.120956324
236	0x3dd8923c	0.10574767
237	0x3c02c284	0.007980946
238	0xbebcd05c	-0.36877716
239	0xbe3bf6f9	-0.18355931
240	0xbddec96c	-0.10878262
241	0x3e9176a9	0.28410843
242	0xbf1cb92a	-0.6122004
243	0x39b55e2c	0.00034593174
244	0x3e7242c6	0.23658285
245	0x3e24b82e	0.16085884
246	0x3db487f4	0.088149935
247	0xbd1f10ac	-0.03883426
248	0x3e27e9de	0.16397807
249	0xbf72dbcd	-0.9486664
250	0xbe4a442f	-0.19752572
251	0xbd9fbaec	-0.077993244
252	0x3debdea2	0.11517073
253	0xbf2d4ea7	-0.6769814
254	0x3d3c9a90	0.04604584
255	0x3e7079d3	0.23483972

net.2.bias f4 [64]
0	0xbdda8b7d	-0.106711365
1	0xbe61a8fc	-0.22037119
2	0x3e1212f0	0.14265037
3	0x3e0dc276	0.13843712
4	0xbeaafe46	-0.3339712
5	0xbf052de5	-0.52023154
6	0xbdaed7ed	-0.08537278
7	0xbe2f541f	-0.17121933
8	0xbe00774a	-0.12545505
9	0xbec3c0f6	-0.38233155
10	0xbe3baaac	-0.18326825
11	0x3da856ab	0.082196556
12	0xbdbe7971	-0.09300507
13	0xbe021ba8	-0.12705863
14	0x3e9c6786	0.30547732
15	0xbdefff1e	-0.117185816
16	0xbda69af3	-0.08135023
17	0xbdbcd079	-0.092194505
18	0xbe03f54e	-0.12886545
19	0xbdf38a40	-0.118916035
20	0x3e35166e	0.17684337
21	0xbdcf02a0	-0.101079226
22	0xbdd1b0aa	-0.10238774
23	0xbeaab671	-0.33342317
24	0xbdd053a4	-0.10172203
25	0x3ef8a6d1	0.4856477
26	0xbe1469ce	-0.14493486
27	0xbe3a6568	-0.18202746
28	0x3ec9aa01	0.39387515
29	0xbd8868f0	-0.0666064
30	0x3ec4d0b5	0.3844048
31	0xbe8acabd	-0.27107802
32	0xbdb36f83	-0.087615035
33	0xbf371d17	-0.7152876
34	0x3e66c987	0.22537814
35	0x3d4478dd	0.047966827
36	0xbef3909e	-0.47571272
37	0xbdc89a3b	-0.09795042
38	0xbf62e4c3	-0.8863031
39	0xbda4f9b8	-0.080554426
40	0xbdc86be1	-0.09786201
41	0xbe3ce2a9	-0.18445839
42	0xbebca8bc	-0.36847484
43	0xbef8b56e	-0.4857592
44	0xbe9fc3f8	-0.312042
45	0xbeb17d52	-0.34665924
46	0x3ccc744e	0.024957802
47	0xbd053020	-0.0325166
48	0xbeabe663	-0.3357421
49	0xbddf20db	-0.108949386
50	0xbeb7412a	-0.35791904
51	0xbe16cd0a	-0.14726654
52	0xbe575db7	-0.21031843
53	0xbe9918c1	-0.29901698
54	0xbe182925	-0.14859445
55	0x3f0848bf	0.53236
56	0xbdb7b39d	-0.089698054
57	0xbfbb1bee	-1.4617898
58	0xbdf05bf9	-0.117362924
59	0xbe9440d6	-0.28955716
60	0xbe06a773	-0.13149814
61	0xbec75adf	-0.38936517
62	0x3f2f4565	0.6846526
63	0xbe206e03	-0.15666966

net.4.weight f4 [5, 64]
0	0xbc2d5cd5	-0.010581215
1	0x3e122233	0.14270858
2	0x3e898c7a	0.26864988
3	0xbd03f4c5	-0.032215852
4	0x3f0397ef	0.5140371
5	0x3dcddbb6	0.10051672
6	0xbe15b0c9	-0.1461822
7	0x3ed685d1	0.4189897
8	0xbd0dbcc5	-0.034603853
9	0x3f63c5c9	0.8897367
10	0x3df71969	0.120653935
11	0x3d1b9aab	0.0379893
12	0x3ddc1b58	0.10747403
13	0x3e395406	0.18098459
14	0x3ec4a733	0.38408813
15	0x3e60f11f	0.2196698
16	0xbdeaabb1	-0.11458529
17	0x3e4f450f	0.20241188
18	0xbe30329f	-0.1720681
19	0x3daea3fe	0.08527373
20	0xbebc1cbf	-0.36740682
21	0xbe150f03	-0.14556508
22	0xbec51a5c	-0.38496673
23	0x3e3cbfd5	0.18432553
24	0x3cceaea0	0.025229752
25	0x3dddb031	0.108246215
26	0xbec39077	-0.38196155
27	0xbe8d83bb	-0.27639565
28	0x3f54217b	0.8286359
29	0x3d048444	0.0323527
30	0x3f0e4cbf	0.55585855
31	0x3dc4ca0b	0.09608849
32	0xbdeb5131	-0.114900954
33	0xbea64be3	-0.32479772
34	0xbead4e95	-0.33849016
35	0x3ecfb5ac	0.40568292
36	0x3e89d317	0.2691886
37	0x3e3ca953	0.18423967
38	0xbf93f44d	-1.155893
39	0x3e868728	0.2627499
40	0x3e5f6446	0.21815595
41	0x3cabb17e	0.020958658
42	0x3e7996c4	0.24373919
43	0xbe4ce6d2	-0.20009926
44	0xbec7788b	-0.38959154
45	0xbe6c2605	-0.23061378
46	0x3e5210bb	0.20514195
47	0xbebe1971	-0.37128785
48	0xbf105bc9	-0.56390053
49	0x3dd334bf	0.10312795
50	0xbd41eb55	-0.04734357
51	0xbe51d7b1	-0.20492436
52	0xbeaffc24	-0.34372056
53	0x3ec44869	0.38336495
54	0xbd59ae75	-0.05314489
55	0x3e337400	0.17524719
56	0xbe36bd26	-0.17845592
57	0xbfbeda64	-1.4910398
58	0xbd36d283	-0.044634353
59	0x3e44683e	0.1918039
60	0xbe58920f	-0.21149467
61	0x3ee3cbd7	0.44491455
62	0xbcd26375	-0.02568219
63	0xbec564fd	-0.3855361
64	0x3e982e40	0.29722786
65	0x3eaa1e38	0.3322618
66	0x3e117ab6	0.14206967
67	0xbef112eb	-0.47084746
68	0x3dc96346	0.09833388
69	0xbf959a9d	-1.1687809
70	0xbe2df652	-0.16988495
71	0x3dfa0d60	0.12209582
72	0xbeb1b514	-0.34708464
73	0xbec2332b	-0.37929663
74	0x3e2860b4	0.1644314
75	0x3e52ee55	0.20598729
76	0x3f01f975	0.50771266
77	0x3de7db31	0.11321104
78	0x3f1be18b	0.60891026
79	0x3e6393af	0.22224306
80	0xbe5b43f9	-0.21412648
81	0xbd9c8fcd	-0.07644615
82	0xbd5e5a19	-0.054285143
83	0xbe1de4ef	-0.15419362
84	0xbeb8b7c1	-0.36077693
85	0x3e33e58e	0.17568037
86	0x3e3e91ec	0.18610352
87	0xbe8fd8a4	-0.2809497
88	0x3d4f754a	0.050648965
89	0xbfb6be94	-1.427691
90	0x3e5e8bdb	0.21733038
91	0x3ea4ca4b	0.32185587
92	0xbea32582	-0.31864554
93	0xbd5ba2ca	-0.053622045
94	0x3f0074bf	0.5017814
95	0x3eda94f2	0.4269176
96	0xbe677441	-0.22602941
97	0x3e704f85	0.23467834
98	0x3e8598c2	0.26093107
99	0x3f05e34c	0.5229995
100	0xbd8998a1	-0.06718565
101	0x3d1d9f06	0.038481735
102	0x3b7a6b9c	0.0038211113
103	0x3e6e3d51	0.23265578
104	0x3e6e30b3	0.23260765
105	0xbd8a99de	-0.06767629
106	0xbe9c36fc	-0.305107
107	0xbe614502	-0.2199898
108	0x3d94229b	0.07233163
109	0x3e34589a	0.17611924
110	0x3e2582a3	0.16163115
111	0x3f41baf0	0.7567587
112	0x3e7afcc2	0.24510482
113	0xbe3d6bb9	-0.18498124
114	0xbed35318	-0.41274333
115	0x3e8744f5	0.26419798
116	0xbdafeb65	-0.0858982
117	0x3e919d1e	0.28440183
118	0x3eb2819e	0.34864515
119	0x3df9012f	0.12158429
120	0x3f2240fc	0.6338041
121	0x3f47ee14	0.78097653
122	0x3caf5f9b	0.021407893
123	0x3e06c73b	0.13161938
124	0xbe9b731a	-0.30361253
125	0xbf41ff49	-0.7578016
126	0xbebee5a4	-0.37284577
127	0xbe847c27	-0.2587597
128	0x3c8a77a2	0.016902748
129	0xbf3ddd41	-0.7416573
130	0xbfa19d7a	-1.2626183
131	0x3ed2d979	0.41181543
132	0xbf518954	-0.8185017
133	0x3b409fd7	0.0029392147
134	0xbe6af9f5	-0.22946914
135	0x3e9c00e1	0.3046942
136	0xbebefae7	-0.37300798
137	0x3db39d0d	0.087701894
138	0xbe02526e	-0.12726757
139	0xbf7f6a9b	-0.9977204
140	0xbeb51ae7	-0.35372087
141	0x3e86b08f	0.2630658
142	0xbfe371a7	-1.7769059
143	0x3d10681b	0.035255533
144	0xbe417630	-0.18892741
145	0xbe5cf43a	-0.2157754
146	0x3e8aee68	0.27135015
147	0x3e4afd68	0.1982323
148	0x3e43679a	0.1908249
149	0xbdf6222d	-0.12018237
150	0x3cfd405b	0.030914476
151	0x3e8cae5a	0.2747677
152	0xbeb7cb88	-0.3589747
153	0xbdc3fe97	-0.095700435
154	0x3c061904	0.008184675
155	0x3e0e0201	0.13867952
156	0x3f478ddf	0.77950853
157	0x3da6ad93	0.081385754
158	0x3ecb1ccf	0.39670417
159	0x3f3194af	0.693675
160	0xbe92fad3	-0.2870699
161	0xbf18a1a1	-0.59621626
162	0x3dc2c290	0.09509766
163	0x3e581999	0.21103515
164	0xbfe5ac49	-1.7943202
165	0x3dab987a	0.08378692
166	0x3e6270ef	0.22113393
167	0xbe6c4a84	-0.230753
168	0xbecc581d	-0.39910975
169	0xbed5dbfc	-0.41769397
170	0xbe3070d5	-0.17230542
171	0x3f97519f	1.1821784
172	0x3bc1e092	0.0059166634
173	0xbdd83d05	-0.105585136
174	0xbe1470ec	-0.14496201
175	0xbf40d472	-0.75324166
176	0xbf747ed9	-0.95506054
177	0x3e27f739	0.16402902
178	0xbf628dac	-0.88497424
179	0xbdcae4cb	-0.0990692
180	0xbf7a0868	-0.97669077
181	0x3ec79c78	0.38986564
182	0xbe13575f	-0.14388798
183	0x3f17a9a1	0.5924321
184	0x3d1c872b	0.038214844
185	0x3f4cfd44	0.8007395
186	0xbde44e09	-0.111476965
187	0x3eaa9ebd	0.33324233
188	0x3df2c57c	0.118540734
189	0x3e0946c4	0.13405901
190	0x3ec8f186	0.39246768
191	0x3e635c76	0.2220324
192	0xbea20d3e	-0.31650728
193	0x3e8e7ef2	0.27831227
194	0x3ee8ba6d	0.45454732
195	0x3cf70cea	0.030157525
196	0x3e1f30d1	0.15545966
197	0x3e1318bb	0.14364903
198	0xbbc3d48b	-0.005976265
199	0xbea6825d	-0.32521334
200	0x3e8369e1	0.25666717
201	0xbf862b64	-1.0481992
202	0x3f00591b	0.50135964
203	0xbd1f4c66	-0.03889122
204	0x3f1db361	0.61601835
205	0x3ea8cbc0	0.3296795
206	0xbf81161a	-1.008487
207	0xbd0202b2	-0.03174085
208	0xbce751d1	-0.028237255
209	0xbdf5655d	-0.11982224
210	0xbe41a0c2	-0.1890898
211	0x3d88ee43	0.0668607
212	0x3f4295e6	0.76009977
213	0xbd6ec543	-0.058293592
214	0x3e888fba	0.26672155
215	0xbf123f29	-0.57127625
216	0x3e00b37d	0.1256847
217	0x3e8485c4	0.25883305
218	0x3d875d1a	0.066095546
219	0x3c9cb370	0.019128531
220	0xbf575f40	-0.84129715
221	0xbe89b7ee	-0.2689814
222	0xbf5699f6	-0.83828676
223	0xbf8c8dce	-1.0980775
224	0x3e03a58b	0.12856118
225	0x3db3ca42	0.08778812
226	0xbf088cec	-0.5334003
227	0x3ec5df4b	0.38646922
228	0x3f066806	0.5250248
229	0x3d6e0475	0.05810972
230	0x3f11b151	0.5691119
231	0x3eebff21	0.46093085
232	0x3e12ee40	0.14348698
233	0x3e972747	0.29522154
234	0x3ed5a71f	0.41729066
235	0xbe214fe6	-0.15753135
236	0x3ecaa635	0.3957993
237	0xbed83496	-0.4222762
238	0x3efdfa2c	0.49604928
239	0x3e992790	0.29912996
240	0xbe119004	-0.14215094
241	0x3e34494e	0.17606089
242	0xbc99725b	-0.018731287
243	0x3e1bddb9	0.15221299
244	0xbde34e86	-0.110989615
245	0xbe4b01bc	-0.1982488
246	0x3eb9ee04	0.36314404
247	0x3da383bb	0.0798411
248	0xbe5356cf	-0.20638584
249	0x3ee93a71	0.455524
250	0x3eb9aecb	0.3626617
251	0x3f5be772	0.8590003
252	0xbaa5a4cb	-0.0012637613
253	0xbf0981d4	-0.53713727
254	0x3f152884	0.58264947
255	0xbdda49ee	-0.10658632

net.4.bias f4 [5]
0	0xbed3d450	-0.4137292
1	0xbdcb39a9	-0.09923107
2	0x3dc784b1	0.09742106
3	0x3ebe1a78	0.3712957
4	0xbddc009a	-0.10742302
